{"class_name": "Functional", "config": {"name": "model_154", "layers": [{"class_name": "InputLayer", "config": {"batch_input_shape": [null, null, null, 3], "dtype": "float32", "sparse": false, "ragged": false, "name": "data"}, "name": "data", "inbound_nodes": []}, {"class_name": "BatchNormalization", "config": {"name": "bn_data", "trainable": true, "dtype": "float32", "axis": [3], "momentum": 0.99, "epsilon": 2e-05, "center": true, "scale": false, "beta_initializer": {"class_name": "Zeros", "config": {}}, "gamma_initializer": {"class_name": "Ones", "config": {}}, "moving_mean_initializer": {"class_name": "Zeros", "config": {}}, "moving_variance_initializer": {"class_name": "Ones", "config": {}}, "beta_regularizer": null, "gamma_regularizer": null, "beta_constraint": null, "gamma_constraint": null}, "name": "bn_data", "inbound_nodes": [[["data", 0, 0, {}]]]}, {"class_name": "ZeroPadding2D", "config": {"name": "zero_padding2d_1465", "trainable": true, "dtype": "float32", "padding": [[3, 3], [3, 3]], "data_format": "channels_last"}, "name": "zero_padding2d_1465", "inbound_nodes": [[["bn_data", 0, 0, {}]]]}, {"class_name": "Conv2D", "config": {"name": "conv0", "trainable": true, "dtype": "float32", "filters": 64, "kernel_size": [7, 7], "strides": [2, 2], "padding": "valid", "data_format": "channels_last", "dilation_rate": [1, 1], "groups": 1, "activation": "linear", "use_bias": false, "kernel_initializer": {"class_name": "HeUniform", "config": {"seed": null}}, "bias_initializer": {"class_name": "Zeros", "config": {}}, "kernel_regularizer": null, "bias_regularizer": null, "activity_regularizer": null, "kernel_constraint": null, "bias_constraint": null}, "name": "conv0", "inbound_nodes": [[["zero_padding2d_1465", 0, 0, {}]]]}, {"class_name": "BatchNormalization", "config": {"name": "bn0", "trainable": true, "dtype": "float32", "axis": [3], "momentum": 0.99, "epsilon": 2e-05, "center": true, "scale": true, "beta_initializer": {"class_name": "Zeros", "config": {}}, "gamma_initializer": {"class_name": "Ones", "config": {}}, "moving_mean_initializer": {"class_name": "Zeros", "config": {}}, "moving_variance_initializer": {"class_name": "Ones", "config": {}}, "beta_regularizer": null, "gamma_regularizer": null, "beta_constraint": null, "gamma_constraint": null}, "name": "bn0", "inbound_nodes": [[["conv0", 0, 0, {}]]]}, {"class_name": "Activation", "config": {"name": "relu0", "trainable": true, "dtype": "float32", "activation": "relu"}, "name": "relu0", "inbound_nodes": [[["bn0", 0, 0, {}]]]}, {"class_name": "ZeroPadding2D", "config": {"name": "zero_padding2d_1466", "trainable": true, "dtype": "float32", "padding": [[1, 1], [1, 1]], "data_format": "channels_last"}, "name": "zero_padding2d_1466", "inbound_nodes": [[["relu0", 0, 0, {}]]]}, {"class_name": "MaxPooling2D", "config": {"name": "pooling0", "trainable": true, "dtype": "float32", "pool_size": [3, 3], "padding": "valid", "strides": [2, 2], "data_format": "channels_last"}, "name": "pooling0", "inbound_nodes": [[["zero_padding2d_1466", 0, 0, {}]]]}, {"class_name": "BatchNormalization", "config": {"name": "stage1_unit1_bn1", "trainable": true, "dtype": "float32", "axis": [3], "momentum": 0.99, "epsilon": 2e-05, "center": true, "scale": true, "beta_initializer": {"class_name": "Zeros", "config": {}}, "gamma_initializer": {"class_name": "Ones", "config": {}}, "moving_mean_initializer": {"class_name": "Zeros", "config": {}}, "moving_variance_initializer": {"class_name": "Ones", "config": {}}, "beta_regularizer": null, "gamma_regularizer": null, "beta_constraint": null, "gamma_constraint": null}, "name": "stage1_unit1_bn1", "inbound_nodes": [[["pooling0", 0, 0, {}]]]}, {"class_name": "Activation", "config": {"name": "stage1_unit1_relu1", "trainable": true, "dtype": "float32", "activation": "relu"}, "name": "stage1_unit1_relu1", "inbound_nodes": [[["stage1_unit1_bn1", 0, 0, {}]]]}, {"class_name": "ZeroPadding2D", "config": {"name": "zero_padding2d_1467", "trainable": true, "dtype": "float32", "padding": [[1, 1], [1, 1]], "data_format": "channels_last"}, "name": "zero_padding2d_1467", "inbound_nodes": [[["stage1_unit1_relu1", 0, 0, {}]]]}, {"class_name": "Conv2D", "config": {"name": "stage1_unit1_conv1", "trainable": true, "dtype": "float32", "filters": 64, "kernel_size": [3, 3], "strides": [1, 1], "padding": "valid", "data_format": "channels_last", "dilation_rate": [1, 1], "groups": 1, "activation": "linear", "use_bias": false, "kernel_initializer": {"class_name": "HeUniform", "config": {"seed": null}}, "bias_initializer": {"class_name": "Zeros", "config": {}}, "kernel_regularizer": null, "bias_regularizer": null, "activity_regularizer": null, "kernel_constraint": null, "bias_constraint": null}, "name": "stage1_unit1_conv1", "inbound_nodes": [[["zero_padding2d_1467", 0, 0, {}]]]}, {"class_name": "BatchNormalization", "config": {"name": "stage1_unit1_bn2", "trainable": true, "dtype": "float32", "axis": [3], "momentum": 0.99, "epsilon": 2e-05, "center": true, "scale": true, "beta_initializer": {"class_name": "Zeros", "config": {}}, "gamma_initializer": {"class_name": "Ones", "config": {}}, "moving_mean_initializer": {"class_name": "Zeros", "config": {}}, "moving_variance_initializer": {"class_name": "Ones", "config": {}}, "beta_regularizer": null, "gamma_regularizer": null, "beta_constraint": null, "gamma_constraint": null}, "name": "stage1_unit1_bn2", "inbound_nodes": [[["stage1_unit1_conv1", 0, 0, {}]]]}, {"class_name": "Activation", "config": {"name": "stage1_unit1_relu2", "trainable": true, "dtype": "float32", "activation": "relu"}, "name": "stage1_unit1_relu2", "inbound_nodes": [[["stage1_unit1_bn2", 0, 0, {}]]]}, {"class_name": "ZeroPadding2D", "config": {"name": "zero_padding2d_1468", "trainable": true, "dtype": "float32", "padding": [[1, 1], [1, 1]], "data_format": "channels_last"}, "name": "zero_padding2d_1468", "inbound_nodes": [[["stage1_unit1_relu2", 0, 0, {}]]]}, {"class_name": "Conv2D", "config": {"name": "stage1_unit1_conv2", "trainable": true, "dtype": "float32", "filters": 64, "kernel_size": [3, 3], "strides": [1, 1], "padding": "valid", "data_format": "channels_last", "dilation_rate": [1, 1], "groups": 1, "activation": "linear", "use_bias": false, "kernel_initializer": {"class_name": "HeUniform", "config": {"seed": null}}, "bias_initializer": {"class_name": "Zeros", "config": {}}, "kernel_regularizer": null, "bias_regularizer": null, "activity_regularizer": null, "kernel_constraint": null, "bias_constraint": null}, "name": "stage1_unit1_conv2", "inbound_nodes": [[["zero_padding2d_1468", 0, 0, {}]]]}, {"class_name": "Conv2D", "config": {"name": "stage1_unit1_sc", "trainable": true, "dtype": "float32", "filters": 64, "kernel_size": [1, 1], "strides": [1, 1], "padding": "valid", "data_format": "channels_last", "dilation_rate": [1, 1], "groups": 1, "activation": "linear", "use_bias": false, "kernel_initializer": {"class_name": "HeUniform", "config": {"seed": null}}, "bias_initializer": {"class_name": "Zeros", "config": {}}, "kernel_regularizer": null, "bias_regularizer": null, "activity_regularizer": null, "kernel_constraint": null, "bias_constraint": null}, "name": "stage1_unit1_sc", "inbound_nodes": [[["stage1_unit1_relu1", 0, 0, {}]]]}, {"class_name": "Add", "config": {"name": "add_1107", "trainable": true, "dtype": "float32"}, "name": "add_1107", "inbound_nodes": [[["stage1_unit1_conv2", 0, 0, {}], ["stage1_unit1_sc", 0, 0, {}]]]}, {"class_name": "BatchNormalization", "config": {"name": "stage1_unit2_bn1", "trainable": true, "dtype": "float32", "axis": [3], "momentum": 0.99, "epsilon": 2e-05, "center": true, "scale": true, "beta_initializer": {"class_name": "Zeros", "config": {}}, "gamma_initializer": {"class_name": "Ones", "config": {}}, "moving_mean_initializer": {"class_name": "Zeros", "config": {}}, "moving_variance_initializer": {"class_name": "Ones", "config": {}}, "beta_regularizer": null, "gamma_regularizer": null, "beta_constraint": null, "gamma_constraint": null}, "name": "stage1_unit2_bn1", "inbound_nodes": [[["add_1107", 0, 0, {}]]]}, {"class_name": "Activation", "config": {"name": "stage1_unit2_relu1", "trainable": true, "dtype": "float32", "activation": "relu"}, "name": "stage1_unit2_relu1", "inbound_nodes": [[["stage1_unit2_bn1", 0, 0, {}]]]}, {"class_name": "ZeroPadding2D", "config": {"name": "zero_padding2d_1469", "trainable": true, "dtype": "float32", "padding": [[1, 1], [1, 1]], "data_format": "channels_last"}, "name": "zero_padding2d_1469", "inbound_nodes": [[["stage1_unit2_relu1", 0, 0, {}]]]}, {"class_name": "Conv2D", "config": {"name": "stage1_unit2_conv1", "trainable": true, "dtype": "float32", "filters": 64, "kernel_size": [3, 3], "strides": [1, 1], "padding": "valid", "data_format": "channels_last", "dilation_rate": [1, 1], "groups": 1, "activation": "linear", "use_bias": false, "kernel_initializer": {"class_name": "HeUniform", "config": {"seed": null}}, "bias_initializer": {"class_name": "Zeros", "config": {}}, "kernel_regularizer": null, "bias_regularizer": null, "activity_regularizer": null, "kernel_constraint": null, "bias_constraint": null}, "name": "stage1_unit2_conv1", "inbound_nodes": [[["zero_padding2d_1469", 0, 0, {}]]]}, {"class_name": "BatchNormalization", "config": {"name": "stage1_unit2_bn2", "trainable": true, "dtype": "float32", "axis": [3], "momentum": 0.99, "epsilon": 2e-05, "center": true, "scale": true, "beta_initializer": {"class_name": "Zeros", "config": {}}, "gamma_initializer": {"class_name": "Ones", "config": {}}, "moving_mean_initializer": {"class_name": "Zeros", "config": {}}, "moving_variance_initializer": {"class_name": "Ones", "config": {}}, "beta_regularizer": null, "gamma_regularizer": null, "beta_constraint": null, "gamma_constraint": null}, "name": "stage1_unit2_bn2", "inbound_nodes": [[["stage1_unit2_conv1", 0, 0, {}]]]}, {"class_name": "Activation", "config": {"name": "stage1_unit2_relu2", "trainable": true, "dtype": "float32", "activation": "relu"}, "name": "stage1_unit2_relu2", "inbound_nodes": [[["stage1_unit2_bn2", 0, 0, {}]]]}, {"class_name": "ZeroPadding2D", "config": {"name": "zero_padding2d_1470", "trainable": true, "dtype": "float32", "padding": [[1, 1], [1, 1]], "data_format": "channels_last"}, "name": "zero_padding2d_1470", "inbound_nodes": [[["stage1_unit2_relu2", 0, 0, {}]]]}, {"class_name": "Conv2D", "config": {"name": "stage1_unit2_conv2", "trainable": true, "dtype": "float32", "filters": 64, "kernel_size": [3, 3], "strides": [1, 1], "padding": "valid", "data_format": "channels_last", "dilation_rate": [1, 1], "groups": 1, "activation": "linear", "use_bias": false, "kernel_initializer": {"class_name": "HeUniform", "config": {"seed": null}}, "bias_initializer": {"class_name": "Zeros", "config": {}}, "kernel_regularizer": null, "bias_regularizer": null, "activity_regularizer": null, "kernel_constraint": null, "bias_constraint": null}, "name": "stage1_unit2_conv2", "inbound_nodes": [[["zero_padding2d_1470", 0, 0, {}]]]}, {"class_name": "Add", "config": {"name": "add_1108", "trainable": true, "dtype": "float32"}, "name": "add_1108", "inbound_nodes": [[["stage1_unit2_conv2", 0, 0, {}], ["add_1107", 0, 0, {}]]]}, {"class_name": "BatchNormalization", "config": {"name": "stage2_unit1_bn1", "trainable": true, "dtype": "float32", "axis": [3], "momentum": 0.99, "epsilon": 2e-05, "center": true, "scale": true, "beta_initializer": {"class_name": "Zeros", "config": {}}, "gamma_initializer": {"class_name": "Ones", "config": {}}, "moving_mean_initializer": {"class_name": "Zeros", "config": {}}, "moving_variance_initializer": {"class_name": "Ones", "config": {}}, "beta_regularizer": null, "gamma_regularizer": null, "beta_constraint": null, "gamma_constraint": null}, "name": "stage2_unit1_bn1", "inbound_nodes": [[["add_1108", 0, 0, {}]]]}, {"class_name": "Activation", "config": {"name": "stage2_unit1_relu1", "trainable": true, "dtype": "float32", "activation": "relu"}, "name": "stage2_unit1_relu1", "inbound_nodes": [[["stage2_unit1_bn1", 0, 0, {}]]]}, {"class_name": "ZeroPadding2D", "config": {"name": "zero_padding2d_1471", "trainable": true, "dtype": "float32", "padding": [[1, 1], [1, 1]], "data_format": "channels_last"}, "name": "zero_padding2d_1471", "inbound_nodes": [[["stage2_unit1_relu1", 0, 0, {}]]]}, {"class_name": "Conv2D", "config": {"name": "stage2_unit1_conv1", "trainable": true, "dtype": "float32", "filters": 128, "kernel_size": [3, 3], "strides": [2, 2], "padding": "valid", "data_format": "channels_last", "dilation_rate": [1, 1], "groups": 1, "activation": "linear", "use_bias": false, "kernel_initializer": {"class_name": "HeUniform", "config": {"seed": null}}, "bias_initializer": {"class_name": "Zeros", "config": {}}, "kernel_regularizer": null, "bias_regularizer": null, "activity_regularizer": null, "kernel_constraint": null, "bias_constraint": null}, "name": "stage2_unit1_conv1", "inbound_nodes": [[["zero_padding2d_1471", 0, 0, {}]]]}, {"class_name": "BatchNormalization", "config": {"name": "stage2_unit1_bn2", "trainable": true, "dtype": "float32", "axis": [3], "momentum": 0.99, "epsilon": 2e-05, "center": true, "scale": true, "beta_initializer": {"class_name": "Zeros", "config": {}}, "gamma_initializer": {"class_name": "Ones", "config": {}}, "moving_mean_initializer": {"class_name": "Zeros", "config": {}}, "moving_variance_initializer": {"class_name": "Ones", "config": {}}, "beta_regularizer": null, "gamma_regularizer": null, "beta_constraint": null, "gamma_constraint": null}, "name": "stage2_unit1_bn2", "inbound_nodes": [[["stage2_unit1_conv1", 0, 0, {}]]]}, {"class_name": "Activation", "config": {"name": "stage2_unit1_relu2", "trainable": true, "dtype": "float32", "activation": "relu"}, "name": "stage2_unit1_relu2", "inbound_nodes": [[["stage2_unit1_bn2", 0, 0, {}]]]}, {"class_name": "ZeroPadding2D", "config": {"name": "zero_padding2d_1472", "trainable": true, "dtype": "float32", "padding": [[1, 1], [1, 1]], "data_format": "channels_last"}, "name": "zero_padding2d_1472", "inbound_nodes": [[["stage2_unit1_relu2", 0, 0, {}]]]}, {"class_name": "Conv2D", "config": {"name": "stage2_unit1_conv2", "trainable": true, "dtype": "float32", "filters": 128, "kernel_size": [3, 3], "strides": [1, 1], "padding": "valid", "data_format": "channels_last", "dilation_rate": [1, 1], "groups": 1, "activation": "linear", "use_bias": false, "kernel_initializer": {"class_name": "HeUniform", "config": {"seed": null}}, "bias_initializer": {"class_name": "Zeros", "config": {}}, "kernel_regularizer": null, "bias_regularizer": null, "activity_regularizer": null, "kernel_constraint": null, "bias_constraint": null}, "name": "stage2_unit1_conv2", "inbound_nodes": [[["zero_padding2d_1472", 0, 0, {}]]]}, {"class_name": "Conv2D", "config": {"name": "stage2_unit1_sc", "trainable": true, "dtype": "float32", "filters": 128, "kernel_size": [1, 1], "strides": [2, 2], "padding": "valid", "data_format": "channels_last", "dilation_rate": [1, 1], "groups": 1, "activation": "linear", "use_bias": false, "kernel_initializer": {"class_name": "HeUniform", "config": {"seed": null}}, "bias_initializer": {"class_name": "Zeros", "config": {}}, "kernel_regularizer": null, "bias_regularizer": null, "activity_regularizer": null, "kernel_constraint": null, "bias_constraint": null}, "name": "stage2_unit1_sc", "inbound_nodes": [[["stage2_unit1_relu1", 0, 0, {}]]]}, {"class_name": "Add", "config": {"name": "add_1109", "trainable": true, "dtype": "float32"}, "name": "add_1109", "inbound_nodes": [[["stage2_unit1_conv2", 0, 0, {}], ["stage2_unit1_sc", 0, 0, {}]]]}, {"class_name": "BatchNormalization", "config": {"name": "stage2_unit2_bn1", "trainable": true, "dtype": "float32", "axis": [3], "momentum": 0.99, "epsilon": 2e-05, "center": true, "scale": true, "beta_initializer": {"class_name": "Zeros", "config": {}}, "gamma_initializer": {"class_name": "Ones", "config": {}}, "moving_mean_initializer": {"class_name": "Zeros", "config": {}}, "moving_variance_initializer": {"class_name": "Ones", "config": {}}, "beta_regularizer": null, "gamma_regularizer": null, "beta_constraint": null, "gamma_constraint": null}, "name": "stage2_unit2_bn1", "inbound_nodes": [[["add_1109", 0, 0, {}]]]}, {"class_name": "Activation", "config": {"name": "stage2_unit2_relu1", "trainable": true, "dtype": "float32", "activation": "relu"}, "name": "stage2_unit2_relu1", "inbound_nodes": [[["stage2_unit2_bn1", 0, 0, {}]]]}, {"class_name": "ZeroPadding2D", "config": {"name": "zero_padding2d_1473", "trainable": true, "dtype": "float32", "padding": [[1, 1], [1, 1]], "data_format": "channels_last"}, "name": "zero_padding2d_1473", "inbound_nodes": [[["stage2_unit2_relu1", 0, 0, {}]]]}, {"class_name": "Conv2D", "config": {"name": "stage2_unit2_conv1", "trainable": true, "dtype": "float32", "filters": 128, "kernel_size": [3, 3], "strides": [1, 1], "padding": "valid", "data_format": "channels_last", "dilation_rate": [1, 1], "groups": 1, "activation": "linear", "use_bias": false, "kernel_initializer": {"class_name": "HeUniform", "config": {"seed": null}}, "bias_initializer": {"class_name": "Zeros", "config": {}}, "kernel_regularizer": null, "bias_regularizer": null, "activity_regularizer": null, "kernel_constraint": null, "bias_constraint": null}, "name": "stage2_unit2_conv1", "inbound_nodes": [[["zero_padding2d_1473", 0, 0, {}]]]}, {"class_name": "BatchNormalization", "config": {"name": "stage2_unit2_bn2", "trainable": true, "dtype": "float32", "axis": [3], "momentum": 0.99, "epsilon": 2e-05, "center": true, "scale": true, "beta_initializer": {"class_name": "Zeros", "config": {}}, "gamma_initializer": {"class_name": "Ones", "config": {}}, "moving_mean_initializer": {"class_name": "Zeros", "config": {}}, "moving_variance_initializer": {"class_name": "Ones", "config": {}}, "beta_regularizer": null, "gamma_regularizer": null, "beta_constraint": null, "gamma_constraint": null}, "name": "stage2_unit2_bn2", "inbound_nodes": [[["stage2_unit2_conv1", 0, 0, {}]]]}, {"class_name": "Activation", "config": {"name": "stage2_unit2_relu2", "trainable": true, "dtype": "float32", "activation": "relu"}, "name": "stage2_unit2_relu2", "inbound_nodes": [[["stage2_unit2_bn2", 0, 0, {}]]]}, {"class_name": "ZeroPadding2D", "config": {"name": "zero_padding2d_1474", "trainable": true, "dtype": "float32", "padding": [[1, 1], [1, 1]], "data_format": "channels_last"}, "name": "zero_padding2d_1474", "inbound_nodes": [[["stage2_unit2_relu2", 0, 0, {}]]]}, {"class_name": "Conv2D", "config": {"name": "stage2_unit2_conv2", "trainable": true, "dtype": "float32", "filters": 128, "kernel_size": [3, 3], "strides": [1, 1], "padding": "valid", "data_format": "channels_last", "dilation_rate": [1, 1], "groups": 1, "activation": "linear", "use_bias": false, "kernel_initializer": {"class_name": "HeUniform", "config": {"seed": null}}, "bias_initializer": {"class_name": "Zeros", "config": {}}, "kernel_regularizer": null, "bias_regularizer": null, "activity_regularizer": null, "kernel_constraint": null, "bias_constraint": null}, "name": "stage2_unit2_conv2", "inbound_nodes": [[["zero_padding2d_1474", 0, 0, {}]]]}, {"class_name": "Add", "config": {"name": "add_1110", "trainable": true, "dtype": "float32"}, "name": "add_1110", "inbound_nodes": [[["stage2_unit2_conv2", 0, 0, {}], ["add_1109", 0, 0, {}]]]}, {"class_name": "BatchNormalization", "config": {"name": "stage3_unit1_bn1", "trainable": true, "dtype": "float32", "axis": [3], "momentum": 0.99, "epsilon": 2e-05, "center": true, "scale": true, "beta_initializer": {"class_name": "Zeros", "config": {}}, "gamma_initializer": {"class_name": "Ones", "config": {}}, "moving_mean_initializer": {"class_name": "Zeros", "config": {}}, "moving_variance_initializer": {"class_name": "Ones", "config": {}}, "beta_regularizer": null, "gamma_regularizer": null, "beta_constraint": null, "gamma_constraint": null}, "name": "stage3_unit1_bn1", "inbound_nodes": [[["add_1110", 0, 0, {}]]]}, {"class_name": "Activation", "config": {"name": "stage3_unit1_relu1", "trainable": true, "dtype": "float32", "activation": "relu"}, "name": "stage3_unit1_relu1", "inbound_nodes": [[["stage3_unit1_bn1", 0, 0, {}]]]}, {"class_name": "ZeroPadding2D", "config": {"name": "zero_padding2d_1475", "trainable": true, "dtype": "float32", "padding": [[1, 1], [1, 1]], "data_format": "channels_last"}, "name": "zero_padding2d_1475", "inbound_nodes": [[["stage3_unit1_relu1", 0, 0, {}]]]}, {"class_name": "Conv2D", "config": {"name": "stage3_unit1_conv1", "trainable": true, "dtype": "float32", "filters": 256, "kernel_size": [3, 3], "strides": [2, 2], "padding": "valid", "data_format": "channels_last", "dilation_rate": [1, 1], "groups": 1, "activation": "linear", "use_bias": false, "kernel_initializer": {"class_name": "HeUniform", "config": {"seed": null}}, "bias_initializer": {"class_name": "Zeros", "config": {}}, "kernel_regularizer": null, "bias_regularizer": null, "activity_regularizer": null, "kernel_constraint": null, "bias_constraint": null}, "name": "stage3_unit1_conv1", "inbound_nodes": [[["zero_padding2d_1475", 0, 0, {}]]]}, {"class_name": "BatchNormalization", "config": {"name": "stage3_unit1_bn2", "trainable": true, "dtype": "float32", "axis": [3], "momentum": 0.99, "epsilon": 2e-05, "center": true, "scale": true, "beta_initializer": {"class_name": "Zeros", "config": {}}, "gamma_initializer": {"class_name": "Ones", "config": {}}, "moving_mean_initializer": {"class_name": "Zeros", "config": {}}, "moving_variance_initializer": {"class_name": "Ones", "config": {}}, "beta_regularizer": null, "gamma_regularizer": null, "beta_constraint": null, "gamma_constraint": null}, "name": "stage3_unit1_bn2", "inbound_nodes": [[["stage3_unit1_conv1", 0, 0, {}]]]}, {"class_name": "Activation", "config": {"name": "stage3_unit1_relu2", "trainable": true, "dtype": "float32", "activation": "relu"}, "name": "stage3_unit1_relu2", "inbound_nodes": [[["stage3_unit1_bn2", 0, 0, {}]]]}, {"class_name": "ZeroPadding2D", "config": {"name": "zero_padding2d_1476", "trainable": true, "dtype": "float32", "padding": [[1, 1], [1, 1]], "data_format": "channels_last"}, "name": "zero_padding2d_1476", "inbound_nodes": [[["stage3_unit1_relu2", 0, 0, {}]]]}, {"class_name": "Conv2D", "config": {"name": "stage3_unit1_conv2", "trainable": true, "dtype": "float32", "filters": 256, "kernel_size": [3, 3], "strides": [1, 1], "padding": "valid", "data_format": "channels_last", "dilation_rate": [1, 1], "groups": 1, "activation": "linear", "use_bias": false, "kernel_initializer": {"class_name": "HeUniform", "config": {"seed": null}}, "bias_initializer": {"class_name": "Zeros", "config": {}}, "kernel_regularizer": null, "bias_regularizer": null, "activity_regularizer": null, "kernel_constraint": null, "bias_constraint": null}, "name": "stage3_unit1_conv2", "inbound_nodes": [[["zero_padding2d_1476", 0, 0, {}]]]}, {"class_name": "Conv2D", "config": {"name": "stage3_unit1_sc", "trainable": true, "dtype": "float32", "filters": 256, "kernel_size": [1, 1], "strides": [2, 2], "padding": "valid", "data_format": "channels_last", "dilation_rate": [1, 1], "groups": 1, "activation": "linear", "use_bias": false, "kernel_initializer": {"class_name": "HeUniform", "config": {"seed": null}}, "bias_initializer": {"class_name": "Zeros", "config": {}}, "kernel_regularizer": null, "bias_regularizer": null, "activity_regularizer": null, "kernel_constraint": null, "bias_constraint": null}, "name": "stage3_unit1_sc", "inbound_nodes": [[["stage3_unit1_relu1", 0, 0, {}]]]}, {"class_name": "Add", "config": {"name": "add_1111", "trainable": true, "dtype": "float32"}, "name": "add_1111", "inbound_nodes": [[["stage3_unit1_conv2", 0, 0, {}], ["stage3_unit1_sc", 0, 0, {}]]]}, {"class_name": "BatchNormalization", "config": {"name": "stage3_unit2_bn1", "trainable": true, "dtype": "float32", "axis": [3], "momentum": 0.99, "epsilon": 2e-05, "center": true, "scale": true, "beta_initializer": {"class_name": "Zeros", "config": {}}, "gamma_initializer": {"class_name": "Ones", "config": {}}, "moving_mean_initializer": {"class_name": "Zeros", "config": {}}, "moving_variance_initializer": {"class_name": "Ones", "config": {}}, "beta_regularizer": null, "gamma_regularizer": null, "beta_constraint": null, "gamma_constraint": null}, "name": "stage3_unit2_bn1", "inbound_nodes": [[["add_1111", 0, 0, {}]]]}, {"class_name": "Activation", "config": {"name": "stage3_unit2_relu1", "trainable": true, "dtype": "float32", "activation": "relu"}, "name": "stage3_unit2_relu1", "inbound_nodes": [[["stage3_unit2_bn1", 0, 0, {}]]]}, {"class_name": "ZeroPadding2D", "config": {"name": "zero_padding2d_1477", "trainable": true, "dtype": "float32", "padding": [[1, 1], [1, 1]], "data_format": "channels_last"}, "name": "zero_padding2d_1477", "inbound_nodes": [[["stage3_unit2_relu1", 0, 0, {}]]]}, {"class_name": "Conv2D", "config": {"name": "stage3_unit2_conv1", "trainable": true, "dtype": "float32", "filters": 256, "kernel_size": [3, 3], "strides": [1, 1], "padding": "valid", "data_format": "channels_last", "dilation_rate": [1, 1], "groups": 1, "activation": "linear", "use_bias": false, "kernel_initializer": {"class_name": "HeUniform", "config": {"seed": null}}, "bias_initializer": {"class_name": "Zeros", "config": {}}, "kernel_regularizer": null, "bias_regularizer": null, "activity_regularizer": null, "kernel_constraint": null, "bias_constraint": null}, "name": "stage3_unit2_conv1", "inbound_nodes": [[["zero_padding2d_1477", 0, 0, {}]]]}, {"class_name": "BatchNormalization", "config": {"name": "stage3_unit2_bn2", "trainable": true, "dtype": "float32", "axis": [3], "momentum": 0.99, "epsilon": 2e-05, "center": true, "scale": true, "beta_initializer": {"class_name": "Zeros", "config": {}}, "gamma_initializer": {"class_name": "Ones", "config": {}}, "moving_mean_initializer": {"class_name": "Zeros", "config": {}}, "moving_variance_initializer": {"class_name": "Ones", "config": {}}, "beta_regularizer": null, "gamma_regularizer": null, "beta_constraint": null, "gamma_constraint": null}, "name": "stage3_unit2_bn2", "inbound_nodes": [[["stage3_unit2_conv1", 0, 0, {}]]]}, {"class_name": "Activation", "config": {"name": "stage3_unit2_relu2", "trainable": true, "dtype": "float32", "activation": "relu"}, "name": "stage3_unit2_relu2", "inbound_nodes": [[["stage3_unit2_bn2", 0, 0, {}]]]}, {"class_name": "ZeroPadding2D", "config": {"name": "zero_padding2d_1478", "trainable": true, "dtype": "float32", "padding": [[1, 1], [1, 1]], "data_format": "channels_last"}, "name": "zero_padding2d_1478", "inbound_nodes": [[["stage3_unit2_relu2", 0, 0, {}]]]}, {"class_name": "Conv2D", "config": {"name": "stage3_unit2_conv2", "trainable": true, "dtype": "float32", "filters": 256, "kernel_size": [3, 3], "strides": [1, 1], "padding": "valid", "data_format": "channels_last", "dilation_rate": [1, 1], "groups": 1, "activation": "linear", "use_bias": false, "kernel_initializer": {"class_name": "HeUniform", "config": {"seed": null}}, "bias_initializer": {"class_name": "Zeros", "config": {}}, "kernel_regularizer": null, "bias_regularizer": null, "activity_regularizer": null, "kernel_constraint": null, "bias_constraint": null}, "name": "stage3_unit2_conv2", "inbound_nodes": [[["zero_padding2d_1478", 0, 0, {}]]]}, {"class_name": "Add", "config": {"name": "add_1112", "trainable": true, "dtype": "float32"}, "name": "add_1112", "inbound_nodes": [[["stage3_unit2_conv2", 0, 0, {}], ["add_1111", 0, 0, {}]]]}, {"class_name": "BatchNormalization", "config": {"name": "stage4_unit1_bn1", "trainable": true, "dtype": "float32", "axis": [3], "momentum": 0.99, "epsilon": 2e-05, "center": true, "scale": true, "beta_initializer": {"class_name": "Zeros", "config": {}}, "gamma_initializer": {"class_name": "Ones", "config": {}}, "moving_mean_initializer": {"class_name": "Zeros", "config": {}}, "moving_variance_initializer": {"class_name": "Ones", "config": {}}, "beta_regularizer": null, "gamma_regularizer": null, "beta_constraint": null, "gamma_constraint": null}, "name": "stage4_unit1_bn1", "inbound_nodes": [[["add_1112", 0, 0, {}]]]}, {"class_name": "Activation", "config": {"name": "stage4_unit1_relu1", "trainable": true, "dtype": "float32", "activation": "relu"}, "name": "stage4_unit1_relu1", "inbound_nodes": [[["stage4_unit1_bn1", 0, 0, {}]]]}, {"class_name": "ZeroPadding2D", "config": {"name": "zero_padding2d_1479", "trainable": true, "dtype": "float32", "padding": [[1, 1], [1, 1]], "data_format": "channels_last"}, "name": "zero_padding2d_1479", "inbound_nodes": [[["stage4_unit1_relu1", 0, 0, {}]]]}, {"class_name": "Conv2D", "config": {"name": "stage4_unit1_conv1", "trainable": true, "dtype": "float32", "filters": 512, "kernel_size": [3, 3], "strides": [2, 2], "padding": "valid", "data_format": "channels_last", "dilation_rate": [1, 1], "groups": 1, "activation": "linear", "use_bias": false, "kernel_initializer": {"class_name": "HeUniform", "config": {"seed": null}}, "bias_initializer": {"class_name": "Zeros", "config": {}}, "kernel_regularizer": null, "bias_regularizer": null, "activity_regularizer": null, "kernel_constraint": null, "bias_constraint": null}, "name": "stage4_unit1_conv1", "inbound_nodes": [[["zero_padding2d_1479", 0, 0, {}]]]}, {"class_name": "BatchNormalization", "config": {"name": "stage4_unit1_bn2", "trainable": true, "dtype": "float32", "axis": [3], "momentum": 0.99, "epsilon": 2e-05, "center": true, "scale": true, "beta_initializer": {"class_name": "Zeros", "config": {}}, "gamma_initializer": {"class_name": "Ones", "config": {}}, "moving_mean_initializer": {"class_name": "Zeros", "config": {}}, "moving_variance_initializer": {"class_name": "Ones", "config": {}}, "beta_regularizer": null, "gamma_regularizer": null, "beta_constraint": null, "gamma_constraint": null}, "name": "stage4_unit1_bn2", "inbound_nodes": [[["stage4_unit1_conv1", 0, 0, {}]]]}, {"class_name": "Activation", "config": {"name": "stage4_unit1_relu2", "trainable": true, "dtype": "float32", "activation": "relu"}, "name": "stage4_unit1_relu2", "inbound_nodes": [[["stage4_unit1_bn2", 0, 0, {}]]]}, {"class_name": "ZeroPadding2D", "config": {"name": "zero_padding2d_1480", "trainable": true, "dtype": "float32", "padding": [[1, 1], [1, 1]], "data_format": "channels_last"}, "name": "zero_padding2d_1480", "inbound_nodes": [[["stage4_unit1_relu2", 0, 0, {}]]]}, {"class_name": "Conv2D", "config": {"name": "stage4_unit1_conv2", "trainable": true, "dtype": "float32", "filters": 512, "kernel_size": [3, 3], "strides": [1, 1], "padding": "valid", "data_format": "channels_last", "dilation_rate": [1, 1], "groups": 1, "activation": "linear", "use_bias": false, "kernel_initializer": {"class_name": "HeUniform", "config": {"seed": null}}, "bias_initializer": {"class_name": "Zeros", "config": {}}, "kernel_regularizer": null, "bias_regularizer": null, "activity_regularizer": null, "kernel_constraint": null, "bias_constraint": null}, "name": "stage4_unit1_conv2", "inbound_nodes": [[["zero_padding2d_1480", 0, 0, {}]]]}, {"class_name": "Conv2D", "config": {"name": "stage4_unit1_sc", "trainable": true, "dtype": "float32", "filters": 512, "kernel_size": [1, 1], "strides": [2, 2], "padding": "valid", "data_format": "channels_last", "dilation_rate": [1, 1], "groups": 1, "activation": "linear", "use_bias": false, "kernel_initializer": {"class_name": "HeUniform", "config": {"seed": null}}, "bias_initializer": {"class_name": "Zeros", "config": {}}, "kernel_regularizer": null, "bias_regularizer": null, "activity_regularizer": null, "kernel_constraint": null, "bias_constraint": null}, "name": "stage4_unit1_sc", "inbound_nodes": [[["stage4_unit1_relu1", 0, 0, {}]]]}, {"class_name": "Add", "config": {"name": "add_1113", "trainable": true, "dtype": "float32"}, "name": "add_1113", "inbound_nodes": [[["stage4_unit1_conv2", 0, 0, {}], ["stage4_unit1_sc", 0, 0, {}]]]}, {"class_name": "BatchNormalization", "config": {"name": "stage4_unit2_bn1", "trainable": true, "dtype": "float32", "axis": [3], "momentum": 0.99, "epsilon": 2e-05, "center": true, "scale": true, "beta_initializer": {"class_name": "Zeros", "config": {}}, "gamma_initializer": {"class_name": "Ones", "config": {}}, "moving_mean_initializer": {"class_name": "Zeros", "config": {}}, "moving_variance_initializer": {"class_name": "Ones", "config": {}}, "beta_regularizer": null, "gamma_regularizer": null, "beta_constraint": null, "gamma_constraint": null}, "name": "stage4_unit2_bn1", "inbound_nodes": [[["add_1113", 0, 0, {}]]]}, {"class_name": "Activation", "config": {"name": "stage4_unit2_relu1", "trainable": true, "dtype": "float32", "activation": "relu"}, "name": "stage4_unit2_relu1", "inbound_nodes": [[["stage4_unit2_bn1", 0, 0, {}]]]}, {"class_name": "ZeroPadding2D", "config": {"name": "zero_padding2d_1481", "trainable": true, "dtype": "float32", "padding": [[1, 1], [1, 1]], "data_format": "channels_last"}, "name": "zero_padding2d_1481", "inbound_nodes": [[["stage4_unit2_relu1", 0, 0, {}]]]}, {"class_name": "Conv2D", "config": {"name": "stage4_unit2_conv1", "trainable": true, "dtype": "float32", "filters": 512, "kernel_size": [3, 3], "strides": [1, 1], "padding": "valid", "data_format": "channels_last", "dilation_rate": [1, 1], "groups": 1, "activation": "linear", "use_bias": false, "kernel_initializer": {"class_name": "HeUniform", "config": {"seed": null}}, "bias_initializer": {"class_name": "Zeros", "config": {}}, "kernel_regularizer": null, "bias_regularizer": null, "activity_regularizer": null, "kernel_constraint": null, "bias_constraint": null}, "name": "stage4_unit2_conv1", "inbound_nodes": [[["zero_padding2d_1481", 0, 0, {}]]]}, {"class_name": "BatchNormalization", "config": {"name": "stage4_unit2_bn2", "trainable": true, "dtype": "float32", "axis": [3], "momentum": 0.99, "epsilon": 2e-05, "center": true, "scale": true, "beta_initializer": {"class_name": "Zeros", "config": {}}, "gamma_initializer": {"class_name": "Ones", "config": {}}, "moving_mean_initializer": {"class_name": "Zeros", "config": {}}, "moving_variance_initializer": {"class_name": "Ones", "config": {}}, "beta_regularizer": null, "gamma_regularizer": null, "beta_constraint": null, "gamma_constraint": null}, "name": "stage4_unit2_bn2", "inbound_nodes": [[["stage4_unit2_conv1", 0, 0, {}]]]}, {"class_name": "Activation", "config": {"name": "stage4_unit2_relu2", "trainable": true, "dtype": "float32", "activation": "relu"}, "name": "stage4_unit2_relu2", "inbound_nodes": [[["stage4_unit2_bn2", 0, 0, {}]]]}, {"class_name": "ZeroPadding2D", "config": {"name": "zero_padding2d_1482", "trainable": true, "dtype": "float32", "padding": [[1, 1], [1, 1]], "data_format": "channels_last"}, "name": "zero_padding2d_1482", "inbound_nodes": [[["stage4_unit2_relu2", 0, 0, {}]]]}, {"class_name": "Conv2D", "config": {"name": "stage4_unit2_conv2", "trainable": true, "dtype": "float32", "filters": 512, "kernel_size": [3, 3], "strides": [1, 1], "padding": "valid", "data_format": "channels_last", "dilation_rate": [1, 1], "groups": 1, "activation": "linear", "use_bias": false, "kernel_initializer": {"class_name": "HeUniform", "config": {"seed": null}}, "bias_initializer": {"class_name": "Zeros", "config": {}}, "kernel_regularizer": null, "bias_regularizer": null, "activity_regularizer": null, "kernel_constraint": null, "bias_constraint": null}, "name": "stage4_unit2_conv2", "inbound_nodes": [[["zero_padding2d_1482", 0, 0, {}]]]}, {"class_name": "Add", "config": {"name": "add_1114", "trainable": true, "dtype": "float32"}, "name": "add_1114", "inbound_nodes": [[["stage4_unit2_conv2", 0, 0, {}], ["add_1113", 0, 0, {}]]]}, {"class_name": "BatchNormalization", "config": {"name": "bn1", "trainable": true, "dtype": "float32", "axis": [3], "momentum": 0.99, "epsilon": 2e-05, "center": true, "scale": true, "beta_initializer": {"class_name": "Zeros", "config": {}}, "gamma_initializer": {"class_name": "Ones", "config": {}}, "moving_mean_initializer": {"class_name": "Zeros", "config": {}}, "moving_variance_initializer": {"class_name": "Ones", "config": {}}, "beta_regularizer": null, "gamma_regularizer": null, "beta_constraint": null, "gamma_constraint": null}, "name": "bn1", "inbound_nodes": [[["add_1114", 0, 0, {}]]]}, {"class_name": "Activation", "config": {"name": "relu1", "trainable": true, "dtype": "float32", "activation": "relu"}, "name": "relu1", "inbound_nodes": [[["bn1", 0, 0, {}]]]}, {"class_name": "UpSampling2D", "config": {"name": "decoder_stage0_upsampling", "trainable": true, "dtype": "float32", "size": [2, 2], "data_format": "channels_last", "interpolation": "nearest"}, "name": "decoder_stage0_upsampling", "inbound_nodes": [[["relu1", 0, 0, {}]]]}, {"class_name": "Concatenate", "config": {"name": "decoder_stage0_concat", "trainable": true, "dtype": "float32", "axis": 3}, "name": "decoder_stage0_concat", "inbound_nodes": [[["decoder_stage0_upsampling", 0, 0, {}], ["stage4_unit1_relu1", 0, 0, {}]]]}, {"class_name": "Conv2D", "config": {"name": "decoder_stage0a_conv", "trainable": true, "dtype": "float32", "filters": 256, "kernel_size": [3, 3], "strides": [1, 1], "padding": "same", "data_format": "channels_last", "dilation_rate": [1, 1], "groups": 1, "activation": "linear", "use_bias": false, "kernel_initializer": {"class_name": "HeUniform", "config": {"seed": null}}, "bias_initializer": {"class_name": "Zeros", "config": {}}, "kernel_regularizer": null, "bias_regularizer": null, "activity_regularizer": null, "kernel_constraint": null, "bias_constraint": null}, "name": "decoder_stage0a_conv", "inbound_nodes": [[["decoder_stage0_concat", 0, 0, {}]]]}, {"class_name": "BatchNormalization", "config": {"name": "decoder_stage0a_bn", "trainable": true, "dtype": "float32", "axis": [3], "momentum": 0.99, "epsilon": 0.001, "center": true, "scale": true, "beta_initializer": {"class_name": "Zeros", "config": {}}, "gamma_initializer": {"class_name": "Ones", "config": {}}, "moving_mean_initializer": {"class_name": "Zeros", "config": {}}, "moving_variance_initializer": {"class_name": "Ones", "config": {}}, "beta_regularizer": null, "gamma_regularizer": null, "beta_constraint": null, "gamma_constraint": null}, "name": "decoder_stage0a_bn", "inbound_nodes": [[["decoder_stage0a_conv", 0, 0, {}]]]}, {"class_name": "Activation", "config": {"name": "decoder_stage0a_relu", "trainable": true, "dtype": "float32", "activation": "relu"}, "name": "decoder_stage0a_relu", "inbound_nodes": [[["decoder_stage0a_bn", 0, 0, {}]]]}, {"class_name": "Conv2D", "config": {"name": "decoder_stage0b_conv", "trainable": true, "dtype": "float32", "filters": 256, "kernel_size": [3, 3], "strides": [1, 1], "padding": "same", "data_format": "channels_last", "dilation_rate": [1, 1], "groups": 1, "activation": "linear", "use_bias": false, "kernel_initializer": {"class_name": "HeUniform", "config": {"seed": null}}, "bias_initializer": {"class_name": "Zeros", "config": {}}, "kernel_regularizer": null, "bias_regularizer": null, "activity_regularizer": null, "kernel_constraint": null, "bias_constraint": null}, "name": "decoder_stage0b_conv", "inbound_nodes": [[["decoder_stage0a_relu", 0, 0, {}]]]}, {"class_name": "BatchNormalization", "config": {"name": "decoder_stage0b_bn", "trainable": true, "dtype": "float32", "axis": [3], "momentum": 0.99, "epsilon": 0.001, "center": true, "scale": true, "beta_initializer": {"class_name": "Zeros", "config": {}}, "gamma_initializer": {"class_name": "Ones", "config": {}}, "moving_mean_initializer": {"class_name": "Zeros", "config": {}}, "moving_variance_initializer": {"class_name": "Ones", "config": {}}, "beta_regularizer": null, "gamma_regularizer": null, "beta_constraint": null, "gamma_constraint": null}, "name": "decoder_stage0b_bn", "inbound_nodes": [[["decoder_stage0b_conv", 0, 0, {}]]]}, {"class_name": "Activation", "config": {"name": "decoder_stage0b_relu", "trainable": true, "dtype": "float32", "activation": "relu"}, "name": "decoder_stage0b_relu", "inbound_nodes": [[["decoder_stage0b_bn", 0, 0, {}]]]}, {"class_name": "UpSampling2D", "config": {"name": "decoder_stage1_upsampling", "trainable": true, "dtype": "float32", "size": [2, 2], "data_format": "channels_last", "interpolation": "nearest"}, "name": "decoder_stage1_upsampling", "inbound_nodes": [[["decoder_stage0b_relu", 0, 0, {}]]]}, {"class_name": "Concatenate", "config": {"name": "decoder_stage1_concat", "trainable": true, "dtype": "float32", "axis": 3}, "name": "decoder_stage1_concat", "inbound_nodes": [[["decoder_stage1_upsampling", 0, 0, {}], ["stage3_unit1_relu1", 0, 0, {}]]]}, {"class_name": "Conv2D", "config": {"name": "decoder_stage1a_conv", "trainable": true, "dtype": "float32", "filters": 128, "kernel_size": [3, 3], "strides": [1, 1], "padding": "same", "data_format": "channels_last", "dilation_rate": [1, 1], "groups": 1, "activation": "linear", "use_bias": false, "kernel_initializer": {"class_name": "HeUniform", "config": {"seed": null}}, "bias_initializer": {"class_name": "Zeros", "config": {}}, "kernel_regularizer": null, "bias_regularizer": null, "activity_regularizer": null, "kernel_constraint": null, "bias_constraint": null}, "name": "decoder_stage1a_conv", "inbound_nodes": [[["decoder_stage1_concat", 0, 0, {}]]]}, {"class_name": "BatchNormalization", "config": {"name": "decoder_stage1a_bn", "trainable": true, "dtype": "float32", "axis": [3], "momentum": 0.99, "epsilon": 0.001, "center": true, "scale": true, "beta_initializer": {"class_name": "Zeros", "config": {}}, "gamma_initializer": {"class_name": "Ones", "config": {}}, "moving_mean_initializer": {"class_name": "Zeros", "config": {}}, "moving_variance_initializer": {"class_name": "Ones", "config": {}}, "beta_regularizer": null, "gamma_regularizer": null, "beta_constraint": null, "gamma_constraint": null}, "name": "decoder_stage1a_bn", "inbound_nodes": [[["decoder_stage1a_conv", 0, 0, {}]]]}, {"class_name": "Activation", "config": {"name": "decoder_stage1a_relu", "trainable": true, "dtype": "float32", "activation": "relu"}, "name": "decoder_stage1a_relu", "inbound_nodes": [[["decoder_stage1a_bn", 0, 0, {}]]]}, {"class_name": "Conv2D", "config": {"name": "decoder_stage1b_conv", "trainable": true, "dtype": "float32", "filters": 128, "kernel_size": [3, 3], "strides": [1, 1], "padding": "same", "data_format": "channels_last", "dilation_rate": [1, 1], "groups": 1, "activation": "linear", "use_bias": false, "kernel_initializer": {"class_name": "HeUniform", "config": {"seed": null}}, "bias_initializer": {"class_name": "Zeros", "config": {}}, "kernel_regularizer": null, "bias_regularizer": null, "activity_regularizer": null, "kernel_constraint": null, "bias_constraint": null}, "name": "decoder_stage1b_conv", "inbound_nodes": [[["decoder_stage1a_relu", 0, 0, {}]]]}, {"class_name": "BatchNormalization", "config": {"name": "decoder_stage1b_bn", "trainable": true, "dtype": "float32", "axis": [3], "momentum": 0.99, "epsilon": 0.001, "center": true, "scale": true, "beta_initializer": {"class_name": "Zeros", "config": {}}, "gamma_initializer": {"class_name": "Ones", "config": {}}, "moving_mean_initializer": {"class_name": "Zeros", "config": {}}, "moving_variance_initializer": {"class_name": "Ones", "config": {}}, "beta_regularizer": null, "gamma_regularizer": null, "beta_constraint": null, "gamma_constraint": null}, "name": "decoder_stage1b_bn", "inbound_nodes": [[["decoder_stage1b_conv", 0, 0, {}]]]}, {"class_name": "Activation", "config": {"name": "decoder_stage1b_relu", "trainable": true, "dtype": "float32", "activation": "relu"}, "name": "decoder_stage1b_relu", "inbound_nodes": [[["decoder_stage1b_bn", 0, 0, {}]]]}, {"class_name": "UpSampling2D", "config": {"name": "decoder_stage2_upsampling", "trainable": true, "dtype": "float32", "size": [2, 2], "data_format": "channels_last", "interpolation": "nearest"}, "name": "decoder_stage2_upsampling", "inbound_nodes": [[["decoder_stage1b_relu", 0, 0, {}]]]}, {"class_name": "Concatenate", "config": {"name": "decoder_stage2_concat", "trainable": true, "dtype": "float32", "axis": 3}, "name": "decoder_stage2_concat", "inbound_nodes": [[["decoder_stage2_upsampling", 0, 0, {}], ["stage2_unit1_relu1", 0, 0, {}]]]}, {"class_name": "Conv2D", "config": {"name": "decoder_stage2a_conv", "trainable": true, "dtype": "float32", "filters": 64, "kernel_size": [3, 3], "strides": [1, 1], "padding": "same", "data_format": "channels_last", "dilation_rate": [1, 1], "groups": 1, "activation": "linear", "use_bias": false, "kernel_initializer": {"class_name": "HeUniform", "config": {"seed": null}}, "bias_initializer": {"class_name": "Zeros", "config": {}}, "kernel_regularizer": null, "bias_regularizer": null, "activity_regularizer": null, "kernel_constraint": null, "bias_constraint": null}, "name": "decoder_stage2a_conv", "inbound_nodes": [[["decoder_stage2_concat", 0, 0, {}]]]}, {"class_name": "BatchNormalization", "config": {"name": "decoder_stage2a_bn", "trainable": true, "dtype": "float32", "axis": [3], "momentum": 0.99, "epsilon": 0.001, "center": true, "scale": true, "beta_initializer": {"class_name": "Zeros", "config": {}}, "gamma_initializer": {"class_name": "Ones", "config": {}}, "moving_mean_initializer": {"class_name": "Zeros", "config": {}}, "moving_variance_initializer": {"class_name": "Ones", "config": {}}, "beta_regularizer": null, "gamma_regularizer": null, "beta_constraint": null, "gamma_constraint": null}, "name": "decoder_stage2a_bn", "inbound_nodes": [[["decoder_stage2a_conv", 0, 0, {}]]]}, {"class_name": "Activation", "config": {"name": "decoder_stage2a_relu", "trainable": true, "dtype": "float32", "activation": "relu"}, "name": "decoder_stage2a_relu", "inbound_nodes": [[["decoder_stage2a_bn", 0, 0, {}]]]}, {"class_name": "Conv2D", "config": {"name": "decoder_stage2b_conv", "trainable": true, "dtype": "float32", "filters": 64, "kernel_size": [3, 3], "strides": [1, 1], "padding": "same", "data_format": "channels_last", "dilation_rate": [1, 1], "groups": 1, "activation": "linear", "use_bias": false, "kernel_initializer": {"class_name": "HeUniform", "config": {"seed": null}}, "bias_initializer": {"class_name": "Zeros", "config": {}}, "kernel_regularizer": null, "bias_regularizer": null, "activity_regularizer": null, "kernel_constraint": null, "bias_constraint": null}, "name": "decoder_stage2b_conv", "inbound_nodes": [[["decoder_stage2a_relu", 0, 0, {}]]]}, {"class_name": "BatchNormalization", "config": {"name": "decoder_stage2b_bn", "trainable": true, "dtype": "float32", "axis": [3], "momentum": 0.99, "epsilon": 0.001, "center": true, "scale": true, "beta_initializer": {"class_name": "Zeros", "config": {}}, "gamma_initializer": {"class_name": "Ones", "config": {}}, "moving_mean_initializer": {"class_name": "Zeros", "config": {}}, "moving_variance_initializer": {"class_name": "Ones", "config": {}}, "beta_regularizer": null, "gamma_regularizer": null, "beta_constraint": null, "gamma_constraint": null}, "name": "decoder_stage2b_bn", "inbound_nodes": [[["decoder_stage2b_conv", 0, 0, {}]]]}, {"class_name": "Activation", "config": {"name": "decoder_stage2b_relu", "trainable": true, "dtype": "float32", "activation": "relu"}, "name": "decoder_stage2b_relu", "inbound_nodes": [[["decoder_stage2b_bn", 0, 0, {}]]]}, {"class_name": "UpSampling2D", "config": {"name": "decoder_stage3_upsampling", "trainable": true, "dtype": "float32", "size": [2, 2], "data_format": "channels_last", "interpolation": "nearest"}, "name": "decoder_stage3_upsampling", "inbound_nodes": [[["decoder_stage2b_relu", 0, 0, {}]]]}, {"class_name": "Concatenate", "config": {"name": "decoder_stage3_concat", "trainable": true, "dtype": "float32", "axis": 3}, "name": "decoder_stage3_concat", "inbound_nodes": [[["decoder_stage3_upsampling", 0, 0, {}], ["relu0", 0, 0, {}]]]}, {"class_name": "Conv2D", "config": {"name": "decoder_stage3a_conv", "trainable": true, "dtype": "float32", "filters": 32, "kernel_size": [3, 3], "strides": [1, 1], "padding": "same", "data_format": "channels_last", "dilation_rate": [1, 1], "groups": 1, "activation": "linear", "use_bias": false, "kernel_initializer": {"class_name": "HeUniform", "config": {"seed": null}}, "bias_initializer": {"class_name": "Zeros", "config": {}}, "kernel_regularizer": null, "bias_regularizer": null, "activity_regularizer": null, "kernel_constraint": null, "bias_constraint": null}, "name": "decoder_stage3a_conv", "inbound_nodes": [[["decoder_stage3_concat", 0, 0, {}]]]}, {"class_name": "BatchNormalization", "config": {"name": "decoder_stage3a_bn", "trainable": true, "dtype": "float32", "axis": [3], "momentum": 0.99, "epsilon": 0.001, "center": true, "scale": true, "beta_initializer": {"class_name": "Zeros", "config": {}}, "gamma_initializer": {"class_name": "Ones", "config": {}}, "moving_mean_initializer": {"class_name": "Zeros", "config": {}}, "moving_variance_initializer": {"class_name": "Ones", "config": {}}, "beta_regularizer": null, "gamma_regularizer": null, "beta_constraint": null, "gamma_constraint": null}, "name": "decoder_stage3a_bn", "inbound_nodes": [[["decoder_stage3a_conv", 0, 0, {}]]]}, {"class_name": "Activation", "config": {"name": "decoder_stage3a_relu", "trainable": true, "dtype": "float32", "activation": "relu"}, "name": "decoder_stage3a_relu", "inbound_nodes": [[["decoder_stage3a_bn", 0, 0, {}]]]}, {"class_name": "Conv2D", "config": {"name": "decoder_stage3b_conv", "trainable": true, "dtype": "float32", "filters": 32, "kernel_size": [3, 3], "strides": [1, 1], "padding": "same", "data_format": "channels_last", "dilation_rate": [1, 1], "groups": 1, "activation": "linear", "use_bias": false, "kernel_initializer": {"class_name": "HeUniform", "config": {"seed": null}}, "bias_initializer": {"class_name": "Zeros", "config": {}}, "kernel_regularizer": null, "bias_regularizer": null, "activity_regularizer": null, "kernel_constraint": null, "bias_constraint": null}, "name": "decoder_stage3b_conv", "inbound_nodes": [[["decoder_stage3a_relu", 0, 0, {}]]]}, {"class_name": "BatchNormalization", "config": {"name": "decoder_stage3b_bn", "trainable": true, "dtype": "float32", "axis": [3], "momentum": 0.99, "epsilon": 0.001, "center": true, "scale": true, "beta_initializer": {"class_name": "Zeros", "config": {}}, "gamma_initializer": {"class_name": "Ones", "config": {}}, "moving_mean_initializer": {"class_name": "Zeros", "config": {}}, "moving_variance_initializer": {"class_name": "Ones", "config": {}}, "beta_regularizer": null, "gamma_regularizer": null, "beta_constraint": null, "gamma_constraint": null}, "name": "decoder_stage3b_bn", "inbound_nodes": [[["decoder_stage3b_conv", 0, 0, {}]]]}, {"class_name": "Activation", "config": {"name": "decoder_stage3b_relu", "trainable": true, "dtype": "float32", "activation": "relu"}, "name": "decoder_stage3b_relu", "inbound_nodes": [[["decoder_stage3b_bn", 0, 0, {}]]]}, {"class_name": "UpSampling2D", "config": {"name": "decoder_stage4_upsampling", "trainable": true, "dtype": "float32", "size": [2, 2], "data_format": "channels_last", "interpolation": "nearest"}, "name": "decoder_stage4_upsampling", "inbound_nodes": [[["decoder_stage3b_relu", 0, 0, {}]]]}, {"class_name": "Conv2D", "config": {"name": "decoder_stage4a_conv", "trainable": true, "dtype": "float32", "filters": 16, "kernel_size": [3, 3], "strides": [1, 1], "padding": "same", "data_format": "channels_last", "dilation_rate": [1, 1], "groups": 1, "activation": "linear", "use_bias": false, "kernel_initializer": {"class_name": "HeUniform", "config": {"seed": null}}, "bias_initializer": {"class_name": "Zeros", "config": {}}, "kernel_regularizer": null, "bias_regularizer": null, "activity_regularizer": null, "kernel_constraint": null, "bias_constraint": null}, "name": "decoder_stage4a_conv", "inbound_nodes": [[["decoder_stage4_upsampling", 0, 0, {}]]]}, {"class_name": "BatchNormalization", "config": {"name": "decoder_stage4a_bn", "trainable": true, "dtype": "float32", "axis": [3], "momentum": 0.99, "epsilon": 0.001, "center": true, "scale": true, "beta_initializer": {"class_name": "Zeros", "config": {}}, "gamma_initializer": {"class_name": "Ones", "config": {}}, "moving_mean_initializer": {"class_name": "Zeros", "config": {}}, "moving_variance_initializer": {"class_name": "Ones", "config": {}}, "beta_regularizer": null, "gamma_regularizer": null, "beta_constraint": null, "gamma_constraint": null}, "name": "decoder_stage4a_bn", "inbound_nodes": [[["decoder_stage4a_conv", 0, 0, {}]]]}, {"class_name": "Activation", "config": {"name": "decoder_stage4a_relu", "trainable": true, "dtype": "float32", "activation": "relu"}, "name": "decoder_stage4a_relu", "inbound_nodes": [[["decoder_stage4a_bn", 0, 0, {}]]]}, {"class_name": "Conv2D", "config": {"name": "decoder_stage4b_conv", "trainable": true, "dtype": "float32", "filters": 16, "kernel_size": [3, 3], "strides": [1, 1], "padding": "same", "data_format": "channels_last", "dilation_rate": [1, 1], "groups": 1, "activation": "linear", "use_bias": false, "kernel_initializer": {"class_name": "HeUniform", "config": {"seed": null}}, "bias_initializer": {"class_name": "Zeros", "config": {}}, "kernel_regularizer": null, "bias_regularizer": null, "activity_regularizer": null, "kernel_constraint": null, "bias_constraint": null}, "name": "decoder_stage4b_conv", "inbound_nodes": [[["decoder_stage4a_relu", 0, 0, {}]]]}, {"class_name": "BatchNormalization", "config": {"name": "decoder_stage4b_bn", "trainable": true, "dtype": "float32", "axis": [3], "momentum": 0.99, "epsilon": 0.001, "center": true, "scale": true, "beta_initializer": {"class_name": "Zeros", "config": {}}, "gamma_initializer": {"class_name": "Ones", "config": {}}, "moving_mean_initializer": {"class_name": "Zeros", "config": {}}, "moving_variance_initializer": {"class_name": "Ones", "config": {}}, "beta_regularizer": null, "gamma_regularizer": null, "beta_constraint": null, "gamma_constraint": null}, "name": "decoder_stage4b_bn", "inbound_nodes": [[["decoder_stage4b_conv", 0, 0, {}]]]}, {"class_name": "Activation", "config": {"name": "decoder_stage4b_relu", "trainable": true, "dtype": "float32", "activation": "relu"}, "name": "decoder_stage4b_relu", "inbound_nodes": [[["decoder_stage4b_bn", 0, 0, {}]]]}, {"class_name": "Conv2D", "config": {"name": "final_conv", "trainable": true, "dtype": "float32", "filters": 3, "kernel_size": [3, 3], "strides": [1, 1], "padding": "same", "data_format": "channels_last", "dilation_rate": [1, 1], "groups": 1, "activation": "linear", "use_bias": true, "kernel_initializer": {"class_name": "GlorotUniform", "config": {"seed": null}}, "bias_initializer": {"class_name": "Zeros", "config": {}}, "kernel_regularizer": null, "bias_regularizer": null, "activity_regularizer": null, "kernel_constraint": null, "bias_constraint": null}, "name": "final_conv", "inbound_nodes": [[["decoder_stage4b_relu", 0, 0, {}]]]}, {"class_name": "Activation", "config": {"name": "sigmoid", "trainable": true, "dtype": "float32", "activation": "sigmoid"}, "name": "sigmoid", "inbound_nodes": [[["final_conv", 0, 0, {}]]]}], "input_layers": [["data", 0, 0]], "output_layers": [["sigmoid", 0, 0]]}, "keras_version": "2.8.0", "backend": "tensorflow"}