{"class_name": "Functional", "config": {"name": "model_162", "layers": [{"class_name": "InputLayer", "config": {"batch_input_shape": [null, null, null, 3], "dtype": "float32", "sparse": false, "ragged": false, "name": "data"}, "name": "data", "inbound_nodes": []}, {"class_name": "BatchNormalization", "config": {"name": "bn_data", "trainable": true, "dtype": "float32", "axis": [3], "momentum": 0.99, "epsilon": 2e-05, "center": true, "scale": false, "beta_initializer": {"class_name": "Zeros", "config": {}}, "gamma_initializer": {"class_name": "Ones", "config": {}}, "moving_mean_initializer": {"class_name": "Zeros", "config": {}}, "moving_variance_initializer": {"class_name": "Ones", "config": {}}, "beta_regularizer": null, "gamma_regularizer": null, "beta_constraint": null, "gamma_constraint": null}, "name": "bn_data", "inbound_nodes": [[["data", 0, 0, {}]]]}, {"class_name": "ZeroPadding2D", "config": {"name": "zero_padding2d_1570", "trainable": true, "dtype": "float32", "padding": [[3, 3], [3, 3]], "data_format": "channels_last"}, "name": "zero_padding2d_1570", "inbound_nodes": [[["bn_data", 0, 0, {}]]]}, {"class_name": "Conv2D", "config": {"name": "conv0", "trainable": true, "dtype": "float32", "filters": 64, "kernel_size": [7, 7], "strides": [2, 2], "padding": "valid", "data_format": "channels_last", "dilation_rate": [1, 1], "groups": 1, "activation": "linear", "use_bias": false, "kernel_initializer": {"class_name": "HeUniform", "config": {"seed": null}}, "bias_initializer": {"class_name": "Zeros", "config": {}}, "kernel_regularizer": null, "bias_regularizer": null, "activity_regularizer": null, "kernel_constraint": null, "bias_constraint": null}, "name": "conv0", "inbound_nodes": [[["zero_padding2d_1570", 0, 0, {}]]]}, {"class_name": "BatchNormalization", "config": {"name": "bn0", "trainable": true, "dtype": "float32", "axis": [3], "momentum": 0.99, "epsilon": 2e-05, "center": true, "scale": true, "beta_initializer": {"class_name": "Zeros", "config": {}}, "gamma_initializer": {"class_name": "Ones", "config": {}}, "moving_mean_initializer": {"class_name": "Zeros", "config": {}}, "moving_variance_initializer": {"class_name": "Ones", "config": {}}, "beta_regularizer": null, "gamma_regularizer": null, "beta_constraint": null, "gamma_constraint": null}, "name": "bn0", "inbound_nodes": [[["conv0", 0, 0, {}]]]}, {"class_name": "Activation", "config": {"name": "relu0", "trainable": true, "dtype": "float32", "activation": "relu"}, "name": "relu0", "inbound_nodes": [[["bn0", 0, 0, {}]]]}, {"class_name": "ZeroPadding2D", "config": {"name": "zero_padding2d_1571", "trainable": true, "dtype": "float32", "padding": [[1, 1], [1, 1]], "data_format": "channels_last"}, "name": "zero_padding2d_1571", "inbound_nodes": [[["relu0", 0, 0, {}]]]}, {"class_name": "MaxPooling2D", "config": {"name": "pooling0", "trainable": true, "dtype": "float32", "pool_size": [3, 3], "padding": "valid", "strides": [2, 2], "data_format": "channels_last"}, "name": "pooling0", "inbound_nodes": [[["zero_padding2d_1571", 0, 0, {}]]]}, {"class_name": "BatchNormalization", "config": {"name": "stage1_unit1_bn1", "trainable": true, "dtype": "float32", "axis": [3], "momentum": 0.99, "epsilon": 2e-05, "center": true, "scale": true, "beta_initializer": {"class_name": "Zeros", "config": {}}, "gamma_initializer": {"class_name": "Ones", "config": {}}, "moving_mean_initializer": {"class_name": "Zeros", "config": {}}, "moving_variance_initializer": {"class_name": "Ones", "config": {}}, "beta_regularizer": null, "gamma_regularizer": null, "beta_constraint": null, "gamma_constraint": null}, "name": "stage1_unit1_bn1", "inbound_nodes": [[["pooling0", 0, 0, {}]]]}, {"class_name": "Activation", "config": {"name": "stage1_unit1_relu1", "trainable": true, "dtype": "float32", "activation": "relu"}, "name": "stage1_unit1_relu1", "inbound_nodes": [[["stage1_unit1_bn1", 0, 0, {}]]]}, {"class_name": "Conv2D", "config": {"name": "stage1_unit1_conv1", "trainable": true, "dtype": "float32", "filters": 64, "kernel_size": [1, 1], "strides": [1, 1], "padding": "valid", "data_format": "channels_last", "dilation_rate": [1, 1], "groups": 1, "activation": "linear", "use_bias": false, "kernel_initializer": {"class_name": "HeUniform", "config": {"seed": null}}, "bias_initializer": {"class_name": "Zeros", "config": {}}, "kernel_regularizer": null, "bias_regularizer": null, "activity_regularizer": null, "kernel_constraint": null, "bias_constraint": null}, "name": "stage1_unit1_conv1", "inbound_nodes": [[["stage1_unit1_relu1", 0, 0, {}]]]}, {"class_name": "BatchNormalization", "config": {"name": "stage1_unit1_bn2", "trainable": true, "dtype": "float32", "axis": [3], "momentum": 0.99, "epsilon": 2e-05, "center": true, "scale": true, "beta_initializer": {"class_name": "Zeros", "config": {}}, "gamma_initializer": {"class_name": "Ones", "config": {}}, "moving_mean_initializer": {"class_name": "Zeros", "config": {}}, "moving_variance_initializer": {"class_name": "Ones", "config": {}}, "beta_regularizer": null, "gamma_regularizer": null, "beta_constraint": null, "gamma_constraint": null}, "name": "stage1_unit1_bn2", "inbound_nodes": [[["stage1_unit1_conv1", 0, 0, {}]]]}, {"class_name": "Activation", "config": {"name": "stage1_unit1_relu2", "trainable": true, "dtype": "float32", "activation": "relu"}, "name": "stage1_unit1_relu2", "inbound_nodes": [[["stage1_unit1_bn2", 0, 0, {}]]]}, {"class_name": "ZeroPadding2D", "config": {"name": "zero_padding2d_1572", "trainable": true, "dtype": "float32", "padding": [[1, 1], [1, 1]], "data_format": "channels_last"}, "name": "zero_padding2d_1572", "inbound_nodes": [[["stage1_unit1_relu2", 0, 0, {}]]]}, {"class_name": "Conv2D", "config": {"name": "stage1_unit1_conv2", "trainable": true, "dtype": "float32", "filters": 64, "kernel_size": [3, 3], "strides": [1, 1], "padding": "valid", "data_format": "channels_last", "dilation_rate": [1, 1], "groups": 1, "activation": "linear", "use_bias": false, "kernel_initializer": {"class_name": "HeUniform", "config": {"seed": null}}, "bias_initializer": {"class_name": "Zeros", "config": {}}, "kernel_regularizer": null, "bias_regularizer": null, "activity_regularizer": null, "kernel_constraint": null, "bias_constraint": null}, "name": "stage1_unit1_conv2", "inbound_nodes": [[["zero_padding2d_1572", 0, 0, {}]]]}, {"class_name": "BatchNormalization", "config": {"name": "stage1_unit1_bn3", "trainable": true, "dtype": "float32", "axis": [3], "momentum": 0.99, "epsilon": 2e-05, "center": true, "scale": true, "beta_initializer": {"class_name": "Zeros", "config": {}}, "gamma_initializer": {"class_name": "Ones", "config": {}}, "moving_mean_initializer": {"class_name": "Zeros", "config": {}}, "moving_variance_initializer": {"class_name": "Ones", "config": {}}, "beta_regularizer": null, "gamma_regularizer": null, "beta_constraint": null, "gamma_constraint": null}, "name": "stage1_unit1_bn3", "inbound_nodes": [[["stage1_unit1_conv2", 0, 0, {}]]]}, {"class_name": "Activation", "config": {"name": "stage1_unit1_relu3", "trainable": true, "dtype": "float32", "activation": "relu"}, "name": "stage1_unit1_relu3", "inbound_nodes": [[["stage1_unit1_bn3", 0, 0, {}]]]}, {"class_name": "Conv2D", "config": {"name": "stage1_unit1_conv3", "trainable": true, "dtype": "float32", "filters": 256, "kernel_size": [1, 1], "strides": [1, 1], "padding": "valid", "data_format": "channels_last", "dilation_rate": [1, 1], "groups": 1, "activation": "linear", "use_bias": false, "kernel_initializer": {"class_name": "HeUniform", "config": {"seed": null}}, "bias_initializer": {"class_name": "Zeros", "config": {}}, "kernel_regularizer": null, "bias_regularizer": null, "activity_regularizer": null, "kernel_constraint": null, "bias_constraint": null}, "name": "stage1_unit1_conv3", "inbound_nodes": [[["stage1_unit1_relu3", 0, 0, {}]]]}, {"class_name": "Conv2D", "config": {"name": "stage1_unit1_sc", "trainable": true, "dtype": "float32", "filters": 256, "kernel_size": [1, 1], "strides": [1, 1], "padding": "valid", "data_format": "channels_last", "dilation_rate": [1, 1], "groups": 1, "activation": "linear", "use_bias": false, "kernel_initializer": {"class_name": "HeUniform", "config": {"seed": null}}, "bias_initializer": {"class_name": "Zeros", "config": {}}, "kernel_regularizer": null, "bias_regularizer": null, "activity_regularizer": null, "kernel_constraint": null, "bias_constraint": null}, "name": "stage1_unit1_sc", "inbound_nodes": [[["stage1_unit1_relu1", 0, 0, {}]]]}, {"class_name": "Add", "config": {"name": "add_1180", "trainable": true, "dtype": "float32"}, "name": "add_1180", "inbound_nodes": [[["stage1_unit1_conv3", 0, 0, {}], ["stage1_unit1_sc", 0, 0, {}]]]}, {"class_name": "BatchNormalization", "config": {"name": "stage1_unit2_bn1", "trainable": true, "dtype": "float32", "axis": [3], "momentum": 0.99, "epsilon": 2e-05, "center": true, "scale": true, "beta_initializer": {"class_name": "Zeros", "config": {}}, "gamma_initializer": {"class_name": "Ones", "config": {}}, "moving_mean_initializer": {"class_name": "Zeros", "config": {}}, "moving_variance_initializer": {"class_name": "Ones", "config": {}}, "beta_regularizer": null, "gamma_regularizer": null, "beta_constraint": null, "gamma_constraint": null}, "name": "stage1_unit2_bn1", "inbound_nodes": [[["add_1180", 0, 0, {}]]]}, {"class_name": "Activation", "config": {"name": "stage1_unit2_relu1", "trainable": true, "dtype": "float32", "activation": "relu"}, "name": "stage1_unit2_relu1", "inbound_nodes": [[["stage1_unit2_bn1", 0, 0, {}]]]}, {"class_name": "Conv2D", "config": {"name": "stage1_unit2_conv1", "trainable": true, "dtype": "float32", "filters": 64, "kernel_size": [1, 1], "strides": [1, 1], "padding": "valid", "data_format": "channels_last", "dilation_rate": [1, 1], "groups": 1, "activation": "linear", "use_bias": false, "kernel_initializer": {"class_name": "HeUniform", "config": {"seed": null}}, "bias_initializer": {"class_name": "Zeros", "config": {}}, "kernel_regularizer": null, "bias_regularizer": null, "activity_regularizer": null, "kernel_constraint": null, "bias_constraint": null}, "name": "stage1_unit2_conv1", "inbound_nodes": [[["stage1_unit2_relu1", 0, 0, {}]]]}, {"class_name": "BatchNormalization", "config": {"name": "stage1_unit2_bn2", "trainable": true, "dtype": "float32", "axis": [3], "momentum": 0.99, "epsilon": 2e-05, "center": true, "scale": true, "beta_initializer": {"class_name": "Zeros", "config": {}}, "gamma_initializer": {"class_name": "Ones", "config": {}}, "moving_mean_initializer": {"class_name": "Zeros", "config": {}}, "moving_variance_initializer": {"class_name": "Ones", "config": {}}, "beta_regularizer": null, "gamma_regularizer": null, "beta_constraint": null, "gamma_constraint": null}, "name": "stage1_unit2_bn2", "inbound_nodes": [[["stage1_unit2_conv1", 0, 0, {}]]]}, {"class_name": "Activation", "config": {"name": "stage1_unit2_relu2", "trainable": true, "dtype": "float32", "activation": "relu"}, "name": "stage1_unit2_relu2", "inbound_nodes": [[["stage1_unit2_bn2", 0, 0, {}]]]}, {"class_name": "ZeroPadding2D", "config": {"name": "zero_padding2d_1573", "trainable": true, "dtype": "float32", "padding": [[1, 1], [1, 1]], "data_format": "channels_last"}, "name": "zero_padding2d_1573", "inbound_nodes": [[["stage1_unit2_relu2", 0, 0, {}]]]}, {"class_name": "Conv2D", "config": {"name": "stage1_unit2_conv2", "trainable": true, "dtype": "float32", "filters": 64, "kernel_size": [3, 3], "strides": [1, 1], "padding": "valid", "data_format": "channels_last", "dilation_rate": [1, 1], "groups": 1, "activation": "linear", "use_bias": false, "kernel_initializer": {"class_name": "HeUniform", "config": {"seed": null}}, "bias_initializer": {"class_name": "Zeros", "config": {}}, "kernel_regularizer": null, "bias_regularizer": null, "activity_regularizer": null, "kernel_constraint": null, "bias_constraint": null}, "name": "stage1_unit2_conv2", "inbound_nodes": [[["zero_padding2d_1573", 0, 0, {}]]]}, {"class_name": "BatchNormalization", "config": {"name": "stage1_unit2_bn3", "trainable": true, "dtype": "float32", "axis": [3], "momentum": 0.99, "epsilon": 2e-05, "center": true, "scale": true, "beta_initializer": {"class_name": "Zeros", "config": {}}, "gamma_initializer": {"class_name": "Ones", "config": {}}, "moving_mean_initializer": {"class_name": "Zeros", "config": {}}, "moving_variance_initializer": {"class_name": "Ones", "config": {}}, "beta_regularizer": null, "gamma_regularizer": null, "beta_constraint": null, "gamma_constraint": null}, "name": "stage1_unit2_bn3", "inbound_nodes": [[["stage1_unit2_conv2", 0, 0, {}]]]}, {"class_name": "Activation", "config": {"name": "stage1_unit2_relu3", "trainable": true, "dtype": "float32", "activation": "relu"}, "name": "stage1_unit2_relu3", "inbound_nodes": [[["stage1_unit2_bn3", 0, 0, {}]]]}, {"class_name": "Conv2D", "config": {"name": "stage1_unit2_conv3", "trainable": true, "dtype": "float32", "filters": 256, "kernel_size": [1, 1], "strides": [1, 1], "padding": "valid", "data_format": "channels_last", "dilation_rate": [1, 1], "groups": 1, "activation": "linear", "use_bias": false, "kernel_initializer": {"class_name": "HeUniform", "config": {"seed": null}}, "bias_initializer": {"class_name": "Zeros", "config": {}}, "kernel_regularizer": null, "bias_regularizer": null, "activity_regularizer": null, "kernel_constraint": null, "bias_constraint": null}, "name": "stage1_unit2_conv3", "inbound_nodes": [[["stage1_unit2_relu3", 0, 0, {}]]]}, {"class_name": "Add", "config": {"name": "add_1181", "trainable": true, "dtype": "float32"}, "name": "add_1181", "inbound_nodes": [[["stage1_unit2_conv3", 0, 0, {}], ["add_1180", 0, 0, {}]]]}, {"class_name": "BatchNormalization", "config": {"name": "stage1_unit3_bn1", "trainable": true, "dtype": "float32", "axis": [3], "momentum": 0.99, "epsilon": 2e-05, "center": true, "scale": true, "beta_initializer": {"class_name": "Zeros", "config": {}}, "gamma_initializer": {"class_name": "Ones", "config": {}}, "moving_mean_initializer": {"class_name": "Zeros", "config": {}}, "moving_variance_initializer": {"class_name": "Ones", "config": {}}, "beta_regularizer": null, "gamma_regularizer": null, "beta_constraint": null, "gamma_constraint": null}, "name": "stage1_unit3_bn1", "inbound_nodes": [[["add_1181", 0, 0, {}]]]}, {"class_name": "Activation", "config": {"name": "stage1_unit3_relu1", "trainable": true, "dtype": "float32", "activation": "relu"}, "name": "stage1_unit3_relu1", "inbound_nodes": [[["stage1_unit3_bn1", 0, 0, {}]]]}, {"class_name": "Conv2D", "config": {"name": "stage1_unit3_conv1", "trainable": true, "dtype": "float32", "filters": 64, "kernel_size": [1, 1], "strides": [1, 1], "padding": "valid", "data_format": "channels_last", "dilation_rate": [1, 1], "groups": 1, "activation": "linear", "use_bias": false, "kernel_initializer": {"class_name": "HeUniform", "config": {"seed": null}}, "bias_initializer": {"class_name": "Zeros", "config": {}}, "kernel_regularizer": null, "bias_regularizer": null, "activity_regularizer": null, "kernel_constraint": null, "bias_constraint": null}, "name": "stage1_unit3_conv1", "inbound_nodes": [[["stage1_unit3_relu1", 0, 0, {}]]]}, {"class_name": "BatchNormalization", "config": {"name": "stage1_unit3_bn2", "trainable": true, "dtype": "float32", "axis": [3], "momentum": 0.99, "epsilon": 2e-05, "center": true, "scale": true, "beta_initializer": {"class_name": "Zeros", "config": {}}, "gamma_initializer": {"class_name": "Ones", "config": {}}, "moving_mean_initializer": {"class_name": "Zeros", "config": {}}, "moving_variance_initializer": {"class_name": "Ones", "config": {}}, "beta_regularizer": null, "gamma_regularizer": null, "beta_constraint": null, "gamma_constraint": null}, "name": "stage1_unit3_bn2", "inbound_nodes": [[["stage1_unit3_conv1", 0, 0, {}]]]}, {"class_name": "Activation", "config": {"name": "stage1_unit3_relu2", "trainable": true, "dtype": "float32", "activation": "relu"}, "name": "stage1_unit3_relu2", "inbound_nodes": [[["stage1_unit3_bn2", 0, 0, {}]]]}, {"class_name": "ZeroPadding2D", "config": {"name": "zero_padding2d_1574", "trainable": true, "dtype": "float32", "padding": [[1, 1], [1, 1]], "data_format": "channels_last"}, "name": "zero_padding2d_1574", "inbound_nodes": [[["stage1_unit3_relu2", 0, 0, {}]]]}, {"class_name": "Conv2D", "config": {"name": "stage1_unit3_conv2", "trainable": true, "dtype": "float32", "filters": 64, "kernel_size": [3, 3], "strides": [1, 1], "padding": "valid", "data_format": "channels_last", "dilation_rate": [1, 1], "groups": 1, "activation": "linear", "use_bias": false, "kernel_initializer": {"class_name": "HeUniform", "config": {"seed": null}}, "bias_initializer": {"class_name": "Zeros", "config": {}}, "kernel_regularizer": null, "bias_regularizer": null, "activity_regularizer": null, "kernel_constraint": null, "bias_constraint": null}, "name": "stage1_unit3_conv2", "inbound_nodes": [[["zero_padding2d_1574", 0, 0, {}]]]}, {"class_name": "BatchNormalization", "config": {"name": "stage1_unit3_bn3", "trainable": true, "dtype": "float32", "axis": [3], "momentum": 0.99, "epsilon": 2e-05, "center": true, "scale": true, "beta_initializer": {"class_name": "Zeros", "config": {}}, "gamma_initializer": {"class_name": "Ones", "config": {}}, "moving_mean_initializer": {"class_name": "Zeros", "config": {}}, "moving_variance_initializer": {"class_name": "Ones", "config": {}}, "beta_regularizer": null, "gamma_regularizer": null, "beta_constraint": null, "gamma_constraint": null}, "name": "stage1_unit3_bn3", "inbound_nodes": [[["stage1_unit3_conv2", 0, 0, {}]]]}, {"class_name": "Activation", "config": {"name": "stage1_unit3_relu3", "trainable": true, "dtype": "float32", "activation": "relu"}, "name": "stage1_unit3_relu3", "inbound_nodes": [[["stage1_unit3_bn3", 0, 0, {}]]]}, {"class_name": "Conv2D", "config": {"name": "stage1_unit3_conv3", "trainable": true, "dtype": "float32", "filters": 256, "kernel_size": [1, 1], "strides": [1, 1], "padding": "valid", "data_format": "channels_last", "dilation_rate": [1, 1], "groups": 1, "activation": "linear", "use_bias": false, "kernel_initializer": {"class_name": "HeUniform", "config": {"seed": null}}, "bias_initializer": {"class_name": "Zeros", "config": {}}, "kernel_regularizer": null, "bias_regularizer": null, "activity_regularizer": null, "kernel_constraint": null, "bias_constraint": null}, "name": "stage1_unit3_conv3", "inbound_nodes": [[["stage1_unit3_relu3", 0, 0, {}]]]}, {"class_name": "Add", "config": {"name": "add_1182", "trainable": true, "dtype": "float32"}, "name": "add_1182", "inbound_nodes": [[["stage1_unit3_conv3", 0, 0, {}], ["add_1181", 0, 0, {}]]]}, {"class_name": "BatchNormalization", "config": {"name": "stage2_unit1_bn1", "trainable": true, "dtype": "float32", "axis": [3], "momentum": 0.99, "epsilon": 2e-05, "center": true, "scale": true, "beta_initializer": {"class_name": "Zeros", "config": {}}, "gamma_initializer": {"class_name": "Ones", "config": {}}, "moving_mean_initializer": {"class_name": "Zeros", "config": {}}, "moving_variance_initializer": {"class_name": "Ones", "config": {}}, "beta_regularizer": null, "gamma_regularizer": null, "beta_constraint": null, "gamma_constraint": null}, "name": "stage2_unit1_bn1", "inbound_nodes": [[["add_1182", 0, 0, {}]]]}, {"class_name": "Activation", "config": {"name": "stage2_unit1_relu1", "trainable": true, "dtype": "float32", "activation": "relu"}, "name": "stage2_unit1_relu1", "inbound_nodes": [[["stage2_unit1_bn1", 0, 0, {}]]]}, {"class_name": "Conv2D", "config": {"name": "stage2_unit1_conv1", "trainable": true, "dtype": "float32", "filters": 128, "kernel_size": [1, 1], "strides": [1, 1], "padding": "valid", "data_format": "channels_last", "dilation_rate": [1, 1], "groups": 1, "activation": "linear", "use_bias": false, "kernel_initializer": {"class_name": "HeUniform", "config": {"seed": null}}, "bias_initializer": {"class_name": "Zeros", "config": {}}, "kernel_regularizer": null, "bias_regularizer": null, "activity_regularizer": null, "kernel_constraint": null, "bias_constraint": null}, "name": "stage2_unit1_conv1", "inbound_nodes": [[["stage2_unit1_relu1", 0, 0, {}]]]}, {"class_name": "BatchNormalization", "config": {"name": "stage2_unit1_bn2", "trainable": true, "dtype": "float32", "axis": [3], "momentum": 0.99, "epsilon": 2e-05, "center": true, "scale": true, "beta_initializer": {"class_name": "Zeros", "config": {}}, "gamma_initializer": {"class_name": "Ones", "config": {}}, "moving_mean_initializer": {"class_name": "Zeros", "config": {}}, "moving_variance_initializer": {"class_name": "Ones", "config": {}}, "beta_regularizer": null, "gamma_regularizer": null, "beta_constraint": null, "gamma_constraint": null}, "name": "stage2_unit1_bn2", "inbound_nodes": [[["stage2_unit1_conv1", 0, 0, {}]]]}, {"class_name": "Activation", "config": {"name": "stage2_unit1_relu2", "trainable": true, "dtype": "float32", "activation": "relu"}, "name": "stage2_unit1_relu2", "inbound_nodes": [[["stage2_unit1_bn2", 0, 0, {}]]]}, {"class_name": "ZeroPadding2D", "config": {"name": "zero_padding2d_1575", "trainable": true, "dtype": "float32", "padding": [[1, 1], [1, 1]], "data_format": "channels_last"}, "name": "zero_padding2d_1575", "inbound_nodes": [[["stage2_unit1_relu2", 0, 0, {}]]]}, {"class_name": "Conv2D", "config": {"name": "stage2_unit1_conv2", "trainable": true, "dtype": "float32", "filters": 128, "kernel_size": [3, 3], "strides": [2, 2], "padding": "valid", "data_format": "channels_last", "dilation_rate": [1, 1], "groups": 1, "activation": "linear", "use_bias": false, "kernel_initializer": {"class_name": "HeUniform", "config": {"seed": null}}, "bias_initializer": {"class_name": "Zeros", "config": {}}, "kernel_regularizer": null, "bias_regularizer": null, "activity_regularizer": null, "kernel_constraint": null, "bias_constraint": null}, "name": "stage2_unit1_conv2", "inbound_nodes": [[["zero_padding2d_1575", 0, 0, {}]]]}, {"class_name": "BatchNormalization", "config": {"name": "stage2_unit1_bn3", "trainable": true, "dtype": "float32", "axis": [3], "momentum": 0.99, "epsilon": 2e-05, "center": true, "scale": true, "beta_initializer": {"class_name": "Zeros", "config": {}}, "gamma_initializer": {"class_name": "Ones", "config": {}}, "moving_mean_initializer": {"class_name": "Zeros", "config": {}}, "moving_variance_initializer": {"class_name": "Ones", "config": {}}, "beta_regularizer": null, "gamma_regularizer": null, "beta_constraint": null, "gamma_constraint": null}, "name": "stage2_unit1_bn3", "inbound_nodes": [[["stage2_unit1_conv2", 0, 0, {}]]]}, {"class_name": "Activation", "config": {"name": "stage2_unit1_relu3", "trainable": true, "dtype": "float32", "activation": "relu"}, "name": "stage2_unit1_relu3", "inbound_nodes": [[["stage2_unit1_bn3", 0, 0, {}]]]}, {"class_name": "Conv2D", "config": {"name": "stage2_unit1_conv3", "trainable": true, "dtype": "float32", "filters": 512, "kernel_size": [1, 1], "strides": [1, 1], "padding": "valid", "data_format": "channels_last", "dilation_rate": [1, 1], "groups": 1, "activation": "linear", "use_bias": false, "kernel_initializer": {"class_name": "HeUniform", "config": {"seed": null}}, "bias_initializer": {"class_name": "Zeros", "config": {}}, "kernel_regularizer": null, "bias_regularizer": null, "activity_regularizer": null, "kernel_constraint": null, "bias_constraint": null}, "name": "stage2_unit1_conv3", "inbound_nodes": [[["stage2_unit1_relu3", 0, 0, {}]]]}, {"class_name": "Conv2D", "config": {"name": "stage2_unit1_sc", "trainable": true, "dtype": "float32", "filters": 512, "kernel_size": [1, 1], "strides": [2, 2], "padding": "valid", "data_format": "channels_last", "dilation_rate": [1, 1], "groups": 1, "activation": "linear", "use_bias": false, "kernel_initializer": {"class_name": "HeUniform", "config": {"seed": null}}, "bias_initializer": {"class_name": "Zeros", "config": {}}, "kernel_regularizer": null, "bias_regularizer": null, "activity_regularizer": null, "kernel_constraint": null, "bias_constraint": null}, "name": "stage2_unit1_sc", "inbound_nodes": [[["stage2_unit1_relu1", 0, 0, {}]]]}, {"class_name": "Add", "config": {"name": "add_1183", "trainable": true, "dtype": "float32"}, "name": "add_1183", "inbound_nodes": [[["stage2_unit1_conv3", 0, 0, {}], ["stage2_unit1_sc", 0, 0, {}]]]}, {"class_name": "BatchNormalization", "config": {"name": "stage2_unit2_bn1", "trainable": true, "dtype": "float32", "axis": [3], "momentum": 0.99, "epsilon": 2e-05, "center": true, "scale": true, "beta_initializer": {"class_name": "Zeros", "config": {}}, "gamma_initializer": {"class_name": "Ones", "config": {}}, "moving_mean_initializer": {"class_name": "Zeros", "config": {}}, "moving_variance_initializer": {"class_name": "Ones", "config": {}}, "beta_regularizer": null, "gamma_regularizer": null, "beta_constraint": null, "gamma_constraint": null}, "name": "stage2_unit2_bn1", "inbound_nodes": [[["add_1183", 0, 0, {}]]]}, {"class_name": "Activation", "config": {"name": "stage2_unit2_relu1", "trainable": true, "dtype": "float32", "activation": "relu"}, "name": "stage2_unit2_relu1", "inbound_nodes": [[["stage2_unit2_bn1", 0, 0, {}]]]}, {"class_name": "Conv2D", "config": {"name": "stage2_unit2_conv1", "trainable": true, "dtype": "float32", "filters": 128, "kernel_size": [1, 1], "strides": [1, 1], "padding": "valid", "data_format": "channels_last", "dilation_rate": [1, 1], "groups": 1, "activation": "linear", "use_bias": false, "kernel_initializer": {"class_name": "HeUniform", "config": {"seed": null}}, "bias_initializer": {"class_name": "Zeros", "config": {}}, "kernel_regularizer": null, "bias_regularizer": null, "activity_regularizer": null, "kernel_constraint": null, "bias_constraint": null}, "name": "stage2_unit2_conv1", "inbound_nodes": [[["stage2_unit2_relu1", 0, 0, {}]]]}, {"class_name": "BatchNormalization", "config": {"name": "stage2_unit2_bn2", "trainable": true, "dtype": "float32", "axis": [3], "momentum": 0.99, "epsilon": 2e-05, "center": true, "scale": true, "beta_initializer": {"class_name": "Zeros", "config": {}}, "gamma_initializer": {"class_name": "Ones", "config": {}}, "moving_mean_initializer": {"class_name": "Zeros", "config": {}}, "moving_variance_initializer": {"class_name": "Ones", "config": {}}, "beta_regularizer": null, "gamma_regularizer": null, "beta_constraint": null, "gamma_constraint": null}, "name": "stage2_unit2_bn2", "inbound_nodes": [[["stage2_unit2_conv1", 0, 0, {}]]]}, {"class_name": "Activation", "config": {"name": "stage2_unit2_relu2", "trainable": true, "dtype": "float32", "activation": "relu"}, "name": "stage2_unit2_relu2", "inbound_nodes": [[["stage2_unit2_bn2", 0, 0, {}]]]}, {"class_name": "ZeroPadding2D", "config": {"name": "zero_padding2d_1576", "trainable": true, "dtype": "float32", "padding": [[1, 1], [1, 1]], "data_format": "channels_last"}, "name": "zero_padding2d_1576", "inbound_nodes": [[["stage2_unit2_relu2", 0, 0, {}]]]}, {"class_name": "Conv2D", "config": {"name": "stage2_unit2_conv2", "trainable": true, "dtype": "float32", "filters": 128, "kernel_size": [3, 3], "strides": [1, 1], "padding": "valid", "data_format": "channels_last", "dilation_rate": [1, 1], "groups": 1, "activation": "linear", "use_bias": false, "kernel_initializer": {"class_name": "HeUniform", "config": {"seed": null}}, "bias_initializer": {"class_name": "Zeros", "config": {}}, "kernel_regularizer": null, "bias_regularizer": null, "activity_regularizer": null, "kernel_constraint": null, "bias_constraint": null}, "name": "stage2_unit2_conv2", "inbound_nodes": [[["zero_padding2d_1576", 0, 0, {}]]]}, {"class_name": "BatchNormalization", "config": {"name": "stage2_unit2_bn3", "trainable": true, "dtype": "float32", "axis": [3], "momentum": 0.99, "epsilon": 2e-05, "center": true, "scale": true, "beta_initializer": {"class_name": "Zeros", "config": {}}, "gamma_initializer": {"class_name": "Ones", "config": {}}, "moving_mean_initializer": {"class_name": "Zeros", "config": {}}, "moving_variance_initializer": {"class_name": "Ones", "config": {}}, "beta_regularizer": null, "gamma_regularizer": null, "beta_constraint": null, "gamma_constraint": null}, "name": "stage2_unit2_bn3", "inbound_nodes": [[["stage2_unit2_conv2", 0, 0, {}]]]}, {"class_name": "Activation", "config": {"name": "stage2_unit2_relu3", "trainable": true, "dtype": "float32", "activation": "relu"}, "name": "stage2_unit2_relu3", "inbound_nodes": [[["stage2_unit2_bn3", 0, 0, {}]]]}, {"class_name": "Conv2D", "config": {"name": "stage2_unit2_conv3", "trainable": true, "dtype": "float32", "filters": 512, "kernel_size": [1, 1], "strides": [1, 1], "padding": "valid", "data_format": "channels_last", "dilation_rate": [1, 1], "groups": 1, "activation": "linear", "use_bias": false, "kernel_initializer": {"class_name": "HeUniform", "config": {"seed": null}}, "bias_initializer": {"class_name": "Zeros", "config": {}}, "kernel_regularizer": null, "bias_regularizer": null, "activity_regularizer": null, "kernel_constraint": null, "bias_constraint": null}, "name": "stage2_unit2_conv3", "inbound_nodes": [[["stage2_unit2_relu3", 0, 0, {}]]]}, {"class_name": "Add", "config": {"name": "add_1184", "trainable": true, "dtype": "float32"}, "name": "add_1184", "inbound_nodes": [[["stage2_unit2_conv3", 0, 0, {}], ["add_1183", 0, 0, {}]]]}, {"class_name": "BatchNormalization", "config": {"name": "stage2_unit3_bn1", "trainable": true, "dtype": "float32", "axis": [3], "momentum": 0.99, "epsilon": 2e-05, "center": true, "scale": true, "beta_initializer": {"class_name": "Zeros", "config": {}}, "gamma_initializer": {"class_name": "Ones", "config": {}}, "moving_mean_initializer": {"class_name": "Zeros", "config": {}}, "moving_variance_initializer": {"class_name": "Ones", "config": {}}, "beta_regularizer": null, "gamma_regularizer": null, "beta_constraint": null, "gamma_constraint": null}, "name": "stage2_unit3_bn1", "inbound_nodes": [[["add_1184", 0, 0, {}]]]}, {"class_name": "Activation", "config": {"name": "stage2_unit3_relu1", "trainable": true, "dtype": "float32", "activation": "relu"}, "name": "stage2_unit3_relu1", "inbound_nodes": [[["stage2_unit3_bn1", 0, 0, {}]]]}, {"class_name": "Conv2D", "config": {"name": "stage2_unit3_conv1", "trainable": true, "dtype": "float32", "filters": 128, "kernel_size": [1, 1], "strides": [1, 1], "padding": "valid", "data_format": "channels_last", "dilation_rate": [1, 1], "groups": 1, "activation": "linear", "use_bias": false, "kernel_initializer": {"class_name": "HeUniform", "config": {"seed": null}}, "bias_initializer": {"class_name": "Zeros", "config": {}}, "kernel_regularizer": null, "bias_regularizer": null, "activity_regularizer": null, "kernel_constraint": null, "bias_constraint": null}, "name": "stage2_unit3_conv1", "inbound_nodes": [[["stage2_unit3_relu1", 0, 0, {}]]]}, {"class_name": "BatchNormalization", "config": {"name": "stage2_unit3_bn2", "trainable": true, "dtype": "float32", "axis": [3], "momentum": 0.99, "epsilon": 2e-05, "center": true, "scale": true, "beta_initializer": {"class_name": "Zeros", "config": {}}, "gamma_initializer": {"class_name": "Ones", "config": {}}, "moving_mean_initializer": {"class_name": "Zeros", "config": {}}, "moving_variance_initializer": {"class_name": "Ones", "config": {}}, "beta_regularizer": null, "gamma_regularizer": null, "beta_constraint": null, "gamma_constraint": null}, "name": "stage2_unit3_bn2", "inbound_nodes": [[["stage2_unit3_conv1", 0, 0, {}]]]}, {"class_name": "Activation", "config": {"name": "stage2_unit3_relu2", "trainable": true, "dtype": "float32", "activation": "relu"}, "name": "stage2_unit3_relu2", "inbound_nodes": [[["stage2_unit3_bn2", 0, 0, {}]]]}, {"class_name": "ZeroPadding2D", "config": {"name": "zero_padding2d_1577", "trainable": true, "dtype": "float32", "padding": [[1, 1], [1, 1]], "data_format": "channels_last"}, "name": "zero_padding2d_1577", "inbound_nodes": [[["stage2_unit3_relu2", 0, 0, {}]]]}, {"class_name": "Conv2D", "config": {"name": "stage2_unit3_conv2", "trainable": true, "dtype": "float32", "filters": 128, "kernel_size": [3, 3], "strides": [1, 1], "padding": "valid", "data_format": "channels_last", "dilation_rate": [1, 1], "groups": 1, "activation": "linear", "use_bias": false, "kernel_initializer": {"class_name": "HeUniform", "config": {"seed": null}}, "bias_initializer": {"class_name": "Zeros", "config": {}}, "kernel_regularizer": null, "bias_regularizer": null, "activity_regularizer": null, "kernel_constraint": null, "bias_constraint": null}, "name": "stage2_unit3_conv2", "inbound_nodes": [[["zero_padding2d_1577", 0, 0, {}]]]}, {"class_name": "BatchNormalization", "config": {"name": "stage2_unit3_bn3", "trainable": true, "dtype": "float32", "axis": [3], "momentum": 0.99, "epsilon": 2e-05, "center": true, "scale": true, "beta_initializer": {"class_name": "Zeros", "config": {}}, "gamma_initializer": {"class_name": "Ones", "config": {}}, "moving_mean_initializer": {"class_name": "Zeros", "config": {}}, "moving_variance_initializer": {"class_name": "Ones", "config": {}}, "beta_regularizer": null, "gamma_regularizer": null, "beta_constraint": null, "gamma_constraint": null}, "name": "stage2_unit3_bn3", "inbound_nodes": [[["stage2_unit3_conv2", 0, 0, {}]]]}, {"class_name": "Activation", "config": {"name": "stage2_unit3_relu3", "trainable": true, "dtype": "float32", "activation": "relu"}, "name": "stage2_unit3_relu3", "inbound_nodes": [[["stage2_unit3_bn3", 0, 0, {}]]]}, {"class_name": "Conv2D", "config": {"name": "stage2_unit3_conv3", "trainable": true, "dtype": "float32", "filters": 512, "kernel_size": [1, 1], "strides": [1, 1], "padding": "valid", "data_format": "channels_last", "dilation_rate": [1, 1], "groups": 1, "activation": "linear", "use_bias": false, "kernel_initializer": {"class_name": "HeUniform", "config": {"seed": null}}, "bias_initializer": {"class_name": "Zeros", "config": {}}, "kernel_regularizer": null, "bias_regularizer": null, "activity_regularizer": null, "kernel_constraint": null, "bias_constraint": null}, "name": "stage2_unit3_conv3", "inbound_nodes": [[["stage2_unit3_relu3", 0, 0, {}]]]}, {"class_name": "Add", "config": {"name": "add_1185", "trainable": true, "dtype": "float32"}, "name": "add_1185", "inbound_nodes": [[["stage2_unit3_conv3", 0, 0, {}], ["add_1184", 0, 0, {}]]]}, {"class_name": "BatchNormalization", "config": {"name": "stage2_unit4_bn1", "trainable": true, "dtype": "float32", "axis": [3], "momentum": 0.99, "epsilon": 2e-05, "center": true, "scale": true, "beta_initializer": {"class_name": "Zeros", "config": {}}, "gamma_initializer": {"class_name": "Ones", "config": {}}, "moving_mean_initializer": {"class_name": "Zeros", "config": {}}, "moving_variance_initializer": {"class_name": "Ones", "config": {}}, "beta_regularizer": null, "gamma_regularizer": null, "beta_constraint": null, "gamma_constraint": null}, "name": "stage2_unit4_bn1", "inbound_nodes": [[["add_1185", 0, 0, {}]]]}, {"class_name": "Activation", "config": {"name": "stage2_unit4_relu1", "trainable": true, "dtype": "float32", "activation": "relu"}, "name": "stage2_unit4_relu1", "inbound_nodes": [[["stage2_unit4_bn1", 0, 0, {}]]]}, {"class_name": "Conv2D", "config": {"name": "stage2_unit4_conv1", "trainable": true, "dtype": "float32", "filters": 128, "kernel_size": [1, 1], "strides": [1, 1], "padding": "valid", "data_format": "channels_last", "dilation_rate": [1, 1], "groups": 1, "activation": "linear", "use_bias": false, "kernel_initializer": {"class_name": "HeUniform", "config": {"seed": null}}, "bias_initializer": {"class_name": "Zeros", "config": {}}, "kernel_regularizer": null, "bias_regularizer": null, "activity_regularizer": null, "kernel_constraint": null, "bias_constraint": null}, "name": "stage2_unit4_conv1", "inbound_nodes": [[["stage2_unit4_relu1", 0, 0, {}]]]}, {"class_name": "BatchNormalization", "config": {"name": "stage2_unit4_bn2", "trainable": true, "dtype": "float32", "axis": [3], "momentum": 0.99, "epsilon": 2e-05, "center": true, "scale": true, "beta_initializer": {"class_name": "Zeros", "config": {}}, "gamma_initializer": {"class_name": "Ones", "config": {}}, "moving_mean_initializer": {"class_name": "Zeros", "config": {}}, "moving_variance_initializer": {"class_name": "Ones", "config": {}}, "beta_regularizer": null, "gamma_regularizer": null, "beta_constraint": null, "gamma_constraint": null}, "name": "stage2_unit4_bn2", "inbound_nodes": [[["stage2_unit4_conv1", 0, 0, {}]]]}, {"class_name": "Activation", "config": {"name": "stage2_unit4_relu2", "trainable": true, "dtype": "float32", "activation": "relu"}, "name": "stage2_unit4_relu2", "inbound_nodes": [[["stage2_unit4_bn2", 0, 0, {}]]]}, {"class_name": "ZeroPadding2D", "config": {"name": "zero_padding2d_1578", "trainable": true, "dtype": "float32", "padding": [[1, 1], [1, 1]], "data_format": "channels_last"}, "name": "zero_padding2d_1578", "inbound_nodes": [[["stage2_unit4_relu2", 0, 0, {}]]]}, {"class_name": "Conv2D", "config": {"name": "stage2_unit4_conv2", "trainable": true, "dtype": "float32", "filters": 128, "kernel_size": [3, 3], "strides": [1, 1], "padding": "valid", "data_format": "channels_last", "dilation_rate": [1, 1], "groups": 1, "activation": "linear", "use_bias": false, "kernel_initializer": {"class_name": "HeUniform", "config": {"seed": null}}, "bias_initializer": {"class_name": "Zeros", "config": {}}, "kernel_regularizer": null, "bias_regularizer": null, "activity_regularizer": null, "kernel_constraint": null, "bias_constraint": null}, "name": "stage2_unit4_conv2", "inbound_nodes": [[["zero_padding2d_1578", 0, 0, {}]]]}, {"class_name": "BatchNormalization", "config": {"name": "stage2_unit4_bn3", "trainable": true, "dtype": "float32", "axis": [3], "momentum": 0.99, "epsilon": 2e-05, "center": true, "scale": true, "beta_initializer": {"class_name": "Zeros", "config": {}}, "gamma_initializer": {"class_name": "Ones", "config": {}}, "moving_mean_initializer": {"class_name": "Zeros", "config": {}}, "moving_variance_initializer": {"class_name": "Ones", "config": {}}, "beta_regularizer": null, "gamma_regularizer": null, "beta_constraint": null, "gamma_constraint": null}, "name": "stage2_unit4_bn3", "inbound_nodes": [[["stage2_unit4_conv2", 0, 0, {}]]]}, {"class_name": "Activation", "config": {"name": "stage2_unit4_relu3", "trainable": true, "dtype": "float32", "activation": "relu"}, "name": "stage2_unit4_relu3", "inbound_nodes": [[["stage2_unit4_bn3", 0, 0, {}]]]}, {"class_name": "Conv2D", "config": {"name": "stage2_unit4_conv3", "trainable": true, "dtype": "float32", "filters": 512, "kernel_size": [1, 1], "strides": [1, 1], "padding": "valid", "data_format": "channels_last", "dilation_rate": [1, 1], "groups": 1, "activation": "linear", "use_bias": false, "kernel_initializer": {"class_name": "HeUniform", "config": {"seed": null}}, "bias_initializer": {"class_name": "Zeros", "config": {}}, "kernel_regularizer": null, "bias_regularizer": null, "activity_regularizer": null, "kernel_constraint": null, "bias_constraint": null}, "name": "stage2_unit4_conv3", "inbound_nodes": [[["stage2_unit4_relu3", 0, 0, {}]]]}, {"class_name": "Add", "config": {"name": "add_1186", "trainable": true, "dtype": "float32"}, "name": "add_1186", "inbound_nodes": [[["stage2_unit4_conv3", 0, 0, {}], ["add_1185", 0, 0, {}]]]}, {"class_name": "BatchNormalization", "config": {"name": "stage2_unit5_bn1", "trainable": true, "dtype": "float32", "axis": [3], "momentum": 0.99, "epsilon": 2e-05, "center": true, "scale": true, "beta_initializer": {"class_name": "Zeros", "config": {}}, "gamma_initializer": {"class_name": "Ones", "config": {}}, "moving_mean_initializer": {"class_name": "Zeros", "config": {}}, "moving_variance_initializer": {"class_name": "Ones", "config": {}}, "beta_regularizer": null, "gamma_regularizer": null, "beta_constraint": null, "gamma_constraint": null}, "name": "stage2_unit5_bn1", "inbound_nodes": [[["add_1186", 0, 0, {}]]]}, {"class_name": "Activation", "config": {"name": "stage2_unit5_relu1", "trainable": true, "dtype": "float32", "activation": "relu"}, "name": "stage2_unit5_relu1", "inbound_nodes": [[["stage2_unit5_bn1", 0, 0, {}]]]}, {"class_name": "Conv2D", "config": {"name": "stage2_unit5_conv1", "trainable": true, "dtype": "float32", "filters": 128, "kernel_size": [1, 1], "strides": [1, 1], "padding": "valid", "data_format": "channels_last", "dilation_rate": [1, 1], "groups": 1, "activation": "linear", "use_bias": false, "kernel_initializer": {"class_name": "HeUniform", "config": {"seed": null}}, "bias_initializer": {"class_name": "Zeros", "config": {}}, "kernel_regularizer": null, "bias_regularizer": null, "activity_regularizer": null, "kernel_constraint": null, "bias_constraint": null}, "name": "stage2_unit5_conv1", "inbound_nodes": [[["stage2_unit5_relu1", 0, 0, {}]]]}, {"class_name": "BatchNormalization", "config": {"name": "stage2_unit5_bn2", "trainable": true, "dtype": "float32", "axis": [3], "momentum": 0.99, "epsilon": 2e-05, "center": true, "scale": true, "beta_initializer": {"class_name": "Zeros", "config": {}}, "gamma_initializer": {"class_name": "Ones", "config": {}}, "moving_mean_initializer": {"class_name": "Zeros", "config": {}}, "moving_variance_initializer": {"class_name": "Ones", "config": {}}, "beta_regularizer": null, "gamma_regularizer": null, "beta_constraint": null, "gamma_constraint": null}, "name": "stage2_unit5_bn2", "inbound_nodes": [[["stage2_unit5_conv1", 0, 0, {}]]]}, {"class_name": "Activation", "config": {"name": "stage2_unit5_relu2", "trainable": true, "dtype": "float32", "activation": "relu"}, "name": "stage2_unit5_relu2", "inbound_nodes": [[["stage2_unit5_bn2", 0, 0, {}]]]}, {"class_name": "ZeroPadding2D", "config": {"name": "zero_padding2d_1579", "trainable": true, "dtype": "float32", "padding": [[1, 1], [1, 1]], "data_format": "channels_last"}, "name": "zero_padding2d_1579", "inbound_nodes": [[["stage2_unit5_relu2", 0, 0, {}]]]}, {"class_name": "Conv2D", "config": {"name": "stage2_unit5_conv2", "trainable": true, "dtype": "float32", "filters": 128, "kernel_size": [3, 3], "strides": [1, 1], "padding": "valid", "data_format": "channels_last", "dilation_rate": [1, 1], "groups": 1, "activation": "linear", "use_bias": false, "kernel_initializer": {"class_name": "HeUniform", "config": {"seed": null}}, "bias_initializer": {"class_name": "Zeros", "config": {}}, "kernel_regularizer": null, "bias_regularizer": null, "activity_regularizer": null, "kernel_constraint": null, "bias_constraint": null}, "name": "stage2_unit5_conv2", "inbound_nodes": [[["zero_padding2d_1579", 0, 0, {}]]]}, {"class_name": "BatchNormalization", "config": {"name": "stage2_unit5_bn3", "trainable": true, "dtype": "float32", "axis": [3], "momentum": 0.99, "epsilon": 2e-05, "center": true, "scale": true, "beta_initializer": {"class_name": "Zeros", "config": {}}, "gamma_initializer": {"class_name": "Ones", "config": {}}, "moving_mean_initializer": {"class_name": "Zeros", "config": {}}, "moving_variance_initializer": {"class_name": "Ones", "config": {}}, "beta_regularizer": null, "gamma_regularizer": null, "beta_constraint": null, "gamma_constraint": null}, "name": "stage2_unit5_bn3", "inbound_nodes": [[["stage2_unit5_conv2", 0, 0, {}]]]}, {"class_name": "Activation", "config": {"name": "stage2_unit5_relu3", "trainable": true, "dtype": "float32", "activation": "relu"}, "name": "stage2_unit5_relu3", "inbound_nodes": [[["stage2_unit5_bn3", 0, 0, {}]]]}, {"class_name": "Conv2D", "config": {"name": "stage2_unit5_conv3", "trainable": true, "dtype": "float32", "filters": 512, "kernel_size": [1, 1], "strides": [1, 1], "padding": "valid", "data_format": "channels_last", "dilation_rate": [1, 1], "groups": 1, "activation": "linear", "use_bias": false, "kernel_initializer": {"class_name": "HeUniform", "config": {"seed": null}}, "bias_initializer": {"class_name": "Zeros", "config": {}}, "kernel_regularizer": null, "bias_regularizer": null, "activity_regularizer": null, "kernel_constraint": null, "bias_constraint": null}, "name": "stage2_unit5_conv3", "inbound_nodes": [[["stage2_unit5_relu3", 0, 0, {}]]]}, {"class_name": "Add", "config": {"name": "add_1187", "trainable": true, "dtype": "float32"}, "name": "add_1187", "inbound_nodes": [[["stage2_unit5_conv3", 0, 0, {}], ["add_1186", 0, 0, {}]]]}, {"class_name": "BatchNormalization", "config": {"name": "stage2_unit6_bn1", "trainable": true, "dtype": "float32", "axis": [3], "momentum": 0.99, "epsilon": 2e-05, "center": true, "scale": true, "beta_initializer": {"class_name": "Zeros", "config": {}}, "gamma_initializer": {"class_name": "Ones", "config": {}}, "moving_mean_initializer": {"class_name": "Zeros", "config": {}}, "moving_variance_initializer": {"class_name": "Ones", "config": {}}, "beta_regularizer": null, "gamma_regularizer": null, "beta_constraint": null, "gamma_constraint": null}, "name": "stage2_unit6_bn1", "inbound_nodes": [[["add_1187", 0, 0, {}]]]}, {"class_name": "Activation", "config": {"name": "stage2_unit6_relu1", "trainable": true, "dtype": "float32", "activation": "relu"}, "name": "stage2_unit6_relu1", "inbound_nodes": [[["stage2_unit6_bn1", 0, 0, {}]]]}, {"class_name": "Conv2D", "config": {"name": "stage2_unit6_conv1", "trainable": true, "dtype": "float32", "filters": 128, "kernel_size": [1, 1], "strides": [1, 1], "padding": "valid", "data_format": "channels_last", "dilation_rate": [1, 1], "groups": 1, "activation": "linear", "use_bias": false, "kernel_initializer": {"class_name": "HeUniform", "config": {"seed": null}}, "bias_initializer": {"class_name": "Zeros", "config": {}}, "kernel_regularizer": null, "bias_regularizer": null, "activity_regularizer": null, "kernel_constraint": null, "bias_constraint": null}, "name": "stage2_unit6_conv1", "inbound_nodes": [[["stage2_unit6_relu1", 0, 0, {}]]]}, {"class_name": "BatchNormalization", "config": {"name": "stage2_unit6_bn2", "trainable": true, "dtype": "float32", "axis": [3], "momentum": 0.99, "epsilon": 2e-05, "center": true, "scale": true, "beta_initializer": {"class_name": "Zeros", "config": {}}, "gamma_initializer": {"class_name": "Ones", "config": {}}, "moving_mean_initializer": {"class_name": "Zeros", "config": {}}, "moving_variance_initializer": {"class_name": "Ones", "config": {}}, "beta_regularizer": null, "gamma_regularizer": null, "beta_constraint": null, "gamma_constraint": null}, "name": "stage2_unit6_bn2", "inbound_nodes": [[["stage2_unit6_conv1", 0, 0, {}]]]}, {"class_name": "Activation", "config": {"name": "stage2_unit6_relu2", "trainable": true, "dtype": "float32", "activation": "relu"}, "name": "stage2_unit6_relu2", "inbound_nodes": [[["stage2_unit6_bn2", 0, 0, {}]]]}, {"class_name": "ZeroPadding2D", "config": {"name": "zero_padding2d_1580", "trainable": true, "dtype": "float32", "padding": [[1, 1], [1, 1]], "data_format": "channels_last"}, "name": "zero_padding2d_1580", "inbound_nodes": [[["stage2_unit6_relu2", 0, 0, {}]]]}, {"class_name": "Conv2D", "config": {"name": "stage2_unit6_conv2", "trainable": true, "dtype": "float32", "filters": 128, "kernel_size": [3, 3], "strides": [1, 1], "padding": "valid", "data_format": "channels_last", "dilation_rate": [1, 1], "groups": 1, "activation": "linear", "use_bias": false, "kernel_initializer": {"class_name": "HeUniform", "config": {"seed": null}}, "bias_initializer": {"class_name": "Zeros", "config": {}}, "kernel_regularizer": null, "bias_regularizer": null, "activity_regularizer": null, "kernel_constraint": null, "bias_constraint": null}, "name": "stage2_unit6_conv2", "inbound_nodes": [[["zero_padding2d_1580", 0, 0, {}]]]}, {"class_name": "BatchNormalization", "config": {"name": "stage2_unit6_bn3", "trainable": true, "dtype": "float32", "axis": [3], "momentum": 0.99, "epsilon": 2e-05, "center": true, "scale": true, "beta_initializer": {"class_name": "Zeros", "config": {}}, "gamma_initializer": {"class_name": "Ones", "config": {}}, "moving_mean_initializer": {"class_name": "Zeros", "config": {}}, "moving_variance_initializer": {"class_name": "Ones", "config": {}}, "beta_regularizer": null, "gamma_regularizer": null, "beta_constraint": null, "gamma_constraint": null}, "name": "stage2_unit6_bn3", "inbound_nodes": [[["stage2_unit6_conv2", 0, 0, {}]]]}, {"class_name": "Activation", "config": {"name": "stage2_unit6_relu3", "trainable": true, "dtype": "float32", "activation": "relu"}, "name": "stage2_unit6_relu3", "inbound_nodes": [[["stage2_unit6_bn3", 0, 0, {}]]]}, {"class_name": "Conv2D", "config": {"name": "stage2_unit6_conv3", "trainable": true, "dtype": "float32", "filters": 512, "kernel_size": [1, 1], "strides": [1, 1], "padding": "valid", "data_format": "channels_last", "dilation_rate": [1, 1], "groups": 1, "activation": "linear", "use_bias": false, "kernel_initializer": {"class_name": "HeUniform", "config": {"seed": null}}, "bias_initializer": {"class_name": "Zeros", "config": {}}, "kernel_regularizer": null, "bias_regularizer": null, "activity_regularizer": null, "kernel_constraint": null, "bias_constraint": null}, "name": "stage2_unit6_conv3", "inbound_nodes": [[["stage2_unit6_relu3", 0, 0, {}]]]}, {"class_name": "Add", "config": {"name": "add_1188", "trainable": true, "dtype": "float32"}, "name": "add_1188", "inbound_nodes": [[["stage2_unit6_conv3", 0, 0, {}], ["add_1187", 0, 0, {}]]]}, {"class_name": "BatchNormalization", "config": {"name": "stage2_unit7_bn1", "trainable": true, "dtype": "float32", "axis": [3], "momentum": 0.99, "epsilon": 2e-05, "center": true, "scale": true, "beta_initializer": {"class_name": "Zeros", "config": {}}, "gamma_initializer": {"class_name": "Ones", "config": {}}, "moving_mean_initializer": {"class_name": "Zeros", "config": {}}, "moving_variance_initializer": {"class_name": "Ones", "config": {}}, "beta_regularizer": null, "gamma_regularizer": null, "beta_constraint": null, "gamma_constraint": null}, "name": "stage2_unit7_bn1", "inbound_nodes": [[["add_1188", 0, 0, {}]]]}, {"class_name": "Activation", "config": {"name": "stage2_unit7_relu1", "trainable": true, "dtype": "float32", "activation": "relu"}, "name": "stage2_unit7_relu1", "inbound_nodes": [[["stage2_unit7_bn1", 0, 0, {}]]]}, {"class_name": "Conv2D", "config": {"name": "stage2_unit7_conv1", "trainable": true, "dtype": "float32", "filters": 128, "kernel_size": [1, 1], "strides": [1, 1], "padding": "valid", "data_format": "channels_last", "dilation_rate": [1, 1], "groups": 1, "activation": "linear", "use_bias": false, "kernel_initializer": {"class_name": "HeUniform", "config": {"seed": null}}, "bias_initializer": {"class_name": "Zeros", "config": {}}, "kernel_regularizer": null, "bias_regularizer": null, "activity_regularizer": null, "kernel_constraint": null, "bias_constraint": null}, "name": "stage2_unit7_conv1", "inbound_nodes": [[["stage2_unit7_relu1", 0, 0, {}]]]}, {"class_name": "BatchNormalization", "config": {"name": "stage2_unit7_bn2", "trainable": true, "dtype": "float32", "axis": [3], "momentum": 0.99, "epsilon": 2e-05, "center": true, "scale": true, "beta_initializer": {"class_name": "Zeros", "config": {}}, "gamma_initializer": {"class_name": "Ones", "config": {}}, "moving_mean_initializer": {"class_name": "Zeros", "config": {}}, "moving_variance_initializer": {"class_name": "Ones", "config": {}}, "beta_regularizer": null, "gamma_regularizer": null, "beta_constraint": null, "gamma_constraint": null}, "name": "stage2_unit7_bn2", "inbound_nodes": [[["stage2_unit7_conv1", 0, 0, {}]]]}, {"class_name": "Activation", "config": {"name": "stage2_unit7_relu2", "trainable": true, "dtype": "float32", "activation": "relu"}, "name": "stage2_unit7_relu2", "inbound_nodes": [[["stage2_unit7_bn2", 0, 0, {}]]]}, {"class_name": "ZeroPadding2D", "config": {"name": "zero_padding2d_1581", "trainable": true, "dtype": "float32", "padding": [[1, 1], [1, 1]], "data_format": "channels_last"}, "name": "zero_padding2d_1581", "inbound_nodes": [[["stage2_unit7_relu2", 0, 0, {}]]]}, {"class_name": "Conv2D", "config": {"name": "stage2_unit7_conv2", "trainable": true, "dtype": "float32", "filters": 128, "kernel_size": [3, 3], "strides": [1, 1], "padding": "valid", "data_format": "channels_last", "dilation_rate": [1, 1], "groups": 1, "activation": "linear", "use_bias": false, "kernel_initializer": {"class_name": "HeUniform", "config": {"seed": null}}, "bias_initializer": {"class_name": "Zeros", "config": {}}, "kernel_regularizer": null, "bias_regularizer": null, "activity_regularizer": null, "kernel_constraint": null, "bias_constraint": null}, "name": "stage2_unit7_conv2", "inbound_nodes": [[["zero_padding2d_1581", 0, 0, {}]]]}, {"class_name": "BatchNormalization", "config": {"name": "stage2_unit7_bn3", "trainable": true, "dtype": "float32", "axis": [3], "momentum": 0.99, "epsilon": 2e-05, "center": true, "scale": true, "beta_initializer": {"class_name": "Zeros", "config": {}}, "gamma_initializer": {"class_name": "Ones", "config": {}}, "moving_mean_initializer": {"class_name": "Zeros", "config": {}}, "moving_variance_initializer": {"class_name": "Ones", "config": {}}, "beta_regularizer": null, "gamma_regularizer": null, "beta_constraint": null, "gamma_constraint": null}, "name": "stage2_unit7_bn3", "inbound_nodes": [[["stage2_unit7_conv2", 0, 0, {}]]]}, {"class_name": "Activation", "config": {"name": "stage2_unit7_relu3", "trainable": true, "dtype": "float32", "activation": "relu"}, "name": "stage2_unit7_relu3", "inbound_nodes": [[["stage2_unit7_bn3", 0, 0, {}]]]}, {"class_name": "Conv2D", "config": {"name": "stage2_unit7_conv3", "trainable": true, "dtype": "float32", "filters": 512, "kernel_size": [1, 1], "strides": [1, 1], "padding": "valid", "data_format": "channels_last", "dilation_rate": [1, 1], "groups": 1, "activation": "linear", "use_bias": false, "kernel_initializer": {"class_name": "HeUniform", "config": {"seed": null}}, "bias_initializer": {"class_name": "Zeros", "config": {}}, "kernel_regularizer": null, "bias_regularizer": null, "activity_regularizer": null, "kernel_constraint": null, "bias_constraint": null}, "name": "stage2_unit7_conv3", "inbound_nodes": [[["stage2_unit7_relu3", 0, 0, {}]]]}, {"class_name": "Add", "config": {"name": "add_1189", "trainable": true, "dtype": "float32"}, "name": "add_1189", "inbound_nodes": [[["stage2_unit7_conv3", 0, 0, {}], ["add_1188", 0, 0, {}]]]}, {"class_name": "BatchNormalization", "config": {"name": "stage2_unit8_bn1", "trainable": true, "dtype": "float32", "axis": [3], "momentum": 0.99, "epsilon": 2e-05, "center": true, "scale": true, "beta_initializer": {"class_name": "Zeros", "config": {}}, "gamma_initializer": {"class_name": "Ones", "config": {}}, "moving_mean_initializer": {"class_name": "Zeros", "config": {}}, "moving_variance_initializer": {"class_name": "Ones", "config": {}}, "beta_regularizer": null, "gamma_regularizer": null, "beta_constraint": null, "gamma_constraint": null}, "name": "stage2_unit8_bn1", "inbound_nodes": [[["add_1189", 0, 0, {}]]]}, {"class_name": "Activation", "config": {"name": "stage2_unit8_relu1", "trainable": true, "dtype": "float32", "activation": "relu"}, "name": "stage2_unit8_relu1", "inbound_nodes": [[["stage2_unit8_bn1", 0, 0, {}]]]}, {"class_name": "Conv2D", "config": {"name": "stage2_unit8_conv1", "trainable": true, "dtype": "float32", "filters": 128, "kernel_size": [1, 1], "strides": [1, 1], "padding": "valid", "data_format": "channels_last", "dilation_rate": [1, 1], "groups": 1, "activation": "linear", "use_bias": false, "kernel_initializer": {"class_name": "HeUniform", "config": {"seed": null}}, "bias_initializer": {"class_name": "Zeros", "config": {}}, "kernel_regularizer": null, "bias_regularizer": null, "activity_regularizer": null, "kernel_constraint": null, "bias_constraint": null}, "name": "stage2_unit8_conv1", "inbound_nodes": [[["stage2_unit8_relu1", 0, 0, {}]]]}, {"class_name": "BatchNormalization", "config": {"name": "stage2_unit8_bn2", "trainable": true, "dtype": "float32", "axis": [3], "momentum": 0.99, "epsilon": 2e-05, "center": true, "scale": true, "beta_initializer": {"class_name": "Zeros", "config": {}}, "gamma_initializer": {"class_name": "Ones", "config": {}}, "moving_mean_initializer": {"class_name": "Zeros", "config": {}}, "moving_variance_initializer": {"class_name": "Ones", "config": {}}, "beta_regularizer": null, "gamma_regularizer": null, "beta_constraint": null, "gamma_constraint": null}, "name": "stage2_unit8_bn2", "inbound_nodes": [[["stage2_unit8_conv1", 0, 0, {}]]]}, {"class_name": "Activation", "config": {"name": "stage2_unit8_relu2", "trainable": true, "dtype": "float32", "activation": "relu"}, "name": "stage2_unit8_relu2", "inbound_nodes": [[["stage2_unit8_bn2", 0, 0, {}]]]}, {"class_name": "ZeroPadding2D", "config": {"name": "zero_padding2d_1582", "trainable": true, "dtype": "float32", "padding": [[1, 1], [1, 1]], "data_format": "channels_last"}, "name": "zero_padding2d_1582", "inbound_nodes": [[["stage2_unit8_relu2", 0, 0, {}]]]}, {"class_name": "Conv2D", "config": {"name": "stage2_unit8_conv2", "trainable": true, "dtype": "float32", "filters": 128, "kernel_size": [3, 3], "strides": [1, 1], "padding": "valid", "data_format": "channels_last", "dilation_rate": [1, 1], "groups": 1, "activation": "linear", "use_bias": false, "kernel_initializer": {"class_name": "HeUniform", "config": {"seed": null}}, "bias_initializer": {"class_name": "Zeros", "config": {}}, "kernel_regularizer": null, "bias_regularizer": null, "activity_regularizer": null, "kernel_constraint": null, "bias_constraint": null}, "name": "stage2_unit8_conv2", "inbound_nodes": [[["zero_padding2d_1582", 0, 0, {}]]]}, {"class_name": "BatchNormalization", "config": {"name": "stage2_unit8_bn3", "trainable": true, "dtype": "float32", "axis": [3], "momentum": 0.99, "epsilon": 2e-05, "center": true, "scale": true, "beta_initializer": {"class_name": "Zeros", "config": {}}, "gamma_initializer": {"class_name": "Ones", "config": {}}, "moving_mean_initializer": {"class_name": "Zeros", "config": {}}, "moving_variance_initializer": {"class_name": "Ones", "config": {}}, "beta_regularizer": null, "gamma_regularizer": null, "beta_constraint": null, "gamma_constraint": null}, "name": "stage2_unit8_bn3", "inbound_nodes": [[["stage2_unit8_conv2", 0, 0, {}]]]}, {"class_name": "Activation", "config": {"name": "stage2_unit8_relu3", "trainable": true, "dtype": "float32", "activation": "relu"}, "name": "stage2_unit8_relu3", "inbound_nodes": [[["stage2_unit8_bn3", 0, 0, {}]]]}, {"class_name": "Conv2D", "config": {"name": "stage2_unit8_conv3", "trainable": true, "dtype": "float32", "filters": 512, "kernel_size": [1, 1], "strides": [1, 1], "padding": "valid", "data_format": "channels_last", "dilation_rate": [1, 1], "groups": 1, "activation": "linear", "use_bias": false, "kernel_initializer": {"class_name": "HeUniform", "config": {"seed": null}}, "bias_initializer": {"class_name": "Zeros", "config": {}}, "kernel_regularizer": null, "bias_regularizer": null, "activity_regularizer": null, "kernel_constraint": null, "bias_constraint": null}, "name": "stage2_unit8_conv3", "inbound_nodes": [[["stage2_unit8_relu3", 0, 0, {}]]]}, {"class_name": "Add", "config": {"name": "add_1190", "trainable": true, "dtype": "float32"}, "name": "add_1190", "inbound_nodes": [[["stage2_unit8_conv3", 0, 0, {}], ["add_1189", 0, 0, {}]]]}, {"class_name": "BatchNormalization", "config": {"name": "stage3_unit1_bn1", "trainable": true, "dtype": "float32", "axis": [3], "momentum": 0.99, "epsilon": 2e-05, "center": true, "scale": true, "beta_initializer": {"class_name": "Zeros", "config": {}}, "gamma_initializer": {"class_name": "Ones", "config": {}}, "moving_mean_initializer": {"class_name": "Zeros", "config": {}}, "moving_variance_initializer": {"class_name": "Ones", "config": {}}, "beta_regularizer": null, "gamma_regularizer": null, "beta_constraint": null, "gamma_constraint": null}, "name": "stage3_unit1_bn1", "inbound_nodes": [[["add_1190", 0, 0, {}]]]}, {"class_name": "Activation", "config": {"name": "stage3_unit1_relu1", "trainable": true, "dtype": "float32", "activation": "relu"}, "name": "stage3_unit1_relu1", "inbound_nodes": [[["stage3_unit1_bn1", 0, 0, {}]]]}, {"class_name": "Conv2D", "config": {"name": "stage3_unit1_conv1", "trainable": true, "dtype": "float32", "filters": 256, "kernel_size": [1, 1], "strides": [1, 1], "padding": "valid", "data_format": "channels_last", "dilation_rate": [1, 1], "groups": 1, "activation": "linear", "use_bias": false, "kernel_initializer": {"class_name": "HeUniform", "config": {"seed": null}}, "bias_initializer": {"class_name": "Zeros", "config": {}}, "kernel_regularizer": null, "bias_regularizer": null, "activity_regularizer": null, "kernel_constraint": null, "bias_constraint": null}, "name": "stage3_unit1_conv1", "inbound_nodes": [[["stage3_unit1_relu1", 0, 0, {}]]]}, {"class_name": "BatchNormalization", "config": {"name": "stage3_unit1_bn2", "trainable": true, "dtype": "float32", "axis": [3], "momentum": 0.99, "epsilon": 2e-05, "center": true, "scale": true, "beta_initializer": {"class_name": "Zeros", "config": {}}, "gamma_initializer": {"class_name": "Ones", "config": {}}, "moving_mean_initializer": {"class_name": "Zeros", "config": {}}, "moving_variance_initializer": {"class_name": "Ones", "config": {}}, "beta_regularizer": null, "gamma_regularizer": null, "beta_constraint": null, "gamma_constraint": null}, "name": "stage3_unit1_bn2", "inbound_nodes": [[["stage3_unit1_conv1", 0, 0, {}]]]}, {"class_name": "Activation", "config": {"name": "stage3_unit1_relu2", "trainable": true, "dtype": "float32", "activation": "relu"}, "name": "stage3_unit1_relu2", "inbound_nodes": [[["stage3_unit1_bn2", 0, 0, {}]]]}, {"class_name": "ZeroPadding2D", "config": {"name": "zero_padding2d_1583", "trainable": true, "dtype": "float32", "padding": [[1, 1], [1, 1]], "data_format": "channels_last"}, "name": "zero_padding2d_1583", "inbound_nodes": [[["stage3_unit1_relu2", 0, 0, {}]]]}, {"class_name": "Conv2D", "config": {"name": "stage3_unit1_conv2", "trainable": true, "dtype": "float32", "filters": 256, "kernel_size": [3, 3], "strides": [2, 2], "padding": "valid", "data_format": "channels_last", "dilation_rate": [1, 1], "groups": 1, "activation": "linear", "use_bias": false, "kernel_initializer": {"class_name": "HeUniform", "config": {"seed": null}}, "bias_initializer": {"class_name": "Zeros", "config": {}}, "kernel_regularizer": null, "bias_regularizer": null, "activity_regularizer": null, "kernel_constraint": null, "bias_constraint": null}, "name": "stage3_unit1_conv2", "inbound_nodes": [[["zero_padding2d_1583", 0, 0, {}]]]}, {"class_name": "BatchNormalization", "config": {"name": "stage3_unit1_bn3", "trainable": true, "dtype": "float32", "axis": [3], "momentum": 0.99, "epsilon": 2e-05, "center": true, "scale": true, "beta_initializer": {"class_name": "Zeros", "config": {}}, "gamma_initializer": {"class_name": "Ones", "config": {}}, "moving_mean_initializer": {"class_name": "Zeros", "config": {}}, "moving_variance_initializer": {"class_name": "Ones", "config": {}}, "beta_regularizer": null, "gamma_regularizer": null, "beta_constraint": null, "gamma_constraint": null}, "name": "stage3_unit1_bn3", "inbound_nodes": [[["stage3_unit1_conv2", 0, 0, {}]]]}, {"class_name": "Activation", "config": {"name": "stage3_unit1_relu3", "trainable": true, "dtype": "float32", "activation": "relu"}, "name": "stage3_unit1_relu3", "inbound_nodes": [[["stage3_unit1_bn3", 0, 0, {}]]]}, {"class_name": "Conv2D", "config": {"name": "stage3_unit1_conv3", "trainable": true, "dtype": "float32", "filters": 1024, "kernel_size": [1, 1], "strides": [1, 1], "padding": "valid", "data_format": "channels_last", "dilation_rate": [1, 1], "groups": 1, "activation": "linear", "use_bias": false, "kernel_initializer": {"class_name": "HeUniform", "config": {"seed": null}}, "bias_initializer": {"class_name": "Zeros", "config": {}}, "kernel_regularizer": null, "bias_regularizer": null, "activity_regularizer": null, "kernel_constraint": null, "bias_constraint": null}, "name": "stage3_unit1_conv3", "inbound_nodes": [[["stage3_unit1_relu3", 0, 0, {}]]]}, {"class_name": "Conv2D", "config": {"name": "stage3_unit1_sc", "trainable": true, "dtype": "float32", "filters": 1024, "kernel_size": [1, 1], "strides": [2, 2], "padding": "valid", "data_format": "channels_last", "dilation_rate": [1, 1], "groups": 1, "activation": "linear", "use_bias": false, "kernel_initializer": {"class_name": "HeUniform", "config": {"seed": null}}, "bias_initializer": {"class_name": "Zeros", "config": {}}, "kernel_regularizer": null, "bias_regularizer": null, "activity_regularizer": null, "kernel_constraint": null, "bias_constraint": null}, "name": "stage3_unit1_sc", "inbound_nodes": [[["stage3_unit1_relu1", 0, 0, {}]]]}, {"class_name": "Add", "config": {"name": "add_1191", "trainable": true, "dtype": "float32"}, "name": "add_1191", "inbound_nodes": [[["stage3_unit1_conv3", 0, 0, {}], ["stage3_unit1_sc", 0, 0, {}]]]}, {"class_name": "BatchNormalization", "config": {"name": "stage3_unit2_bn1", "trainable": true, "dtype": "float32", "axis": [3], "momentum": 0.99, "epsilon": 2e-05, "center": true, "scale": true, "beta_initializer": {"class_name": "Zeros", "config": {}}, "gamma_initializer": {"class_name": "Ones", "config": {}}, "moving_mean_initializer": {"class_name": "Zeros", "config": {}}, "moving_variance_initializer": {"class_name": "Ones", "config": {}}, "beta_regularizer": null, "gamma_regularizer": null, "beta_constraint": null, "gamma_constraint": null}, "name": "stage3_unit2_bn1", "inbound_nodes": [[["add_1191", 0, 0, {}]]]}, {"class_name": "Activation", "config": {"name": "stage3_unit2_relu1", "trainable": true, "dtype": "float32", "activation": "relu"}, "name": "stage3_unit2_relu1", "inbound_nodes": [[["stage3_unit2_bn1", 0, 0, {}]]]}, {"class_name": "Conv2D", "config": {"name": "stage3_unit2_conv1", "trainable": true, "dtype": "float32", "filters": 256, "kernel_size": [1, 1], "strides": [1, 1], "padding": "valid", "data_format": "channels_last", "dilation_rate": [1, 1], "groups": 1, "activation": "linear", "use_bias": false, "kernel_initializer": {"class_name": "HeUniform", "config": {"seed": null}}, "bias_initializer": {"class_name": "Zeros", "config": {}}, "kernel_regularizer": null, "bias_regularizer": null, "activity_regularizer": null, "kernel_constraint": null, "bias_constraint": null}, "name": "stage3_unit2_conv1", "inbound_nodes": [[["stage3_unit2_relu1", 0, 0, {}]]]}, {"class_name": "BatchNormalization", "config": {"name": "stage3_unit2_bn2", "trainable": true, "dtype": "float32", "axis": [3], "momentum": 0.99, "epsilon": 2e-05, "center": true, "scale": true, "beta_initializer": {"class_name": "Zeros", "config": {}}, "gamma_initializer": {"class_name": "Ones", "config": {}}, "moving_mean_initializer": {"class_name": "Zeros", "config": {}}, "moving_variance_initializer": {"class_name": "Ones", "config": {}}, "beta_regularizer": null, "gamma_regularizer": null, "beta_constraint": null, "gamma_constraint": null}, "name": "stage3_unit2_bn2", "inbound_nodes": [[["stage3_unit2_conv1", 0, 0, {}]]]}, {"class_name": "Activation", "config": {"name": "stage3_unit2_relu2", "trainable": true, "dtype": "float32", "activation": "relu"}, "name": "stage3_unit2_relu2", "inbound_nodes": [[["stage3_unit2_bn2", 0, 0, {}]]]}, {"class_name": "ZeroPadding2D", "config": {"name": "zero_padding2d_1584", "trainable": true, "dtype": "float32", "padding": [[1, 1], [1, 1]], "data_format": "channels_last"}, "name": "zero_padding2d_1584", "inbound_nodes": [[["stage3_unit2_relu2", 0, 0, {}]]]}, {"class_name": "Conv2D", "config": {"name": "stage3_unit2_conv2", "trainable": true, "dtype": "float32", "filters": 256, "kernel_size": [3, 3], "strides": [1, 1], "padding": "valid", "data_format": "channels_last", "dilation_rate": [1, 1], "groups": 1, "activation": "linear", "use_bias": false, "kernel_initializer": {"class_name": "HeUniform", "config": {"seed": null}}, "bias_initializer": {"class_name": "Zeros", "config": {}}, "kernel_regularizer": null, "bias_regularizer": null, "activity_regularizer": null, "kernel_constraint": null, "bias_constraint": null}, "name": "stage3_unit2_conv2", "inbound_nodes": [[["zero_padding2d_1584", 0, 0, {}]]]}, {"class_name": "BatchNormalization", "config": {"name": "stage3_unit2_bn3", "trainable": true, "dtype": "float32", "axis": [3], "momentum": 0.99, "epsilon": 2e-05, "center": true, "scale": true, "beta_initializer": {"class_name": "Zeros", "config": {}}, "gamma_initializer": {"class_name": "Ones", "config": {}}, "moving_mean_initializer": {"class_name": "Zeros", "config": {}}, "moving_variance_initializer": {"class_name": "Ones", "config": {}}, "beta_regularizer": null, "gamma_regularizer": null, "beta_constraint": null, "gamma_constraint": null}, "name": "stage3_unit2_bn3", "inbound_nodes": [[["stage3_unit2_conv2", 0, 0, {}]]]}, {"class_name": "Activation", "config": {"name": "stage3_unit2_relu3", "trainable": true, "dtype": "float32", "activation": "relu"}, "name": "stage3_unit2_relu3", "inbound_nodes": [[["stage3_unit2_bn3", 0, 0, {}]]]}, {"class_name": "Conv2D", "config": {"name": "stage3_unit2_conv3", "trainable": true, "dtype": "float32", "filters": 1024, "kernel_size": [1, 1], "strides": [1, 1], "padding": "valid", "data_format": "channels_last", "dilation_rate": [1, 1], "groups": 1, "activation": "linear", "use_bias": false, "kernel_initializer": {"class_name": "HeUniform", "config": {"seed": null}}, "bias_initializer": {"class_name": "Zeros", "config": {}}, "kernel_regularizer": null, "bias_regularizer": null, "activity_regularizer": null, "kernel_constraint": null, "bias_constraint": null}, "name": "stage3_unit2_conv3", "inbound_nodes": [[["stage3_unit2_relu3", 0, 0, {}]]]}, {"class_name": "Add", "config": {"name": "add_1192", "trainable": true, "dtype": "float32"}, "name": "add_1192", "inbound_nodes": [[["stage3_unit2_conv3", 0, 0, {}], ["add_1191", 0, 0, {}]]]}, {"class_name": "BatchNormalization", "config": {"name": "stage3_unit3_bn1", "trainable": true, "dtype": "float32", "axis": [3], "momentum": 0.99, "epsilon": 2e-05, "center": true, "scale": true, "beta_initializer": {"class_name": "Zeros", "config": {}}, "gamma_initializer": {"class_name": "Ones", "config": {}}, "moving_mean_initializer": {"class_name": "Zeros", "config": {}}, "moving_variance_initializer": {"class_name": "Ones", "config": {}}, "beta_regularizer": null, "gamma_regularizer": null, "beta_constraint": null, "gamma_constraint": null}, "name": "stage3_unit3_bn1", "inbound_nodes": [[["add_1192", 0, 0, {}]]]}, {"class_name": "Activation", "config": {"name": "stage3_unit3_relu1", "trainable": true, "dtype": "float32", "activation": "relu"}, "name": "stage3_unit3_relu1", "inbound_nodes": [[["stage3_unit3_bn1", 0, 0, {}]]]}, {"class_name": "Conv2D", "config": {"name": "stage3_unit3_conv1", "trainable": true, "dtype": "float32", "filters": 256, "kernel_size": [1, 1], "strides": [1, 1], "padding": "valid", "data_format": "channels_last", "dilation_rate": [1, 1], "groups": 1, "activation": "linear", "use_bias": false, "kernel_initializer": {"class_name": "HeUniform", "config": {"seed": null}}, "bias_initializer": {"class_name": "Zeros", "config": {}}, "kernel_regularizer": null, "bias_regularizer": null, "activity_regularizer": null, "kernel_constraint": null, "bias_constraint": null}, "name": "stage3_unit3_conv1", "inbound_nodes": [[["stage3_unit3_relu1", 0, 0, {}]]]}, {"class_name": "BatchNormalization", "config": {"name": "stage3_unit3_bn2", "trainable": true, "dtype": "float32", "axis": [3], "momentum": 0.99, "epsilon": 2e-05, "center": true, "scale": true, "beta_initializer": {"class_name": "Zeros", "config": {}}, "gamma_initializer": {"class_name": "Ones", "config": {}}, "moving_mean_initializer": {"class_name": "Zeros", "config": {}}, "moving_variance_initializer": {"class_name": "Ones", "config": {}}, "beta_regularizer": null, "gamma_regularizer": null, "beta_constraint": null, "gamma_constraint": null}, "name": "stage3_unit3_bn2", "inbound_nodes": [[["stage3_unit3_conv1", 0, 0, {}]]]}, {"class_name": "Activation", "config": {"name": "stage3_unit3_relu2", "trainable": true, "dtype": "float32", "activation": "relu"}, "name": "stage3_unit3_relu2", "inbound_nodes": [[["stage3_unit3_bn2", 0, 0, {}]]]}, {"class_name": "ZeroPadding2D", "config": {"name": "zero_padding2d_1585", "trainable": true, "dtype": "float32", "padding": [[1, 1], [1, 1]], "data_format": "channels_last"}, "name": "zero_padding2d_1585", "inbound_nodes": [[["stage3_unit3_relu2", 0, 0, {}]]]}, {"class_name": "Conv2D", "config": {"name": "stage3_unit3_conv2", "trainable": true, "dtype": "float32", "filters": 256, "kernel_size": [3, 3], "strides": [1, 1], "padding": "valid", "data_format": "channels_last", "dilation_rate": [1, 1], "groups": 1, "activation": "linear", "use_bias": false, "kernel_initializer": {"class_name": "HeUniform", "config": {"seed": null}}, "bias_initializer": {"class_name": "Zeros", "config": {}}, "kernel_regularizer": null, "bias_regularizer": null, "activity_regularizer": null, "kernel_constraint": null, "bias_constraint": null}, "name": "stage3_unit3_conv2", "inbound_nodes": [[["zero_padding2d_1585", 0, 0, {}]]]}, {"class_name": "BatchNormalization", "config": {"name": "stage3_unit3_bn3", "trainable": true, "dtype": "float32", "axis": [3], "momentum": 0.99, "epsilon": 2e-05, "center": true, "scale": true, "beta_initializer": {"class_name": "Zeros", "config": {}}, "gamma_initializer": {"class_name": "Ones", "config": {}}, "moving_mean_initializer": {"class_name": "Zeros", "config": {}}, "moving_variance_initializer": {"class_name": "Ones", "config": {}}, "beta_regularizer": null, "gamma_regularizer": null, "beta_constraint": null, "gamma_constraint": null}, "name": "stage3_unit3_bn3", "inbound_nodes": [[["stage3_unit3_conv2", 0, 0, {}]]]}, {"class_name": "Activation", "config": {"name": "stage3_unit3_relu3", "trainable": true, "dtype": "float32", "activation": "relu"}, "name": "stage3_unit3_relu3", "inbound_nodes": [[["stage3_unit3_bn3", 0, 0, {}]]]}, {"class_name": "Conv2D", "config": {"name": "stage3_unit3_conv3", "trainable": true, "dtype": "float32", "filters": 1024, "kernel_size": [1, 1], "strides": [1, 1], "padding": "valid", "data_format": "channels_last", "dilation_rate": [1, 1], "groups": 1, "activation": "linear", "use_bias": false, "kernel_initializer": {"class_name": "HeUniform", "config": {"seed": null}}, "bias_initializer": {"class_name": "Zeros", "config": {}}, "kernel_regularizer": null, "bias_regularizer": null, "activity_regularizer": null, "kernel_constraint": null, "bias_constraint": null}, "name": "stage3_unit3_conv3", "inbound_nodes": [[["stage3_unit3_relu3", 0, 0, {}]]]}, {"class_name": "Add", "config": {"name": "add_1193", "trainable": true, "dtype": "float32"}, "name": "add_1193", "inbound_nodes": [[["stage3_unit3_conv3", 0, 0, {}], ["add_1192", 0, 0, {}]]]}, {"class_name": "BatchNormalization", "config": {"name": "stage3_unit4_bn1", "trainable": true, "dtype": "float32", "axis": [3], "momentum": 0.99, "epsilon": 2e-05, "center": true, "scale": true, "beta_initializer": {"class_name": "Zeros", "config": {}}, "gamma_initializer": {"class_name": "Ones", "config": {}}, "moving_mean_initializer": {"class_name": "Zeros", "config": {}}, "moving_variance_initializer": {"class_name": "Ones", "config": {}}, "beta_regularizer": null, "gamma_regularizer": null, "beta_constraint": null, "gamma_constraint": null}, "name": "stage3_unit4_bn1", "inbound_nodes": [[["add_1193", 0, 0, {}]]]}, {"class_name": "Activation", "config": {"name": "stage3_unit4_relu1", "trainable": true, "dtype": "float32", "activation": "relu"}, "name": "stage3_unit4_relu1", "inbound_nodes": [[["stage3_unit4_bn1", 0, 0, {}]]]}, {"class_name": "Conv2D", "config": {"name": "stage3_unit4_conv1", "trainable": true, "dtype": "float32", "filters": 256, "kernel_size": [1, 1], "strides": [1, 1], "padding": "valid", "data_format": "channels_last", "dilation_rate": [1, 1], "groups": 1, "activation": "linear", "use_bias": false, "kernel_initializer": {"class_name": "HeUniform", "config": {"seed": null}}, "bias_initializer": {"class_name": "Zeros", "config": {}}, "kernel_regularizer": null, "bias_regularizer": null, "activity_regularizer": null, "kernel_constraint": null, "bias_constraint": null}, "name": "stage3_unit4_conv1", "inbound_nodes": [[["stage3_unit4_relu1", 0, 0, {}]]]}, {"class_name": "BatchNormalization", "config": {"name": "stage3_unit4_bn2", "trainable": true, "dtype": "float32", "axis": [3], "momentum": 0.99, "epsilon": 2e-05, "center": true, "scale": true, "beta_initializer": {"class_name": "Zeros", "config": {}}, "gamma_initializer": {"class_name": "Ones", "config": {}}, "moving_mean_initializer": {"class_name": "Zeros", "config": {}}, "moving_variance_initializer": {"class_name": "Ones", "config": {}}, "beta_regularizer": null, "gamma_regularizer": null, "beta_constraint": null, "gamma_constraint": null}, "name": "stage3_unit4_bn2", "inbound_nodes": [[["stage3_unit4_conv1", 0, 0, {}]]]}, {"class_name": "Activation", "config": {"name": "stage3_unit4_relu2", "trainable": true, "dtype": "float32", "activation": "relu"}, "name": "stage3_unit4_relu2", "inbound_nodes": [[["stage3_unit4_bn2", 0, 0, {}]]]}, {"class_name": "ZeroPadding2D", "config": {"name": "zero_padding2d_1586", "trainable": true, "dtype": "float32", "padding": [[1, 1], [1, 1]], "data_format": "channels_last"}, "name": "zero_padding2d_1586", "inbound_nodes": [[["stage3_unit4_relu2", 0, 0, {}]]]}, {"class_name": "Conv2D", "config": {"name": "stage3_unit4_conv2", "trainable": true, "dtype": "float32", "filters": 256, "kernel_size": [3, 3], "strides": [1, 1], "padding": "valid", "data_format": "channels_last", "dilation_rate": [1, 1], "groups": 1, "activation": "linear", "use_bias": false, "kernel_initializer": {"class_name": "HeUniform", "config": {"seed": null}}, "bias_initializer": {"class_name": "Zeros", "config": {}}, "kernel_regularizer": null, "bias_regularizer": null, "activity_regularizer": null, "kernel_constraint": null, "bias_constraint": null}, "name": "stage3_unit4_conv2", "inbound_nodes": [[["zero_padding2d_1586", 0, 0, {}]]]}, {"class_name": "BatchNormalization", "config": {"name": "stage3_unit4_bn3", "trainable": true, "dtype": "float32", "axis": [3], "momentum": 0.99, "epsilon": 2e-05, "center": true, "scale": true, "beta_initializer": {"class_name": "Zeros", "config": {}}, "gamma_initializer": {"class_name": "Ones", "config": {}}, "moving_mean_initializer": {"class_name": "Zeros", "config": {}}, "moving_variance_initializer": {"class_name": "Ones", "config": {}}, "beta_regularizer": null, "gamma_regularizer": null, "beta_constraint": null, "gamma_constraint": null}, "name": "stage3_unit4_bn3", "inbound_nodes": [[["stage3_unit4_conv2", 0, 0, {}]]]}, {"class_name": "Activation", "config": {"name": "stage3_unit4_relu3", "trainable": true, "dtype": "float32", "activation": "relu"}, "name": "stage3_unit4_relu3", "inbound_nodes": [[["stage3_unit4_bn3", 0, 0, {}]]]}, {"class_name": "Conv2D", "config": {"name": "stage3_unit4_conv3", "trainable": true, "dtype": "float32", "filters": 1024, "kernel_size": [1, 1], "strides": [1, 1], "padding": "valid", "data_format": "channels_last", "dilation_rate": [1, 1], "groups": 1, "activation": "linear", "use_bias": false, "kernel_initializer": {"class_name": "HeUniform", "config": {"seed": null}}, "bias_initializer": {"class_name": "Zeros", "config": {}}, "kernel_regularizer": null, "bias_regularizer": null, "activity_regularizer": null, "kernel_constraint": null, "bias_constraint": null}, "name": "stage3_unit4_conv3", "inbound_nodes": [[["stage3_unit4_relu3", 0, 0, {}]]]}, {"class_name": "Add", "config": {"name": "add_1194", "trainable": true, "dtype": "float32"}, "name": "add_1194", "inbound_nodes": [[["stage3_unit4_conv3", 0, 0, {}], ["add_1193", 0, 0, {}]]]}, {"class_name": "BatchNormalization", "config": {"name": "stage3_unit5_bn1", "trainable": true, "dtype": "float32", "axis": [3], "momentum": 0.99, "epsilon": 2e-05, "center": true, "scale": true, "beta_initializer": {"class_name": "Zeros", "config": {}}, "gamma_initializer": {"class_name": "Ones", "config": {}}, "moving_mean_initializer": {"class_name": "Zeros", "config": {}}, "moving_variance_initializer": {"class_name": "Ones", "config": {}}, "beta_regularizer": null, "gamma_regularizer": null, "beta_constraint": null, "gamma_constraint": null}, "name": "stage3_unit5_bn1", "inbound_nodes": [[["add_1194", 0, 0, {}]]]}, {"class_name": "Activation", "config": {"name": "stage3_unit5_relu1", "trainable": true, "dtype": "float32", "activation": "relu"}, "name": "stage3_unit5_relu1", "inbound_nodes": [[["stage3_unit5_bn1", 0, 0, {}]]]}, {"class_name": "Conv2D", "config": {"name": "stage3_unit5_conv1", "trainable": true, "dtype": "float32", "filters": 256, "kernel_size": [1, 1], "strides": [1, 1], "padding": "valid", "data_format": "channels_last", "dilation_rate": [1, 1], "groups": 1, "activation": "linear", "use_bias": false, "kernel_initializer": {"class_name": "HeUniform", "config": {"seed": null}}, "bias_initializer": {"class_name": "Zeros", "config": {}}, "kernel_regularizer": null, "bias_regularizer": null, "activity_regularizer": null, "kernel_constraint": null, "bias_constraint": null}, "name": "stage3_unit5_conv1", "inbound_nodes": [[["stage3_unit5_relu1", 0, 0, {}]]]}, {"class_name": "BatchNormalization", "config": {"name": "stage3_unit5_bn2", "trainable": true, "dtype": "float32", "axis": [3], "momentum": 0.99, "epsilon": 2e-05, "center": true, "scale": true, "beta_initializer": {"class_name": "Zeros", "config": {}}, "gamma_initializer": {"class_name": "Ones", "config": {}}, "moving_mean_initializer": {"class_name": "Zeros", "config": {}}, "moving_variance_initializer": {"class_name": "Ones", "config": {}}, "beta_regularizer": null, "gamma_regularizer": null, "beta_constraint": null, "gamma_constraint": null}, "name": "stage3_unit5_bn2", "inbound_nodes": [[["stage3_unit5_conv1", 0, 0, {}]]]}, {"class_name": "Activation", "config": {"name": "stage3_unit5_relu2", "trainable": true, "dtype": "float32", "activation": "relu"}, "name": "stage3_unit5_relu2", "inbound_nodes": [[["stage3_unit5_bn2", 0, 0, {}]]]}, {"class_name": "ZeroPadding2D", "config": {"name": "zero_padding2d_1587", "trainable": true, "dtype": "float32", "padding": [[1, 1], [1, 1]], "data_format": "channels_last"}, "name": "zero_padding2d_1587", "inbound_nodes": [[["stage3_unit5_relu2", 0, 0, {}]]]}, {"class_name": "Conv2D", "config": {"name": "stage3_unit5_conv2", "trainable": true, "dtype": "float32", "filters": 256, "kernel_size": [3, 3], "strides": [1, 1], "padding": "valid", "data_format": "channels_last", "dilation_rate": [1, 1], "groups": 1, "activation": "linear", "use_bias": false, "kernel_initializer": {"class_name": "HeUniform", "config": {"seed": null}}, "bias_initializer": {"class_name": "Zeros", "config": {}}, "kernel_regularizer": null, "bias_regularizer": null, "activity_regularizer": null, "kernel_constraint": null, "bias_constraint": null}, "name": "stage3_unit5_conv2", "inbound_nodes": [[["zero_padding2d_1587", 0, 0, {}]]]}, {"class_name": "BatchNormalization", "config": {"name": "stage3_unit5_bn3", "trainable": true, "dtype": "float32", "axis": [3], "momentum": 0.99, "epsilon": 2e-05, "center": true, "scale": true, "beta_initializer": {"class_name": "Zeros", "config": {}}, "gamma_initializer": {"class_name": "Ones", "config": {}}, "moving_mean_initializer": {"class_name": "Zeros", "config": {}}, "moving_variance_initializer": {"class_name": "Ones", "config": {}}, "beta_regularizer": null, "gamma_regularizer": null, "beta_constraint": null, "gamma_constraint": null}, "name": "stage3_unit5_bn3", "inbound_nodes": [[["stage3_unit5_conv2", 0, 0, {}]]]}, {"class_name": "Activation", "config": {"name": "stage3_unit5_relu3", "trainable": true, "dtype": "float32", "activation": "relu"}, "name": "stage3_unit5_relu3", "inbound_nodes": [[["stage3_unit5_bn3", 0, 0, {}]]]}, {"class_name": "Conv2D", "config": {"name": "stage3_unit5_conv3", "trainable": true, "dtype": "float32", "filters": 1024, "kernel_size": [1, 1], "strides": [1, 1], "padding": "valid", "data_format": "channels_last", "dilation_rate": [1, 1], "groups": 1, "activation": "linear", "use_bias": false, "kernel_initializer": {"class_name": "HeUniform", "config": {"seed": null}}, "bias_initializer": {"class_name": "Zeros", "config": {}}, "kernel_regularizer": null, "bias_regularizer": null, "activity_regularizer": null, "kernel_constraint": null, "bias_constraint": null}, "name": "stage3_unit5_conv3", "inbound_nodes": [[["stage3_unit5_relu3", 0, 0, {}]]]}, {"class_name": "Add", "config": {"name": "add_1195", "trainable": true, "dtype": "float32"}, "name": "add_1195", "inbound_nodes": [[["stage3_unit5_conv3", 0, 0, {}], ["add_1194", 0, 0, {}]]]}, {"class_name": "BatchNormalization", "config": {"name": "stage3_unit6_bn1", "trainable": true, "dtype": "float32", "axis": [3], "momentum": 0.99, "epsilon": 2e-05, "center": true, "scale": true, "beta_initializer": {"class_name": "Zeros", "config": {}}, "gamma_initializer": {"class_name": "Ones", "config": {}}, "moving_mean_initializer": {"class_name": "Zeros", "config": {}}, "moving_variance_initializer": {"class_name": "Ones", "config": {}}, "beta_regularizer": null, "gamma_regularizer": null, "beta_constraint": null, "gamma_constraint": null}, "name": "stage3_unit6_bn1", "inbound_nodes": [[["add_1195", 0, 0, {}]]]}, {"class_name": "Activation", "config": {"name": "stage3_unit6_relu1", "trainable": true, "dtype": "float32", "activation": "relu"}, "name": "stage3_unit6_relu1", "inbound_nodes": [[["stage3_unit6_bn1", 0, 0, {}]]]}, {"class_name": "Conv2D", "config": {"name": "stage3_unit6_conv1", "trainable": true, "dtype": "float32", "filters": 256, "kernel_size": [1, 1], "strides": [1, 1], "padding": "valid", "data_format": "channels_last", "dilation_rate": [1, 1], "groups": 1, "activation": "linear", "use_bias": false, "kernel_initializer": {"class_name": "HeUniform", "config": {"seed": null}}, "bias_initializer": {"class_name": "Zeros", "config": {}}, "kernel_regularizer": null, "bias_regularizer": null, "activity_regularizer": null, "kernel_constraint": null, "bias_constraint": null}, "name": "stage3_unit6_conv1", "inbound_nodes": [[["stage3_unit6_relu1", 0, 0, {}]]]}, {"class_name": "BatchNormalization", "config": {"name": "stage3_unit6_bn2", "trainable": true, "dtype": "float32", "axis": [3], "momentum": 0.99, "epsilon": 2e-05, "center": true, "scale": true, "beta_initializer": {"class_name": "Zeros", "config": {}}, "gamma_initializer": {"class_name": "Ones", "config": {}}, "moving_mean_initializer": {"class_name": "Zeros", "config": {}}, "moving_variance_initializer": {"class_name": "Ones", "config": {}}, "beta_regularizer": null, "gamma_regularizer": null, "beta_constraint": null, "gamma_constraint": null}, "name": "stage3_unit6_bn2", "inbound_nodes": [[["stage3_unit6_conv1", 0, 0, {}]]]}, {"class_name": "Activation", "config": {"name": "stage3_unit6_relu2", "trainable": true, "dtype": "float32", "activation": "relu"}, "name": "stage3_unit6_relu2", "inbound_nodes": [[["stage3_unit6_bn2", 0, 0, {}]]]}, {"class_name": "ZeroPadding2D", "config": {"name": "zero_padding2d_1588", "trainable": true, "dtype": "float32", "padding": [[1, 1], [1, 1]], "data_format": "channels_last"}, "name": "zero_padding2d_1588", "inbound_nodes": [[["stage3_unit6_relu2", 0, 0, {}]]]}, {"class_name": "Conv2D", "config": {"name": "stage3_unit6_conv2", "trainable": true, "dtype": "float32", "filters": 256, "kernel_size": [3, 3], "strides": [1, 1], "padding": "valid", "data_format": "channels_last", "dilation_rate": [1, 1], "groups": 1, "activation": "linear", "use_bias": false, "kernel_initializer": {"class_name": "HeUniform", "config": {"seed": null}}, "bias_initializer": {"class_name": "Zeros", "config": {}}, "kernel_regularizer": null, "bias_regularizer": null, "activity_regularizer": null, "kernel_constraint": null, "bias_constraint": null}, "name": "stage3_unit6_conv2", "inbound_nodes": [[["zero_padding2d_1588", 0, 0, {}]]]}, {"class_name": "BatchNormalization", "config": {"name": "stage3_unit6_bn3", "trainable": true, "dtype": "float32", "axis": [3], "momentum": 0.99, "epsilon": 2e-05, "center": true, "scale": true, "beta_initializer": {"class_name": "Zeros", "config": {}}, "gamma_initializer": {"class_name": "Ones", "config": {}}, "moving_mean_initializer": {"class_name": "Zeros", "config": {}}, "moving_variance_initializer": {"class_name": "Ones", "config": {}}, "beta_regularizer": null, "gamma_regularizer": null, "beta_constraint": null, "gamma_constraint": null}, "name": "stage3_unit6_bn3", "inbound_nodes": [[["stage3_unit6_conv2", 0, 0, {}]]]}, {"class_name": "Activation", "config": {"name": "stage3_unit6_relu3", "trainable": true, "dtype": "float32", "activation": "relu"}, "name": "stage3_unit6_relu3", "inbound_nodes": [[["stage3_unit6_bn3", 0, 0, {}]]]}, {"class_name": "Conv2D", "config": {"name": "stage3_unit6_conv3", "trainable": true, "dtype": "float32", "filters": 1024, "kernel_size": [1, 1], "strides": [1, 1], "padding": "valid", "data_format": "channels_last", "dilation_rate": [1, 1], "groups": 1, "activation": "linear", "use_bias": false, "kernel_initializer": {"class_name": "HeUniform", "config": {"seed": null}}, "bias_initializer": {"class_name": "Zeros", "config": {}}, "kernel_regularizer": null, "bias_regularizer": null, "activity_regularizer": null, "kernel_constraint": null, "bias_constraint": null}, "name": "stage3_unit6_conv3", "inbound_nodes": [[["stage3_unit6_relu3", 0, 0, {}]]]}, {"class_name": "Add", "config": {"name": "add_1196", "trainable": true, "dtype": "float32"}, "name": "add_1196", "inbound_nodes": [[["stage3_unit6_conv3", 0, 0, {}], ["add_1195", 0, 0, {}]]]}, {"class_name": "BatchNormalization", "config": {"name": "stage3_unit7_bn1", "trainable": true, "dtype": "float32", "axis": [3], "momentum": 0.99, "epsilon": 2e-05, "center": true, "scale": true, "beta_initializer": {"class_name": "Zeros", "config": {}}, "gamma_initializer": {"class_name": "Ones", "config": {}}, "moving_mean_initializer": {"class_name": "Zeros", "config": {}}, "moving_variance_initializer": {"class_name": "Ones", "config": {}}, "beta_regularizer": null, "gamma_regularizer": null, "beta_constraint": null, "gamma_constraint": null}, "name": "stage3_unit7_bn1", "inbound_nodes": [[["add_1196", 0, 0, {}]]]}, {"class_name": "Activation", "config": {"name": "stage3_unit7_relu1", "trainable": true, "dtype": "float32", "activation": "relu"}, "name": "stage3_unit7_relu1", "inbound_nodes": [[["stage3_unit7_bn1", 0, 0, {}]]]}, {"class_name": "Conv2D", "config": {"name": "stage3_unit7_conv1", "trainable": true, "dtype": "float32", "filters": 256, "kernel_size": [1, 1], "strides": [1, 1], "padding": "valid", "data_format": "channels_last", "dilation_rate": [1, 1], "groups": 1, "activation": "linear", "use_bias": false, "kernel_initializer": {"class_name": "HeUniform", "config": {"seed": null}}, "bias_initializer": {"class_name": "Zeros", "config": {}}, "kernel_regularizer": null, "bias_regularizer": null, "activity_regularizer": null, "kernel_constraint": null, "bias_constraint": null}, "name": "stage3_unit7_conv1", "inbound_nodes": [[["stage3_unit7_relu1", 0, 0, {}]]]}, {"class_name": "BatchNormalization", "config": {"name": "stage3_unit7_bn2", "trainable": true, "dtype": "float32", "axis": [3], "momentum": 0.99, "epsilon": 2e-05, "center": true, "scale": true, "beta_initializer": {"class_name": "Zeros", "config": {}}, "gamma_initializer": {"class_name": "Ones", "config": {}}, "moving_mean_initializer": {"class_name": "Zeros", "config": {}}, "moving_variance_initializer": {"class_name": "Ones", "config": {}}, "beta_regularizer": null, "gamma_regularizer": null, "beta_constraint": null, "gamma_constraint": null}, "name": "stage3_unit7_bn2", "inbound_nodes": [[["stage3_unit7_conv1", 0, 0, {}]]]}, {"class_name": "Activation", "config": {"name": "stage3_unit7_relu2", "trainable": true, "dtype": "float32", "activation": "relu"}, "name": "stage3_unit7_relu2", "inbound_nodes": [[["stage3_unit7_bn2", 0, 0, {}]]]}, {"class_name": "ZeroPadding2D", "config": {"name": "zero_padding2d_1589", "trainable": true, "dtype": "float32", "padding": [[1, 1], [1, 1]], "data_format": "channels_last"}, "name": "zero_padding2d_1589", "inbound_nodes": [[["stage3_unit7_relu2", 0, 0, {}]]]}, {"class_name": "Conv2D", "config": {"name": "stage3_unit7_conv2", "trainable": true, "dtype": "float32", "filters": 256, "kernel_size": [3, 3], "strides": [1, 1], "padding": "valid", "data_format": "channels_last", "dilation_rate": [1, 1], "groups": 1, "activation": "linear", "use_bias": false, "kernel_initializer": {"class_name": "HeUniform", "config": {"seed": null}}, "bias_initializer": {"class_name": "Zeros", "config": {}}, "kernel_regularizer": null, "bias_regularizer": null, "activity_regularizer": null, "kernel_constraint": null, "bias_constraint": null}, "name": "stage3_unit7_conv2", "inbound_nodes": [[["zero_padding2d_1589", 0, 0, {}]]]}, {"class_name": "BatchNormalization", "config": {"name": "stage3_unit7_bn3", "trainable": true, "dtype": "float32", "axis": [3], "momentum": 0.99, "epsilon": 2e-05, "center": true, "scale": true, "beta_initializer": {"class_name": "Zeros", "config": {}}, "gamma_initializer": {"class_name": "Ones", "config": {}}, "moving_mean_initializer": {"class_name": "Zeros", "config": {}}, "moving_variance_initializer": {"class_name": "Ones", "config": {}}, "beta_regularizer": null, "gamma_regularizer": null, "beta_constraint": null, "gamma_constraint": null}, "name": "stage3_unit7_bn3", "inbound_nodes": [[["stage3_unit7_conv2", 0, 0, {}]]]}, {"class_name": "Activation", "config": {"name": "stage3_unit7_relu3", "trainable": true, "dtype": "float32", "activation": "relu"}, "name": "stage3_unit7_relu3", "inbound_nodes": [[["stage3_unit7_bn3", 0, 0, {}]]]}, {"class_name": "Conv2D", "config": {"name": "stage3_unit7_conv3", "trainable": true, "dtype": "float32", "filters": 1024, "kernel_size": [1, 1], "strides": [1, 1], "padding": "valid", "data_format": "channels_last", "dilation_rate": [1, 1], "groups": 1, "activation": "linear", "use_bias": false, "kernel_initializer": {"class_name": "HeUniform", "config": {"seed": null}}, "bias_initializer": {"class_name": "Zeros", "config": {}}, "kernel_regularizer": null, "bias_regularizer": null, "activity_regularizer": null, "kernel_constraint": null, "bias_constraint": null}, "name": "stage3_unit7_conv3", "inbound_nodes": [[["stage3_unit7_relu3", 0, 0, {}]]]}, {"class_name": "Add", "config": {"name": "add_1197", "trainable": true, "dtype": "float32"}, "name": "add_1197", "inbound_nodes": [[["stage3_unit7_conv3", 0, 0, {}], ["add_1196", 0, 0, {}]]]}, {"class_name": "BatchNormalization", "config": {"name": "stage3_unit8_bn1", "trainable": true, "dtype": "float32", "axis": [3], "momentum": 0.99, "epsilon": 2e-05, "center": true, "scale": true, "beta_initializer": {"class_name": "Zeros", "config": {}}, "gamma_initializer": {"class_name": "Ones", "config": {}}, "moving_mean_initializer": {"class_name": "Zeros", "config": {}}, "moving_variance_initializer": {"class_name": "Ones", "config": {}}, "beta_regularizer": null, "gamma_regularizer": null, "beta_constraint": null, "gamma_constraint": null}, "name": "stage3_unit8_bn1", "inbound_nodes": [[["add_1197", 0, 0, {}]]]}, {"class_name": "Activation", "config": {"name": "stage3_unit8_relu1", "trainable": true, "dtype": "float32", "activation": "relu"}, "name": "stage3_unit8_relu1", "inbound_nodes": [[["stage3_unit8_bn1", 0, 0, {}]]]}, {"class_name": "Conv2D", "config": {"name": "stage3_unit8_conv1", "trainable": true, "dtype": "float32", "filters": 256, "kernel_size": [1, 1], "strides": [1, 1], "padding": "valid", "data_format": "channels_last", "dilation_rate": [1, 1], "groups": 1, "activation": "linear", "use_bias": false, "kernel_initializer": {"class_name": "HeUniform", "config": {"seed": null}}, "bias_initializer": {"class_name": "Zeros", "config": {}}, "kernel_regularizer": null, "bias_regularizer": null, "activity_regularizer": null, "kernel_constraint": null, "bias_constraint": null}, "name": "stage3_unit8_conv1", "inbound_nodes": [[["stage3_unit8_relu1", 0, 0, {}]]]}, {"class_name": "BatchNormalization", "config": {"name": "stage3_unit8_bn2", "trainable": true, "dtype": "float32", "axis": [3], "momentum": 0.99, "epsilon": 2e-05, "center": true, "scale": true, "beta_initializer": {"class_name": "Zeros", "config": {}}, "gamma_initializer": {"class_name": "Ones", "config": {}}, "moving_mean_initializer": {"class_name": "Zeros", "config": {}}, "moving_variance_initializer": {"class_name": "Ones", "config": {}}, "beta_regularizer": null, "gamma_regularizer": null, "beta_constraint": null, "gamma_constraint": null}, "name": "stage3_unit8_bn2", "inbound_nodes": [[["stage3_unit8_conv1", 0, 0, {}]]]}, {"class_name": "Activation", "config": {"name": "stage3_unit8_relu2", "trainable": true, "dtype": "float32", "activation": "relu"}, "name": "stage3_unit8_relu2", "inbound_nodes": [[["stage3_unit8_bn2", 0, 0, {}]]]}, {"class_name": "ZeroPadding2D", "config": {"name": "zero_padding2d_1590", "trainable": true, "dtype": "float32", "padding": [[1, 1], [1, 1]], "data_format": "channels_last"}, "name": "zero_padding2d_1590", "inbound_nodes": [[["stage3_unit8_relu2", 0, 0, {}]]]}, {"class_name": "Conv2D", "config": {"name": "stage3_unit8_conv2", "trainable": true, "dtype": "float32", "filters": 256, "kernel_size": [3, 3], "strides": [1, 1], "padding": "valid", "data_format": "channels_last", "dilation_rate": [1, 1], "groups": 1, "activation": "linear", "use_bias": false, "kernel_initializer": {"class_name": "HeUniform", "config": {"seed": null}}, "bias_initializer": {"class_name": "Zeros", "config": {}}, "kernel_regularizer": null, "bias_regularizer": null, "activity_regularizer": null, "kernel_constraint": null, "bias_constraint": null}, "name": "stage3_unit8_conv2", "inbound_nodes": [[["zero_padding2d_1590", 0, 0, {}]]]}, {"class_name": "BatchNormalization", "config": {"name": "stage3_unit8_bn3", "trainable": true, "dtype": "float32", "axis": [3], "momentum": 0.99, "epsilon": 2e-05, "center": true, "scale": true, "beta_initializer": {"class_name": "Zeros", "config": {}}, "gamma_initializer": {"class_name": "Ones", "config": {}}, "moving_mean_initializer": {"class_name": "Zeros", "config": {}}, "moving_variance_initializer": {"class_name": "Ones", "config": {}}, "beta_regularizer": null, "gamma_regularizer": null, "beta_constraint": null, "gamma_constraint": null}, "name": "stage3_unit8_bn3", "inbound_nodes": [[["stage3_unit8_conv2", 0, 0, {}]]]}, {"class_name": "Activation", "config": {"name": "stage3_unit8_relu3", "trainable": true, "dtype": "float32", "activation": "relu"}, "name": "stage3_unit8_relu3", "inbound_nodes": [[["stage3_unit8_bn3", 0, 0, {}]]]}, {"class_name": "Conv2D", "config": {"name": "stage3_unit8_conv3", "trainable": true, "dtype": "float32", "filters": 1024, "kernel_size": [1, 1], "strides": [1, 1], "padding": "valid", "data_format": "channels_last", "dilation_rate": [1, 1], "groups": 1, "activation": "linear", "use_bias": false, "kernel_initializer": {"class_name": "HeUniform", "config": {"seed": null}}, "bias_initializer": {"class_name": "Zeros", "config": {}}, "kernel_regularizer": null, "bias_regularizer": null, "activity_regularizer": null, "kernel_constraint": null, "bias_constraint": null}, "name": "stage3_unit8_conv3", "inbound_nodes": [[["stage3_unit8_relu3", 0, 0, {}]]]}, {"class_name": "Add", "config": {"name": "add_1198", "trainable": true, "dtype": "float32"}, "name": "add_1198", "inbound_nodes": [[["stage3_unit8_conv3", 0, 0, {}], ["add_1197", 0, 0, {}]]]}, {"class_name": "BatchNormalization", "config": {"name": "stage3_unit9_bn1", "trainable": true, "dtype": "float32", "axis": [3], "momentum": 0.99, "epsilon": 2e-05, "center": true, "scale": true, "beta_initializer": {"class_name": "Zeros", "config": {}}, "gamma_initializer": {"class_name": "Ones", "config": {}}, "moving_mean_initializer": {"class_name": "Zeros", "config": {}}, "moving_variance_initializer": {"class_name": "Ones", "config": {}}, "beta_regularizer": null, "gamma_regularizer": null, "beta_constraint": null, "gamma_constraint": null}, "name": "stage3_unit9_bn1", "inbound_nodes": [[["add_1198", 0, 0, {}]]]}, {"class_name": "Activation", "config": {"name": "stage3_unit9_relu1", "trainable": true, "dtype": "float32", "activation": "relu"}, "name": "stage3_unit9_relu1", "inbound_nodes": [[["stage3_unit9_bn1", 0, 0, {}]]]}, {"class_name": "Conv2D", "config": {"name": "stage3_unit9_conv1", "trainable": true, "dtype": "float32", "filters": 256, "kernel_size": [1, 1], "strides": [1, 1], "padding": "valid", "data_format": "channels_last", "dilation_rate": [1, 1], "groups": 1, "activation": "linear", "use_bias": false, "kernel_initializer": {"class_name": "HeUniform", "config": {"seed": null}}, "bias_initializer": {"class_name": "Zeros", "config": {}}, "kernel_regularizer": null, "bias_regularizer": null, "activity_regularizer": null, "kernel_constraint": null, "bias_constraint": null}, "name": "stage3_unit9_conv1", "inbound_nodes": [[["stage3_unit9_relu1", 0, 0, {}]]]}, {"class_name": "BatchNormalization", "config": {"name": "stage3_unit9_bn2", "trainable": true, "dtype": "float32", "axis": [3], "momentum": 0.99, "epsilon": 2e-05, "center": true, "scale": true, "beta_initializer": {"class_name": "Zeros", "config": {}}, "gamma_initializer": {"class_name": "Ones", "config": {}}, "moving_mean_initializer": {"class_name": "Zeros", "config": {}}, "moving_variance_initializer": {"class_name": "Ones", "config": {}}, "beta_regularizer": null, "gamma_regularizer": null, "beta_constraint": null, "gamma_constraint": null}, "name": "stage3_unit9_bn2", "inbound_nodes": [[["stage3_unit9_conv1", 0, 0, {}]]]}, {"class_name": "Activation", "config": {"name": "stage3_unit9_relu2", "trainable": true, "dtype": "float32", "activation": "relu"}, "name": "stage3_unit9_relu2", "inbound_nodes": [[["stage3_unit9_bn2", 0, 0, {}]]]}, {"class_name": "ZeroPadding2D", "config": {"name": "zero_padding2d_1591", "trainable": true, "dtype": "float32", "padding": [[1, 1], [1, 1]], "data_format": "channels_last"}, "name": "zero_padding2d_1591", "inbound_nodes": [[["stage3_unit9_relu2", 0, 0, {}]]]}, {"class_name": "Conv2D", "config": {"name": "stage3_unit9_conv2", "trainable": true, "dtype": "float32", "filters": 256, "kernel_size": [3, 3], "strides": [1, 1], "padding": "valid", "data_format": "channels_last", "dilation_rate": [1, 1], "groups": 1, "activation": "linear", "use_bias": false, "kernel_initializer": {"class_name": "HeUniform", "config": {"seed": null}}, "bias_initializer": {"class_name": "Zeros", "config": {}}, "kernel_regularizer": null, "bias_regularizer": null, "activity_regularizer": null, "kernel_constraint": null, "bias_constraint": null}, "name": "stage3_unit9_conv2", "inbound_nodes": [[["zero_padding2d_1591", 0, 0, {}]]]}, {"class_name": "BatchNormalization", "config": {"name": "stage3_unit9_bn3", "trainable": true, "dtype": "float32", "axis": [3], "momentum": 0.99, "epsilon": 2e-05, "center": true, "scale": true, "beta_initializer": {"class_name": "Zeros", "config": {}}, "gamma_initializer": {"class_name": "Ones", "config": {}}, "moving_mean_initializer": {"class_name": "Zeros", "config": {}}, "moving_variance_initializer": {"class_name": "Ones", "config": {}}, "beta_regularizer": null, "gamma_regularizer": null, "beta_constraint": null, "gamma_constraint": null}, "name": "stage3_unit9_bn3", "inbound_nodes": [[["stage3_unit9_conv2", 0, 0, {}]]]}, {"class_name": "Activation", "config": {"name": "stage3_unit9_relu3", "trainable": true, "dtype": "float32", "activation": "relu"}, "name": "stage3_unit9_relu3", "inbound_nodes": [[["stage3_unit9_bn3", 0, 0, {}]]]}, {"class_name": "Conv2D", "config": {"name": "stage3_unit9_conv3", "trainable": true, "dtype": "float32", "filters": 1024, "kernel_size": [1, 1], "strides": [1, 1], "padding": "valid", "data_format": "channels_last", "dilation_rate": [1, 1], "groups": 1, "activation": "linear", "use_bias": false, "kernel_initializer": {"class_name": "HeUniform", "config": {"seed": null}}, "bias_initializer": {"class_name": "Zeros", "config": {}}, "kernel_regularizer": null, "bias_regularizer": null, "activity_regularizer": null, "kernel_constraint": null, "bias_constraint": null}, "name": "stage3_unit9_conv3", "inbound_nodes": [[["stage3_unit9_relu3", 0, 0, {}]]]}, {"class_name": "Add", "config": {"name": "add_1199", "trainable": true, "dtype": "float32"}, "name": "add_1199", "inbound_nodes": [[["stage3_unit9_conv3", 0, 0, {}], ["add_1198", 0, 0, {}]]]}, {"class_name": "BatchNormalization", "config": {"name": "stage3_unit10_bn1", "trainable": true, "dtype": "float32", "axis": [3], "momentum": 0.99, "epsilon": 2e-05, "center": true, "scale": true, "beta_initializer": {"class_name": "Zeros", "config": {}}, "gamma_initializer": {"class_name": "Ones", "config": {}}, "moving_mean_initializer": {"class_name": "Zeros", "config": {}}, "moving_variance_initializer": {"class_name": "Ones", "config": {}}, "beta_regularizer": null, "gamma_regularizer": null, "beta_constraint": null, "gamma_constraint": null}, "name": "stage3_unit10_bn1", "inbound_nodes": [[["add_1199", 0, 0, {}]]]}, {"class_name": "Activation", "config": {"name": "stage3_unit10_relu1", "trainable": true, "dtype": "float32", "activation": "relu"}, "name": "stage3_unit10_relu1", "inbound_nodes": [[["stage3_unit10_bn1", 0, 0, {}]]]}, {"class_name": "Conv2D", "config": {"name": "stage3_unit10_conv1", "trainable": true, "dtype": "float32", "filters": 256, "kernel_size": [1, 1], "strides": [1, 1], "padding": "valid", "data_format": "channels_last", "dilation_rate": [1, 1], "groups": 1, "activation": "linear", "use_bias": false, "kernel_initializer": {"class_name": "HeUniform", "config": {"seed": null}}, "bias_initializer": {"class_name": "Zeros", "config": {}}, "kernel_regularizer": null, "bias_regularizer": null, "activity_regularizer": null, "kernel_constraint": null, "bias_constraint": null}, "name": "stage3_unit10_conv1", "inbound_nodes": [[["stage3_unit10_relu1", 0, 0, {}]]]}, {"class_name": "BatchNormalization", "config": {"name": "stage3_unit10_bn2", "trainable": true, "dtype": "float32", "axis": [3], "momentum": 0.99, "epsilon": 2e-05, "center": true, "scale": true, "beta_initializer": {"class_name": "Zeros", "config": {}}, "gamma_initializer": {"class_name": "Ones", "config": {}}, "moving_mean_initializer": {"class_name": "Zeros", "config": {}}, "moving_variance_initializer": {"class_name": "Ones", "config": {}}, "beta_regularizer": null, "gamma_regularizer": null, "beta_constraint": null, "gamma_constraint": null}, "name": "stage3_unit10_bn2", "inbound_nodes": [[["stage3_unit10_conv1", 0, 0, {}]]]}, {"class_name": "Activation", "config": {"name": "stage3_unit10_relu2", "trainable": true, "dtype": "float32", "activation": "relu"}, "name": "stage3_unit10_relu2", "inbound_nodes": [[["stage3_unit10_bn2", 0, 0, {}]]]}, {"class_name": "ZeroPadding2D", "config": {"name": "zero_padding2d_1592", "trainable": true, "dtype": "float32", "padding": [[1, 1], [1, 1]], "data_format": "channels_last"}, "name": "zero_padding2d_1592", "inbound_nodes": [[["stage3_unit10_relu2", 0, 0, {}]]]}, {"class_name": "Conv2D", "config": {"name": "stage3_unit10_conv2", "trainable": true, "dtype": "float32", "filters": 256, "kernel_size": [3, 3], "strides": [1, 1], "padding": "valid", "data_format": "channels_last", "dilation_rate": [1, 1], "groups": 1, "activation": "linear", "use_bias": false, "kernel_initializer": {"class_name": "HeUniform", "config": {"seed": null}}, "bias_initializer": {"class_name": "Zeros", "config": {}}, "kernel_regularizer": null, "bias_regularizer": null, "activity_regularizer": null, "kernel_constraint": null, "bias_constraint": null}, "name": "stage3_unit10_conv2", "inbound_nodes": [[["zero_padding2d_1592", 0, 0, {}]]]}, {"class_name": "BatchNormalization", "config": {"name": "stage3_unit10_bn3", "trainable": true, "dtype": "float32", "axis": [3], "momentum": 0.99, "epsilon": 2e-05, "center": true, "scale": true, "beta_initializer": {"class_name": "Zeros", "config": {}}, "gamma_initializer": {"class_name": "Ones", "config": {}}, "moving_mean_initializer": {"class_name": "Zeros", "config": {}}, "moving_variance_initializer": {"class_name": "Ones", "config": {}}, "beta_regularizer": null, "gamma_regularizer": null, "beta_constraint": null, "gamma_constraint": null}, "name": "stage3_unit10_bn3", "inbound_nodes": [[["stage3_unit10_conv2", 0, 0, {}]]]}, {"class_name": "Activation", "config": {"name": "stage3_unit10_relu3", "trainable": true, "dtype": "float32", "activation": "relu"}, "name": "stage3_unit10_relu3", "inbound_nodes": [[["stage3_unit10_bn3", 0, 0, {}]]]}, {"class_name": "Conv2D", "config": {"name": "stage3_unit10_conv3", "trainable": true, "dtype": "float32", "filters": 1024, "kernel_size": [1, 1], "strides": [1, 1], "padding": "valid", "data_format": "channels_last", "dilation_rate": [1, 1], "groups": 1, "activation": "linear", "use_bias": false, "kernel_initializer": {"class_name": "HeUniform", "config": {"seed": null}}, "bias_initializer": {"class_name": "Zeros", "config": {}}, "kernel_regularizer": null, "bias_regularizer": null, "activity_regularizer": null, "kernel_constraint": null, "bias_constraint": null}, "name": "stage3_unit10_conv3", "inbound_nodes": [[["stage3_unit10_relu3", 0, 0, {}]]]}, {"class_name": "Add", "config": {"name": "add_1200", "trainable": true, "dtype": "float32"}, "name": "add_1200", "inbound_nodes": [[["stage3_unit10_conv3", 0, 0, {}], ["add_1199", 0, 0, {}]]]}, {"class_name": "BatchNormalization", "config": {"name": "stage3_unit11_bn1", "trainable": true, "dtype": "float32", "axis": [3], "momentum": 0.99, "epsilon": 2e-05, "center": true, "scale": true, "beta_initializer": {"class_name": "Zeros", "config": {}}, "gamma_initializer": {"class_name": "Ones", "config": {}}, "moving_mean_initializer": {"class_name": "Zeros", "config": {}}, "moving_variance_initializer": {"class_name": "Ones", "config": {}}, "beta_regularizer": null, "gamma_regularizer": null, "beta_constraint": null, "gamma_constraint": null}, "name": "stage3_unit11_bn1", "inbound_nodes": [[["add_1200", 0, 0, {}]]]}, {"class_name": "Activation", "config": {"name": "stage3_unit11_relu1", "trainable": true, "dtype": "float32", "activation": "relu"}, "name": "stage3_unit11_relu1", "inbound_nodes": [[["stage3_unit11_bn1", 0, 0, {}]]]}, {"class_name": "Conv2D", "config": {"name": "stage3_unit11_conv1", "trainable": true, "dtype": "float32", "filters": 256, "kernel_size": [1, 1], "strides": [1, 1], "padding": "valid", "data_format": "channels_last", "dilation_rate": [1, 1], "groups": 1, "activation": "linear", "use_bias": false, "kernel_initializer": {"class_name": "HeUniform", "config": {"seed": null}}, "bias_initializer": {"class_name": "Zeros", "config": {}}, "kernel_regularizer": null, "bias_regularizer": null, "activity_regularizer": null, "kernel_constraint": null, "bias_constraint": null}, "name": "stage3_unit11_conv1", "inbound_nodes": [[["stage3_unit11_relu1", 0, 0, {}]]]}, {"class_name": "BatchNormalization", "config": {"name": "stage3_unit11_bn2", "trainable": true, "dtype": "float32", "axis": [3], "momentum": 0.99, "epsilon": 2e-05, "center": true, "scale": true, "beta_initializer": {"class_name": "Zeros", "config": {}}, "gamma_initializer": {"class_name": "Ones", "config": {}}, "moving_mean_initializer": {"class_name": "Zeros", "config": {}}, "moving_variance_initializer": {"class_name": "Ones", "config": {}}, "beta_regularizer": null, "gamma_regularizer": null, "beta_constraint": null, "gamma_constraint": null}, "name": "stage3_unit11_bn2", "inbound_nodes": [[["stage3_unit11_conv1", 0, 0, {}]]]}, {"class_name": "Activation", "config": {"name": "stage3_unit11_relu2", "trainable": true, "dtype": "float32", "activation": "relu"}, "name": "stage3_unit11_relu2", "inbound_nodes": [[["stage3_unit11_bn2", 0, 0, {}]]]}, {"class_name": "ZeroPadding2D", "config": {"name": "zero_padding2d_1593", "trainable": true, "dtype": "float32", "padding": [[1, 1], [1, 1]], "data_format": "channels_last"}, "name": "zero_padding2d_1593", "inbound_nodes": [[["stage3_unit11_relu2", 0, 0, {}]]]}, {"class_name": "Conv2D", "config": {"name": "stage3_unit11_conv2", "trainable": true, "dtype": "float32", "filters": 256, "kernel_size": [3, 3], "strides": [1, 1], "padding": "valid", "data_format": "channels_last", "dilation_rate": [1, 1], "groups": 1, "activation": "linear", "use_bias": false, "kernel_initializer": {"class_name": "HeUniform", "config": {"seed": null}}, "bias_initializer": {"class_name": "Zeros", "config": {}}, "kernel_regularizer": null, "bias_regularizer": null, "activity_regularizer": null, "kernel_constraint": null, "bias_constraint": null}, "name": "stage3_unit11_conv2", "inbound_nodes": [[["zero_padding2d_1593", 0, 0, {}]]]}, {"class_name": "BatchNormalization", "config": {"name": "stage3_unit11_bn3", "trainable": true, "dtype": "float32", "axis": [3], "momentum": 0.99, "epsilon": 2e-05, "center": true, "scale": true, "beta_initializer": {"class_name": "Zeros", "config": {}}, "gamma_initializer": {"class_name": "Ones", "config": {}}, "moving_mean_initializer": {"class_name": "Zeros", "config": {}}, "moving_variance_initializer": {"class_name": "Ones", "config": {}}, "beta_regularizer": null, "gamma_regularizer": null, "beta_constraint": null, "gamma_constraint": null}, "name": "stage3_unit11_bn3", "inbound_nodes": [[["stage3_unit11_conv2", 0, 0, {}]]]}, {"class_name": "Activation", "config": {"name": "stage3_unit11_relu3", "trainable": true, "dtype": "float32", "activation": "relu"}, "name": "stage3_unit11_relu3", "inbound_nodes": [[["stage3_unit11_bn3", 0, 0, {}]]]}, {"class_name": "Conv2D", "config": {"name": "stage3_unit11_conv3", "trainable": true, "dtype": "float32", "filters": 1024, "kernel_size": [1, 1], "strides": [1, 1], "padding": "valid", "data_format": "channels_last", "dilation_rate": [1, 1], "groups": 1, "activation": "linear", "use_bias": false, "kernel_initializer": {"class_name": "HeUniform", "config": {"seed": null}}, "bias_initializer": {"class_name": "Zeros", "config": {}}, "kernel_regularizer": null, "bias_regularizer": null, "activity_regularizer": null, "kernel_constraint": null, "bias_constraint": null}, "name": "stage3_unit11_conv3", "inbound_nodes": [[["stage3_unit11_relu3", 0, 0, {}]]]}, {"class_name": "Add", "config": {"name": "add_1201", "trainable": true, "dtype": "float32"}, "name": "add_1201", "inbound_nodes": [[["stage3_unit11_conv3", 0, 0, {}], ["add_1200", 0, 0, {}]]]}, {"class_name": "BatchNormalization", "config": {"name": "stage3_unit12_bn1", "trainable": true, "dtype": "float32", "axis": [3], "momentum": 0.99, "epsilon": 2e-05, "center": true, "scale": true, "beta_initializer": {"class_name": "Zeros", "config": {}}, "gamma_initializer": {"class_name": "Ones", "config": {}}, "moving_mean_initializer": {"class_name": "Zeros", "config": {}}, "moving_variance_initializer": {"class_name": "Ones", "config": {}}, "beta_regularizer": null, "gamma_regularizer": null, "beta_constraint": null, "gamma_constraint": null}, "name": "stage3_unit12_bn1", "inbound_nodes": [[["add_1201", 0, 0, {}]]]}, {"class_name": "Activation", "config": {"name": "stage3_unit12_relu1", "trainable": true, "dtype": "float32", "activation": "relu"}, "name": "stage3_unit12_relu1", "inbound_nodes": [[["stage3_unit12_bn1", 0, 0, {}]]]}, {"class_name": "Conv2D", "config": {"name": "stage3_unit12_conv1", "trainable": true, "dtype": "float32", "filters": 256, "kernel_size": [1, 1], "strides": [1, 1], "padding": "valid", "data_format": "channels_last", "dilation_rate": [1, 1], "groups": 1, "activation": "linear", "use_bias": false, "kernel_initializer": {"class_name": "HeUniform", "config": {"seed": null}}, "bias_initializer": {"class_name": "Zeros", "config": {}}, "kernel_regularizer": null, "bias_regularizer": null, "activity_regularizer": null, "kernel_constraint": null, "bias_constraint": null}, "name": "stage3_unit12_conv1", "inbound_nodes": [[["stage3_unit12_relu1", 0, 0, {}]]]}, {"class_name": "BatchNormalization", "config": {"name": "stage3_unit12_bn2", "trainable": true, "dtype": "float32", "axis": [3], "momentum": 0.99, "epsilon": 2e-05, "center": true, "scale": true, "beta_initializer": {"class_name": "Zeros", "config": {}}, "gamma_initializer": {"class_name": "Ones", "config": {}}, "moving_mean_initializer": {"class_name": "Zeros", "config": {}}, "moving_variance_initializer": {"class_name": "Ones", "config": {}}, "beta_regularizer": null, "gamma_regularizer": null, "beta_constraint": null, "gamma_constraint": null}, "name": "stage3_unit12_bn2", "inbound_nodes": [[["stage3_unit12_conv1", 0, 0, {}]]]}, {"class_name": "Activation", "config": {"name": "stage3_unit12_relu2", "trainable": true, "dtype": "float32", "activation": "relu"}, "name": "stage3_unit12_relu2", "inbound_nodes": [[["stage3_unit12_bn2", 0, 0, {}]]]}, {"class_name": "ZeroPadding2D", "config": {"name": "zero_padding2d_1594", "trainable": true, "dtype": "float32", "padding": [[1, 1], [1, 1]], "data_format": "channels_last"}, "name": "zero_padding2d_1594", "inbound_nodes": [[["stage3_unit12_relu2", 0, 0, {}]]]}, {"class_name": "Conv2D", "config": {"name": "stage3_unit12_conv2", "trainable": true, "dtype": "float32", "filters": 256, "kernel_size": [3, 3], "strides": [1, 1], "padding": "valid", "data_format": "channels_last", "dilation_rate": [1, 1], "groups": 1, "activation": "linear", "use_bias": false, "kernel_initializer": {"class_name": "HeUniform", "config": {"seed": null}}, "bias_initializer": {"class_name": "Zeros", "config": {}}, "kernel_regularizer": null, "bias_regularizer": null, "activity_regularizer": null, "kernel_constraint": null, "bias_constraint": null}, "name": "stage3_unit12_conv2", "inbound_nodes": [[["zero_padding2d_1594", 0, 0, {}]]]}, {"class_name": "BatchNormalization", "config": {"name": "stage3_unit12_bn3", "trainable": true, "dtype": "float32", "axis": [3], "momentum": 0.99, "epsilon": 2e-05, "center": true, "scale": true, "beta_initializer": {"class_name": "Zeros", "config": {}}, "gamma_initializer": {"class_name": "Ones", "config": {}}, "moving_mean_initializer": {"class_name": "Zeros", "config": {}}, "moving_variance_initializer": {"class_name": "Ones", "config": {}}, "beta_regularizer": null, "gamma_regularizer": null, "beta_constraint": null, "gamma_constraint": null}, "name": "stage3_unit12_bn3", "inbound_nodes": [[["stage3_unit12_conv2", 0, 0, {}]]]}, {"class_name": "Activation", "config": {"name": "stage3_unit12_relu3", "trainable": true, "dtype": "float32", "activation": "relu"}, "name": "stage3_unit12_relu3", "inbound_nodes": [[["stage3_unit12_bn3", 0, 0, {}]]]}, {"class_name": "Conv2D", "config": {"name": "stage3_unit12_conv3", "trainable": true, "dtype": "float32", "filters": 1024, "kernel_size": [1, 1], "strides": [1, 1], "padding": "valid", "data_format": "channels_last", "dilation_rate": [1, 1], "groups": 1, "activation": "linear", "use_bias": false, "kernel_initializer": {"class_name": "HeUniform", "config": {"seed": null}}, "bias_initializer": {"class_name": "Zeros", "config": {}}, "kernel_regularizer": null, "bias_regularizer": null, "activity_regularizer": null, "kernel_constraint": null, "bias_constraint": null}, "name": "stage3_unit12_conv3", "inbound_nodes": [[["stage3_unit12_relu3", 0, 0, {}]]]}, {"class_name": "Add", "config": {"name": "add_1202", "trainable": true, "dtype": "float32"}, "name": "add_1202", "inbound_nodes": [[["stage3_unit12_conv3", 0, 0, {}], ["add_1201", 0, 0, {}]]]}, {"class_name": "BatchNormalization", "config": {"name": "stage3_unit13_bn1", "trainable": true, "dtype": "float32", "axis": [3], "momentum": 0.99, "epsilon": 2e-05, "center": true, "scale": true, "beta_initializer": {"class_name": "Zeros", "config": {}}, "gamma_initializer": {"class_name": "Ones", "config": {}}, "moving_mean_initializer": {"class_name": "Zeros", "config": {}}, "moving_variance_initializer": {"class_name": "Ones", "config": {}}, "beta_regularizer": null, "gamma_regularizer": null, "beta_constraint": null, "gamma_constraint": null}, "name": "stage3_unit13_bn1", "inbound_nodes": [[["add_1202", 0, 0, {}]]]}, {"class_name": "Activation", "config": {"name": "stage3_unit13_relu1", "trainable": true, "dtype": "float32", "activation": "relu"}, "name": "stage3_unit13_relu1", "inbound_nodes": [[["stage3_unit13_bn1", 0, 0, {}]]]}, {"class_name": "Conv2D", "config": {"name": "stage3_unit13_conv1", "trainable": true, "dtype": "float32", "filters": 256, "kernel_size": [1, 1], "strides": [1, 1], "padding": "valid", "data_format": "channels_last", "dilation_rate": [1, 1], "groups": 1, "activation": "linear", "use_bias": false, "kernel_initializer": {"class_name": "HeUniform", "config": {"seed": null}}, "bias_initializer": {"class_name": "Zeros", "config": {}}, "kernel_regularizer": null, "bias_regularizer": null, "activity_regularizer": null, "kernel_constraint": null, "bias_constraint": null}, "name": "stage3_unit13_conv1", "inbound_nodes": [[["stage3_unit13_relu1", 0, 0, {}]]]}, {"class_name": "BatchNormalization", "config": {"name": "stage3_unit13_bn2", "trainable": true, "dtype": "float32", "axis": [3], "momentum": 0.99, "epsilon": 2e-05, "center": true, "scale": true, "beta_initializer": {"class_name": "Zeros", "config": {}}, "gamma_initializer": {"class_name": "Ones", "config": {}}, "moving_mean_initializer": {"class_name": "Zeros", "config": {}}, "moving_variance_initializer": {"class_name": "Ones", "config": {}}, "beta_regularizer": null, "gamma_regularizer": null, "beta_constraint": null, "gamma_constraint": null}, "name": "stage3_unit13_bn2", "inbound_nodes": [[["stage3_unit13_conv1", 0, 0, {}]]]}, {"class_name": "Activation", "config": {"name": "stage3_unit13_relu2", "trainable": true, "dtype": "float32", "activation": "relu"}, "name": "stage3_unit13_relu2", "inbound_nodes": [[["stage3_unit13_bn2", 0, 0, {}]]]}, {"class_name": "ZeroPadding2D", "config": {"name": "zero_padding2d_1595", "trainable": true, "dtype": "float32", "padding": [[1, 1], [1, 1]], "data_format": "channels_last"}, "name": "zero_padding2d_1595", "inbound_nodes": [[["stage3_unit13_relu2", 0, 0, {}]]]}, {"class_name": "Conv2D", "config": {"name": "stage3_unit13_conv2", "trainable": true, "dtype": "float32", "filters": 256, "kernel_size": [3, 3], "strides": [1, 1], "padding": "valid", "data_format": "channels_last", "dilation_rate": [1, 1], "groups": 1, "activation": "linear", "use_bias": false, "kernel_initializer": {"class_name": "HeUniform", "config": {"seed": null}}, "bias_initializer": {"class_name": "Zeros", "config": {}}, "kernel_regularizer": null, "bias_regularizer": null, "activity_regularizer": null, "kernel_constraint": null, "bias_constraint": null}, "name": "stage3_unit13_conv2", "inbound_nodes": [[["zero_padding2d_1595", 0, 0, {}]]]}, {"class_name": "BatchNormalization", "config": {"name": "stage3_unit13_bn3", "trainable": true, "dtype": "float32", "axis": [3], "momentum": 0.99, "epsilon": 2e-05, "center": true, "scale": true, "beta_initializer": {"class_name": "Zeros", "config": {}}, "gamma_initializer": {"class_name": "Ones", "config": {}}, "moving_mean_initializer": {"class_name": "Zeros", "config": {}}, "moving_variance_initializer": {"class_name": "Ones", "config": {}}, "beta_regularizer": null, "gamma_regularizer": null, "beta_constraint": null, "gamma_constraint": null}, "name": "stage3_unit13_bn3", "inbound_nodes": [[["stage3_unit13_conv2", 0, 0, {}]]]}, {"class_name": "Activation", "config": {"name": "stage3_unit13_relu3", "trainable": true, "dtype": "float32", "activation": "relu"}, "name": "stage3_unit13_relu3", "inbound_nodes": [[["stage3_unit13_bn3", 0, 0, {}]]]}, {"class_name": "Conv2D", "config": {"name": "stage3_unit13_conv3", "trainable": true, "dtype": "float32", "filters": 1024, "kernel_size": [1, 1], "strides": [1, 1], "padding": "valid", "data_format": "channels_last", "dilation_rate": [1, 1], "groups": 1, "activation": "linear", "use_bias": false, "kernel_initializer": {"class_name": "HeUniform", "config": {"seed": null}}, "bias_initializer": {"class_name": "Zeros", "config": {}}, "kernel_regularizer": null, "bias_regularizer": null, "activity_regularizer": null, "kernel_constraint": null, "bias_constraint": null}, "name": "stage3_unit13_conv3", "inbound_nodes": [[["stage3_unit13_relu3", 0, 0, {}]]]}, {"class_name": "Add", "config": {"name": "add_1203", "trainable": true, "dtype": "float32"}, "name": "add_1203", "inbound_nodes": [[["stage3_unit13_conv3", 0, 0, {}], ["add_1202", 0, 0, {}]]]}, {"class_name": "BatchNormalization", "config": {"name": "stage3_unit14_bn1", "trainable": true, "dtype": "float32", "axis": [3], "momentum": 0.99, "epsilon": 2e-05, "center": true, "scale": true, "beta_initializer": {"class_name": "Zeros", "config": {}}, "gamma_initializer": {"class_name": "Ones", "config": {}}, "moving_mean_initializer": {"class_name": "Zeros", "config": {}}, "moving_variance_initializer": {"class_name": "Ones", "config": {}}, "beta_regularizer": null, "gamma_regularizer": null, "beta_constraint": null, "gamma_constraint": null}, "name": "stage3_unit14_bn1", "inbound_nodes": [[["add_1203", 0, 0, {}]]]}, {"class_name": "Activation", "config": {"name": "stage3_unit14_relu1", "trainable": true, "dtype": "float32", "activation": "relu"}, "name": "stage3_unit14_relu1", "inbound_nodes": [[["stage3_unit14_bn1", 0, 0, {}]]]}, {"class_name": "Conv2D", "config": {"name": "stage3_unit14_conv1", "trainable": true, "dtype": "float32", "filters": 256, "kernel_size": [1, 1], "strides": [1, 1], "padding": "valid", "data_format": "channels_last", "dilation_rate": [1, 1], "groups": 1, "activation": "linear", "use_bias": false, "kernel_initializer": {"class_name": "HeUniform", "config": {"seed": null}}, "bias_initializer": {"class_name": "Zeros", "config": {}}, "kernel_regularizer": null, "bias_regularizer": null, "activity_regularizer": null, "kernel_constraint": null, "bias_constraint": null}, "name": "stage3_unit14_conv1", "inbound_nodes": [[["stage3_unit14_relu1", 0, 0, {}]]]}, {"class_name": "BatchNormalization", "config": {"name": "stage3_unit14_bn2", "trainable": true, "dtype": "float32", "axis": [3], "momentum": 0.99, "epsilon": 2e-05, "center": true, "scale": true, "beta_initializer": {"class_name": "Zeros", "config": {}}, "gamma_initializer": {"class_name": "Ones", "config": {}}, "moving_mean_initializer": {"class_name": "Zeros", "config": {}}, "moving_variance_initializer": {"class_name": "Ones", "config": {}}, "beta_regularizer": null, "gamma_regularizer": null, "beta_constraint": null, "gamma_constraint": null}, "name": "stage3_unit14_bn2", "inbound_nodes": [[["stage3_unit14_conv1", 0, 0, {}]]]}, {"class_name": "Activation", "config": {"name": "stage3_unit14_relu2", "trainable": true, "dtype": "float32", "activation": "relu"}, "name": "stage3_unit14_relu2", "inbound_nodes": [[["stage3_unit14_bn2", 0, 0, {}]]]}, {"class_name": "ZeroPadding2D", "config": {"name": "zero_padding2d_1596", "trainable": true, "dtype": "float32", "padding": [[1, 1], [1, 1]], "data_format": "channels_last"}, "name": "zero_padding2d_1596", "inbound_nodes": [[["stage3_unit14_relu2", 0, 0, {}]]]}, {"class_name": "Conv2D", "config": {"name": "stage3_unit14_conv2", "trainable": true, "dtype": "float32", "filters": 256, "kernel_size": [3, 3], "strides": [1, 1], "padding": "valid", "data_format": "channels_last", "dilation_rate": [1, 1], "groups": 1, "activation": "linear", "use_bias": false, "kernel_initializer": {"class_name": "HeUniform", "config": {"seed": null}}, "bias_initializer": {"class_name": "Zeros", "config": {}}, "kernel_regularizer": null, "bias_regularizer": null, "activity_regularizer": null, "kernel_constraint": null, "bias_constraint": null}, "name": "stage3_unit14_conv2", "inbound_nodes": [[["zero_padding2d_1596", 0, 0, {}]]]}, {"class_name": "BatchNormalization", "config": {"name": "stage3_unit14_bn3", "trainable": true, "dtype": "float32", "axis": [3], "momentum": 0.99, "epsilon": 2e-05, "center": true, "scale": true, "beta_initializer": {"class_name": "Zeros", "config": {}}, "gamma_initializer": {"class_name": "Ones", "config": {}}, "moving_mean_initializer": {"class_name": "Zeros", "config": {}}, "moving_variance_initializer": {"class_name": "Ones", "config": {}}, "beta_regularizer": null, "gamma_regularizer": null, "beta_constraint": null, "gamma_constraint": null}, "name": "stage3_unit14_bn3", "inbound_nodes": [[["stage3_unit14_conv2", 0, 0, {}]]]}, {"class_name": "Activation", "config": {"name": "stage3_unit14_relu3", "trainable": true, "dtype": "float32", "activation": "relu"}, "name": "stage3_unit14_relu3", "inbound_nodes": [[["stage3_unit14_bn3", 0, 0, {}]]]}, {"class_name": "Conv2D", "config": {"name": "stage3_unit14_conv3", "trainable": true, "dtype": "float32", "filters": 1024, "kernel_size": [1, 1], "strides": [1, 1], "padding": "valid", "data_format": "channels_last", "dilation_rate": [1, 1], "groups": 1, "activation": "linear", "use_bias": false, "kernel_initializer": {"class_name": "HeUniform", "config": {"seed": null}}, "bias_initializer": {"class_name": "Zeros", "config": {}}, "kernel_regularizer": null, "bias_regularizer": null, "activity_regularizer": null, "kernel_constraint": null, "bias_constraint": null}, "name": "stage3_unit14_conv3", "inbound_nodes": [[["stage3_unit14_relu3", 0, 0, {}]]]}, {"class_name": "Add", "config": {"name": "add_1204", "trainable": true, "dtype": "float32"}, "name": "add_1204", "inbound_nodes": [[["stage3_unit14_conv3", 0, 0, {}], ["add_1203", 0, 0, {}]]]}, {"class_name": "BatchNormalization", "config": {"name": "stage3_unit15_bn1", "trainable": true, "dtype": "float32", "axis": [3], "momentum": 0.99, "epsilon": 2e-05, "center": true, "scale": true, "beta_initializer": {"class_name": "Zeros", "config": {}}, "gamma_initializer": {"class_name": "Ones", "config": {}}, "moving_mean_initializer": {"class_name": "Zeros", "config": {}}, "moving_variance_initializer": {"class_name": "Ones", "config": {}}, "beta_regularizer": null, "gamma_regularizer": null, "beta_constraint": null, "gamma_constraint": null}, "name": "stage3_unit15_bn1", "inbound_nodes": [[["add_1204", 0, 0, {}]]]}, {"class_name": "Activation", "config": {"name": "stage3_unit15_relu1", "trainable": true, "dtype": "float32", "activation": "relu"}, "name": "stage3_unit15_relu1", "inbound_nodes": [[["stage3_unit15_bn1", 0, 0, {}]]]}, {"class_name": "Conv2D", "config": {"name": "stage3_unit15_conv1", "trainable": true, "dtype": "float32", "filters": 256, "kernel_size": [1, 1], "strides": [1, 1], "padding": "valid", "data_format": "channels_last", "dilation_rate": [1, 1], "groups": 1, "activation": "linear", "use_bias": false, "kernel_initializer": {"class_name": "HeUniform", "config": {"seed": null}}, "bias_initializer": {"class_name": "Zeros", "config": {}}, "kernel_regularizer": null, "bias_regularizer": null, "activity_regularizer": null, "kernel_constraint": null, "bias_constraint": null}, "name": "stage3_unit15_conv1", "inbound_nodes": [[["stage3_unit15_relu1", 0, 0, {}]]]}, {"class_name": "BatchNormalization", "config": {"name": "stage3_unit15_bn2", "trainable": true, "dtype": "float32", "axis": [3], "momentum": 0.99, "epsilon": 2e-05, "center": true, "scale": true, "beta_initializer": {"class_name": "Zeros", "config": {}}, "gamma_initializer": {"class_name": "Ones", "config": {}}, "moving_mean_initializer": {"class_name": "Zeros", "config": {}}, "moving_variance_initializer": {"class_name": "Ones", "config": {}}, "beta_regularizer": null, "gamma_regularizer": null, "beta_constraint": null, "gamma_constraint": null}, "name": "stage3_unit15_bn2", "inbound_nodes": [[["stage3_unit15_conv1", 0, 0, {}]]]}, {"class_name": "Activation", "config": {"name": "stage3_unit15_relu2", "trainable": true, "dtype": "float32", "activation": "relu"}, "name": "stage3_unit15_relu2", "inbound_nodes": [[["stage3_unit15_bn2", 0, 0, {}]]]}, {"class_name": "ZeroPadding2D", "config": {"name": "zero_padding2d_1597", "trainable": true, "dtype": "float32", "padding": [[1, 1], [1, 1]], "data_format": "channels_last"}, "name": "zero_padding2d_1597", "inbound_nodes": [[["stage3_unit15_relu2", 0, 0, {}]]]}, {"class_name": "Conv2D", "config": {"name": "stage3_unit15_conv2", "trainable": true, "dtype": "float32", "filters": 256, "kernel_size": [3, 3], "strides": [1, 1], "padding": "valid", "data_format": "channels_last", "dilation_rate": [1, 1], "groups": 1, "activation": "linear", "use_bias": false, "kernel_initializer": {"class_name": "HeUniform", "config": {"seed": null}}, "bias_initializer": {"class_name": "Zeros", "config": {}}, "kernel_regularizer": null, "bias_regularizer": null, "activity_regularizer": null, "kernel_constraint": null, "bias_constraint": null}, "name": "stage3_unit15_conv2", "inbound_nodes": [[["zero_padding2d_1597", 0, 0, {}]]]}, {"class_name": "BatchNormalization", "config": {"name": "stage3_unit15_bn3", "trainable": true, "dtype": "float32", "axis": [3], "momentum": 0.99, "epsilon": 2e-05, "center": true, "scale": true, "beta_initializer": {"class_name": "Zeros", "config": {}}, "gamma_initializer": {"class_name": "Ones", "config": {}}, "moving_mean_initializer": {"class_name": "Zeros", "config": {}}, "moving_variance_initializer": {"class_name": "Ones", "config": {}}, "beta_regularizer": null, "gamma_regularizer": null, "beta_constraint": null, "gamma_constraint": null}, "name": "stage3_unit15_bn3", "inbound_nodes": [[["stage3_unit15_conv2", 0, 0, {}]]]}, {"class_name": "Activation", "config": {"name": "stage3_unit15_relu3", "trainable": true, "dtype": "float32", "activation": "relu"}, "name": "stage3_unit15_relu3", "inbound_nodes": [[["stage3_unit15_bn3", 0, 0, {}]]]}, {"class_name": "Conv2D", "config": {"name": "stage3_unit15_conv3", "trainable": true, "dtype": "float32", "filters": 1024, "kernel_size": [1, 1], "strides": [1, 1], "padding": "valid", "data_format": "channels_last", "dilation_rate": [1, 1], "groups": 1, "activation": "linear", "use_bias": false, "kernel_initializer": {"class_name": "HeUniform", "config": {"seed": null}}, "bias_initializer": {"class_name": "Zeros", "config": {}}, "kernel_regularizer": null, "bias_regularizer": null, "activity_regularizer": null, "kernel_constraint": null, "bias_constraint": null}, "name": "stage3_unit15_conv3", "inbound_nodes": [[["stage3_unit15_relu3", 0, 0, {}]]]}, {"class_name": "Add", "config": {"name": "add_1205", "trainable": true, "dtype": "float32"}, "name": "add_1205", "inbound_nodes": [[["stage3_unit15_conv3", 0, 0, {}], ["add_1204", 0, 0, {}]]]}, {"class_name": "BatchNormalization", "config": {"name": "stage3_unit16_bn1", "trainable": true, "dtype": "float32", "axis": [3], "momentum": 0.99, "epsilon": 2e-05, "center": true, "scale": true, "beta_initializer": {"class_name": "Zeros", "config": {}}, "gamma_initializer": {"class_name": "Ones", "config": {}}, "moving_mean_initializer": {"class_name": "Zeros", "config": {}}, "moving_variance_initializer": {"class_name": "Ones", "config": {}}, "beta_regularizer": null, "gamma_regularizer": null, "beta_constraint": null, "gamma_constraint": null}, "name": "stage3_unit16_bn1", "inbound_nodes": [[["add_1205", 0, 0, {}]]]}, {"class_name": "Activation", "config": {"name": "stage3_unit16_relu1", "trainable": true, "dtype": "float32", "activation": "relu"}, "name": "stage3_unit16_relu1", "inbound_nodes": [[["stage3_unit16_bn1", 0, 0, {}]]]}, {"class_name": "Conv2D", "config": {"name": "stage3_unit16_conv1", "trainable": true, "dtype": "float32", "filters": 256, "kernel_size": [1, 1], "strides": [1, 1], "padding": "valid", "data_format": "channels_last", "dilation_rate": [1, 1], "groups": 1, "activation": "linear", "use_bias": false, "kernel_initializer": {"class_name": "HeUniform", "config": {"seed": null}}, "bias_initializer": {"class_name": "Zeros", "config": {}}, "kernel_regularizer": null, "bias_regularizer": null, "activity_regularizer": null, "kernel_constraint": null, "bias_constraint": null}, "name": "stage3_unit16_conv1", "inbound_nodes": [[["stage3_unit16_relu1", 0, 0, {}]]]}, {"class_name": "BatchNormalization", "config": {"name": "stage3_unit16_bn2", "trainable": true, "dtype": "float32", "axis": [3], "momentum": 0.99, "epsilon": 2e-05, "center": true, "scale": true, "beta_initializer": {"class_name": "Zeros", "config": {}}, "gamma_initializer": {"class_name": "Ones", "config": {}}, "moving_mean_initializer": {"class_name": "Zeros", "config": {}}, "moving_variance_initializer": {"class_name": "Ones", "config": {}}, "beta_regularizer": null, "gamma_regularizer": null, "beta_constraint": null, "gamma_constraint": null}, "name": "stage3_unit16_bn2", "inbound_nodes": [[["stage3_unit16_conv1", 0, 0, {}]]]}, {"class_name": "Activation", "config": {"name": "stage3_unit16_relu2", "trainable": true, "dtype": "float32", "activation": "relu"}, "name": "stage3_unit16_relu2", "inbound_nodes": [[["stage3_unit16_bn2", 0, 0, {}]]]}, {"class_name": "ZeroPadding2D", "config": {"name": "zero_padding2d_1598", "trainable": true, "dtype": "float32", "padding": [[1, 1], [1, 1]], "data_format": "channels_last"}, "name": "zero_padding2d_1598", "inbound_nodes": [[["stage3_unit16_relu2", 0, 0, {}]]]}, {"class_name": "Conv2D", "config": {"name": "stage3_unit16_conv2", "trainable": true, "dtype": "float32", "filters": 256, "kernel_size": [3, 3], "strides": [1, 1], "padding": "valid", "data_format": "channels_last", "dilation_rate": [1, 1], "groups": 1, "activation": "linear", "use_bias": false, "kernel_initializer": {"class_name": "HeUniform", "config": {"seed": null}}, "bias_initializer": {"class_name": "Zeros", "config": {}}, "kernel_regularizer": null, "bias_regularizer": null, "activity_regularizer": null, "kernel_constraint": null, "bias_constraint": null}, "name": "stage3_unit16_conv2", "inbound_nodes": [[["zero_padding2d_1598", 0, 0, {}]]]}, {"class_name": "BatchNormalization", "config": {"name": "stage3_unit16_bn3", "trainable": true, "dtype": "float32", "axis": [3], "momentum": 0.99, "epsilon": 2e-05, "center": true, "scale": true, "beta_initializer": {"class_name": "Zeros", "config": {}}, "gamma_initializer": {"class_name": "Ones", "config": {}}, "moving_mean_initializer": {"class_name": "Zeros", "config": {}}, "moving_variance_initializer": {"class_name": "Ones", "config": {}}, "beta_regularizer": null, "gamma_regularizer": null, "beta_constraint": null, "gamma_constraint": null}, "name": "stage3_unit16_bn3", "inbound_nodes": [[["stage3_unit16_conv2", 0, 0, {}]]]}, {"class_name": "Activation", "config": {"name": "stage3_unit16_relu3", "trainable": true, "dtype": "float32", "activation": "relu"}, "name": "stage3_unit16_relu3", "inbound_nodes": [[["stage3_unit16_bn3", 0, 0, {}]]]}, {"class_name": "Conv2D", "config": {"name": "stage3_unit16_conv3", "trainable": true, "dtype": "float32", "filters": 1024, "kernel_size": [1, 1], "strides": [1, 1], "padding": "valid", "data_format": "channels_last", "dilation_rate": [1, 1], "groups": 1, "activation": "linear", "use_bias": false, "kernel_initializer": {"class_name": "HeUniform", "config": {"seed": null}}, "bias_initializer": {"class_name": "Zeros", "config": {}}, "kernel_regularizer": null, "bias_regularizer": null, "activity_regularizer": null, "kernel_constraint": null, "bias_constraint": null}, "name": "stage3_unit16_conv3", "inbound_nodes": [[["stage3_unit16_relu3", 0, 0, {}]]]}, {"class_name": "Add", "config": {"name": "add_1206", "trainable": true, "dtype": "float32"}, "name": "add_1206", "inbound_nodes": [[["stage3_unit16_conv3", 0, 0, {}], ["add_1205", 0, 0, {}]]]}, {"class_name": "BatchNormalization", "config": {"name": "stage3_unit17_bn1", "trainable": true, "dtype": "float32", "axis": [3], "momentum": 0.99, "epsilon": 2e-05, "center": true, "scale": true, "beta_initializer": {"class_name": "Zeros", "config": {}}, "gamma_initializer": {"class_name": "Ones", "config": {}}, "moving_mean_initializer": {"class_name": "Zeros", "config": {}}, "moving_variance_initializer": {"class_name": "Ones", "config": {}}, "beta_regularizer": null, "gamma_regularizer": null, "beta_constraint": null, "gamma_constraint": null}, "name": "stage3_unit17_bn1", "inbound_nodes": [[["add_1206", 0, 0, {}]]]}, {"class_name": "Activation", "config": {"name": "stage3_unit17_relu1", "trainable": true, "dtype": "float32", "activation": "relu"}, "name": "stage3_unit17_relu1", "inbound_nodes": [[["stage3_unit17_bn1", 0, 0, {}]]]}, {"class_name": "Conv2D", "config": {"name": "stage3_unit17_conv1", "trainable": true, "dtype": "float32", "filters": 256, "kernel_size": [1, 1], "strides": [1, 1], "padding": "valid", "data_format": "channels_last", "dilation_rate": [1, 1], "groups": 1, "activation": "linear", "use_bias": false, "kernel_initializer": {"class_name": "HeUniform", "config": {"seed": null}}, "bias_initializer": {"class_name": "Zeros", "config": {}}, "kernel_regularizer": null, "bias_regularizer": null, "activity_regularizer": null, "kernel_constraint": null, "bias_constraint": null}, "name": "stage3_unit17_conv1", "inbound_nodes": [[["stage3_unit17_relu1", 0, 0, {}]]]}, {"class_name": "BatchNormalization", "config": {"name": "stage3_unit17_bn2", "trainable": true, "dtype": "float32", "axis": [3], "momentum": 0.99, "epsilon": 2e-05, "center": true, "scale": true, "beta_initializer": {"class_name": "Zeros", "config": {}}, "gamma_initializer": {"class_name": "Ones", "config": {}}, "moving_mean_initializer": {"class_name": "Zeros", "config": {}}, "moving_variance_initializer": {"class_name": "Ones", "config": {}}, "beta_regularizer": null, "gamma_regularizer": null, "beta_constraint": null, "gamma_constraint": null}, "name": "stage3_unit17_bn2", "inbound_nodes": [[["stage3_unit17_conv1", 0, 0, {}]]]}, {"class_name": "Activation", "config": {"name": "stage3_unit17_relu2", "trainable": true, "dtype": "float32", "activation": "relu"}, "name": "stage3_unit17_relu2", "inbound_nodes": [[["stage3_unit17_bn2", 0, 0, {}]]]}, {"class_name": "ZeroPadding2D", "config": {"name": "zero_padding2d_1599", "trainable": true, "dtype": "float32", "padding": [[1, 1], [1, 1]], "data_format": "channels_last"}, "name": "zero_padding2d_1599", "inbound_nodes": [[["stage3_unit17_relu2", 0, 0, {}]]]}, {"class_name": "Conv2D", "config": {"name": "stage3_unit17_conv2", "trainable": true, "dtype": "float32", "filters": 256, "kernel_size": [3, 3], "strides": [1, 1], "padding": "valid", "data_format": "channels_last", "dilation_rate": [1, 1], "groups": 1, "activation": "linear", "use_bias": false, "kernel_initializer": {"class_name": "HeUniform", "config": {"seed": null}}, "bias_initializer": {"class_name": "Zeros", "config": {}}, "kernel_regularizer": null, "bias_regularizer": null, "activity_regularizer": null, "kernel_constraint": null, "bias_constraint": null}, "name": "stage3_unit17_conv2", "inbound_nodes": [[["zero_padding2d_1599", 0, 0, {}]]]}, {"class_name": "BatchNormalization", "config": {"name": "stage3_unit17_bn3", "trainable": true, "dtype": "float32", "axis": [3], "momentum": 0.99, "epsilon": 2e-05, "center": true, "scale": true, "beta_initializer": {"class_name": "Zeros", "config": {}}, "gamma_initializer": {"class_name": "Ones", "config": {}}, "moving_mean_initializer": {"class_name": "Zeros", "config": {}}, "moving_variance_initializer": {"class_name": "Ones", "config": {}}, "beta_regularizer": null, "gamma_regularizer": null, "beta_constraint": null, "gamma_constraint": null}, "name": "stage3_unit17_bn3", "inbound_nodes": [[["stage3_unit17_conv2", 0, 0, {}]]]}, {"class_name": "Activation", "config": {"name": "stage3_unit17_relu3", "trainable": true, "dtype": "float32", "activation": "relu"}, "name": "stage3_unit17_relu3", "inbound_nodes": [[["stage3_unit17_bn3", 0, 0, {}]]]}, {"class_name": "Conv2D", "config": {"name": "stage3_unit17_conv3", "trainable": true, "dtype": "float32", "filters": 1024, "kernel_size": [1, 1], "strides": [1, 1], "padding": "valid", "data_format": "channels_last", "dilation_rate": [1, 1], "groups": 1, "activation": "linear", "use_bias": false, "kernel_initializer": {"class_name": "HeUniform", "config": {"seed": null}}, "bias_initializer": {"class_name": "Zeros", "config": {}}, "kernel_regularizer": null, "bias_regularizer": null, "activity_regularizer": null, "kernel_constraint": null, "bias_constraint": null}, "name": "stage3_unit17_conv3", "inbound_nodes": [[["stage3_unit17_relu3", 0, 0, {}]]]}, {"class_name": "Add", "config": {"name": "add_1207", "trainable": true, "dtype": "float32"}, "name": "add_1207", "inbound_nodes": [[["stage3_unit17_conv3", 0, 0, {}], ["add_1206", 0, 0, {}]]]}, {"class_name": "BatchNormalization", "config": {"name": "stage3_unit18_bn1", "trainable": true, "dtype": "float32", "axis": [3], "momentum": 0.99, "epsilon": 2e-05, "center": true, "scale": true, "beta_initializer": {"class_name": "Zeros", "config": {}}, "gamma_initializer": {"class_name": "Ones", "config": {}}, "moving_mean_initializer": {"class_name": "Zeros", "config": {}}, "moving_variance_initializer": {"class_name": "Ones", "config": {}}, "beta_regularizer": null, "gamma_regularizer": null, "beta_constraint": null, "gamma_constraint": null}, "name": "stage3_unit18_bn1", "inbound_nodes": [[["add_1207", 0, 0, {}]]]}, {"class_name": "Activation", "config": {"name": "stage3_unit18_relu1", "trainable": true, "dtype": "float32", "activation": "relu"}, "name": "stage3_unit18_relu1", "inbound_nodes": [[["stage3_unit18_bn1", 0, 0, {}]]]}, {"class_name": "Conv2D", "config": {"name": "stage3_unit18_conv1", "trainable": true, "dtype": "float32", "filters": 256, "kernel_size": [1, 1], "strides": [1, 1], "padding": "valid", "data_format": "channels_last", "dilation_rate": [1, 1], "groups": 1, "activation": "linear", "use_bias": false, "kernel_initializer": {"class_name": "HeUniform", "config": {"seed": null}}, "bias_initializer": {"class_name": "Zeros", "config": {}}, "kernel_regularizer": null, "bias_regularizer": null, "activity_regularizer": null, "kernel_constraint": null, "bias_constraint": null}, "name": "stage3_unit18_conv1", "inbound_nodes": [[["stage3_unit18_relu1", 0, 0, {}]]]}, {"class_name": "BatchNormalization", "config": {"name": "stage3_unit18_bn2", "trainable": true, "dtype": "float32", "axis": [3], "momentum": 0.99, "epsilon": 2e-05, "center": true, "scale": true, "beta_initializer": {"class_name": "Zeros", "config": {}}, "gamma_initializer": {"class_name": "Ones", "config": {}}, "moving_mean_initializer": {"class_name": "Zeros", "config": {}}, "moving_variance_initializer": {"class_name": "Ones", "config": {}}, "beta_regularizer": null, "gamma_regularizer": null, "beta_constraint": null, "gamma_constraint": null}, "name": "stage3_unit18_bn2", "inbound_nodes": [[["stage3_unit18_conv1", 0, 0, {}]]]}, {"class_name": "Activation", "config": {"name": "stage3_unit18_relu2", "trainable": true, "dtype": "float32", "activation": "relu"}, "name": "stage3_unit18_relu2", "inbound_nodes": [[["stage3_unit18_bn2", 0, 0, {}]]]}, {"class_name": "ZeroPadding2D", "config": {"name": "zero_padding2d_1600", "trainable": true, "dtype": "float32", "padding": [[1, 1], [1, 1]], "data_format": "channels_last"}, "name": "zero_padding2d_1600", "inbound_nodes": [[["stage3_unit18_relu2", 0, 0, {}]]]}, {"class_name": "Conv2D", "config": {"name": "stage3_unit18_conv2", "trainable": true, "dtype": "float32", "filters": 256, "kernel_size": [3, 3], "strides": [1, 1], "padding": "valid", "data_format": "channels_last", "dilation_rate": [1, 1], "groups": 1, "activation": "linear", "use_bias": false, "kernel_initializer": {"class_name": "HeUniform", "config": {"seed": null}}, "bias_initializer": {"class_name": "Zeros", "config": {}}, "kernel_regularizer": null, "bias_regularizer": null, "activity_regularizer": null, "kernel_constraint": null, "bias_constraint": null}, "name": "stage3_unit18_conv2", "inbound_nodes": [[["zero_padding2d_1600", 0, 0, {}]]]}, {"class_name": "BatchNormalization", "config": {"name": "stage3_unit18_bn3", "trainable": true, "dtype": "float32", "axis": [3], "momentum": 0.99, "epsilon": 2e-05, "center": true, "scale": true, "beta_initializer": {"class_name": "Zeros", "config": {}}, "gamma_initializer": {"class_name": "Ones", "config": {}}, "moving_mean_initializer": {"class_name": "Zeros", "config": {}}, "moving_variance_initializer": {"class_name": "Ones", "config": {}}, "beta_regularizer": null, "gamma_regularizer": null, "beta_constraint": null, "gamma_constraint": null}, "name": "stage3_unit18_bn3", "inbound_nodes": [[["stage3_unit18_conv2", 0, 0, {}]]]}, {"class_name": "Activation", "config": {"name": "stage3_unit18_relu3", "trainable": true, "dtype": "float32", "activation": "relu"}, "name": "stage3_unit18_relu3", "inbound_nodes": [[["stage3_unit18_bn3", 0, 0, {}]]]}, {"class_name": "Conv2D", "config": {"name": "stage3_unit18_conv3", "trainable": true, "dtype": "float32", "filters": 1024, "kernel_size": [1, 1], "strides": [1, 1], "padding": "valid", "data_format": "channels_last", "dilation_rate": [1, 1], "groups": 1, "activation": "linear", "use_bias": false, "kernel_initializer": {"class_name": "HeUniform", "config": {"seed": null}}, "bias_initializer": {"class_name": "Zeros", "config": {}}, "kernel_regularizer": null, "bias_regularizer": null, "activity_regularizer": null, "kernel_constraint": null, "bias_constraint": null}, "name": "stage3_unit18_conv3", "inbound_nodes": [[["stage3_unit18_relu3", 0, 0, {}]]]}, {"class_name": "Add", "config": {"name": "add_1208", "trainable": true, "dtype": "float32"}, "name": "add_1208", "inbound_nodes": [[["stage3_unit18_conv3", 0, 0, {}], ["add_1207", 0, 0, {}]]]}, {"class_name": "BatchNormalization", "config": {"name": "stage3_unit19_bn1", "trainable": true, "dtype": "float32", "axis": [3], "momentum": 0.99, "epsilon": 2e-05, "center": true, "scale": true, "beta_initializer": {"class_name": "Zeros", "config": {}}, "gamma_initializer": {"class_name": "Ones", "config": {}}, "moving_mean_initializer": {"class_name": "Zeros", "config": {}}, "moving_variance_initializer": {"class_name": "Ones", "config": {}}, "beta_regularizer": null, "gamma_regularizer": null, "beta_constraint": null, "gamma_constraint": null}, "name": "stage3_unit19_bn1", "inbound_nodes": …
}]]]}, {"class_name": "BatchNormalization", "config": {"name": "stage3_unit34_bn1", "trainable": true, "dtype": "float32", "axis": [3], "momentum": 0.99, "epsilon": 2e-05, "center": true, "scale": true, "beta_initializer": {"class_name": "Zeros", "config": {}}, "gamma_initializer": {"class_name": "Ones", "config": {}}, "moving_mean_initializer": {"class_name": "Zeros", "config": {}}, "moving_variance_initializer": {"class_name": "Ones", "config": {}}, "beta_regularizer": null, "gamma_regularizer": null, "beta_constraint": null, "gamma_constraint": null}, "name": "stage3_unit34_bn1", "inbound_nodes": [[["add_1223", 0, 0, {}]]]}, {"class_name": "Activation", "config": {"name": "stage3_unit34_relu1", "trainable": true, "dtype": "float32", "activation": "relu"}, "name": "stage3_unit34_relu1", "inbound_nodes": [[["stage3_unit34_bn1", 0, 0, {}]]]}, {"class_name": "Conv2D", "config": {"name": "stage3_unit34_conv1", "trainable": true, "dtype": "float32", "filters": 256, "kernel_size": [1, 1], "strides": [1, 1], "padding": "valid", "data_format": "channels_last", "dilation_rate": [1, 1], "groups": 1, "activation": "linear", "use_bias": false, "kernel_initializer": {"class_name": "HeUniform", "config": {"seed": null}}, "bias_initializer": {"class_name": "Zeros", "config": {}}, "kernel_regularizer": null, "bias_regularizer": null, "activity_regularizer": null, "kernel_constraint": null, "bias_constraint": null}, "name": "stage3_unit34_conv1", "inbound_nodes": [[["stage3_unit34_relu1", 0, 0, {}]]]}, {"class_name": "BatchNormalization", "config": {"name": "stage3_unit34_bn2", "trainable": true, "dtype": "float32", "axis": [3], "momentum": 0.99, "epsilon": 2e-05, "center": true, "scale": true, "beta_initializer": {"class_name": "Zeros", "config": {}}, "gamma_initializer": {"class_name": "Ones", "config": {}}, "moving_mean_initializer": {"class_name": "Zeros", "config": {}}, "moving_variance_initializer": {"class_name": "Ones", "config": {}}, "beta_regularizer": null, "gamma_regularizer": null, "beta_constraint": null, "gamma_constraint": null}, "name": "stage3_unit34_bn2", "inbound_nodes": [[["stage3_unit34_conv1", 0, 0, {}]]]}, {"class_name": "Activation", "config": {"name": "stage3_unit34_relu2", "trainable": true, "dtype": "float32", "activation": "relu"}, "name": "stage3_unit34_relu2", "inbound_nodes": [[["stage3_unit34_bn2", 0, 0, {}]]]}, {"class_name": "ZeroPadding2D", "config": {"name": "zero_padding2d_1616", "trainable": true, "dtype": "float32", "padding": [[1, 1], [1, 1]], "data_format": "channels_last"}, "name": "zero_padding2d_1616", "inbound_nodes": [[["stage3_unit34_relu2", 0, 0, {}]]]}, {"class_name": "Conv2D", "config": {"name": "stage3_unit34_conv2", "trainable": true, "dtype": "float32", "filters": 256, "kernel_size": [3, 3], "strides": [1, 1], "padding": "valid", "data_format": "channels_last", "dilation_rate": [1, 1], "groups": 1, "activation": "linear", "use_bias": false, "kernel_initializer": {"class_name": "HeUniform", "config": {"seed": null}}, "bias_initializer": {"class_name": "Zeros", "config": {}}, "kernel_regularizer": null, "bias_regularizer": null, "activity_regularizer": null, "kernel_constraint": null, "bias_constraint": null}, "name": "stage3_unit34_conv2", "inbound_nodes": [[["zero_padding2d_1616", 0, 0, {}]]]}, {"class_name": "BatchNormalization", "config": {"name": "stage3_unit34_bn3", "trainable": true, "dtype": "float32", "axis": [3], "momentum": 0.99, "epsilon": 2e-05, "center": true, "scale": true, "beta_initializer": {"class_name": "Zeros", "config": {}}, "gamma_initializer": {"class_name": "Ones", "config": {}}, "moving_mean_initializer": {"class_name": "Zeros", "config": {}}, "moving_variance_initializer": {"class_name": "Ones", "config": {}}, "beta_regularizer": null, "gamma_regularizer": null, "beta_constraint": null, "gamma_constraint": null}, "name": "stage3_unit34_bn3", "inbound_nodes": [[["stage3_unit34_conv2", 0, 0, {}]]]}, {"class_name": "Activation", "config": {"name": "stage3_unit34_relu3", "trainable": true, "dtype": "float32", "activation": "relu"}, "name": "stage3_unit34_relu3", "inbound_nodes": [[["stage3_unit34_bn3", 0, 0, {}]]]}, {"class_name": "Conv2D", "config": {"name": "stage3_unit34_conv3", "trainable": true, "dtype": "float32", "filters": 1024, "kernel_size": [1, 1], "strides": [1, 1], "padding": "valid", "data_format": "channels_last", "dilation_rate": [1, 1], "groups": 1, "activation": "linear", "use_bias": false, "kernel_initializer": {"class_name": "HeUniform", "config": {"seed": null}}, "bias_initializer": {"class_name": "Zeros", "config": {}}, "kernel_regularizer": null, "bias_regularizer": null, "activity_regularizer": null, "kernel_constraint": null, "bias_constraint": null}, "name": "stage3_unit34_conv3", "inbound_nodes": [[["stage3_unit34_relu3", 0, 0, {}]]]}, {"class_name": "Add", "config": {"name": "add_1224", "trainable": true, "dtype": "float32"}, "name": "add_1224", "inbound_nodes": [[["stage3_unit34_conv3", 0, 0, {}], ["add_1223", 0, 0, {}]]]}, {"class_name": "BatchNormalization", "config": {"name": "stage3_unit35_bn1", "trainable": true, "dtype": "float32", "axis": [3], "momentum": 0.99, "epsilon": 2e-05, "center": true, "scale": true, "beta_initializer": {"class_name": "Zeros", "config": {}}, "gamma_initializer": {"class_name": "Ones", "config": {}}, "moving_mean_initializer": {"class_name": "Zeros", "config": {}}, "moving_variance_initializer": {"class_name": "Ones", "config": {}}, "beta_regularizer": null, "gamma_regularizer": null, "beta_constraint": null, "gamma_constraint": null}, "name": "stage3_unit35_bn1", "inbound_nodes": [[["add_1224", 0, 0, {}]]]}, {"class_name": "Activation", "config": {"name": "stage3_unit35_relu1", "trainable": true, "dtype": "float32", "activation": "relu"}, "name": "stage3_unit35_relu1", "inbound_nodes": [[["stage3_unit35_bn1", 0, 0, {}]]]}, {"class_name": "Conv2D", "config": {"name": "stage3_unit35_conv1", "trainable": true, "dtype": "float32", "filters": 256, "kernel_size": [1, 1], "strides": [1, 1], "padding": "valid", "data_format": "channels_last", "dilation_rate": [1, 1], "groups": 1, "activation": "linear", "use_bias": false, "kernel_initializer": {"class_name": "HeUniform", "config": {"seed": null}}, "bias_initializer": {"class_name": "Zeros", "config": {}}, "kernel_regularizer": null, "bias_regularizer": null, "activity_regularizer": null, "kernel_constraint": null, "bias_constraint": null}, "name": "stage3_unit35_conv1", "inbound_nodes": [[["stage3_unit35_relu1", 0, 0, {}]]]}, {"class_name": "BatchNormalization", "config": {"name": "stage3_unit35_bn2", "trainable": true, "dtype": "float32", "axis": [3], "momentum": 0.99, "epsilon": 2e-05, "center": true, "scale": true, "beta_initializer": {"class_name": "Zeros", "config": {}}, "gamma_initializer": {"class_name": "Ones", "config": {}}, "moving_mean_initializer": {"class_name": "Zeros", "config": {}}, "moving_variance_initializer": {"class_name": "Ones", "config": {}}, "beta_regularizer": null, "gamma_regularizer": null, "beta_constraint": null, "gamma_constraint": null}, "name": "stage3_unit35_bn2", "inbound_nodes": [[["stage3_unit35_conv1", 0, 0, {}]]]}, {"class_name": "Activation", "config": {"name": "stage3_unit35_relu2", "trainable": true, "dtype": "float32", "activation": "relu"}, "name": "stage3_unit35_relu2", "inbound_nodes": [[["stage3_unit35_bn2", 0, 0, {}]]]}, {"class_name": "ZeroPadding2D", "config": {"name": "zero_padding2d_1617", "trainable": true, "dtype": "float32", "padding": [[1, 1], [1, 1]], "data_format": "channels_last"}, "name": "zero_padding2d_1617", "inbound_nodes": [[["stage3_unit35_relu2", 0, 0, {}]]]}, {"class_name": "Conv2D", "config": {"name": "stage3_unit35_conv2", "trainable": true, "dtype": "float32", "filters": 256, "kernel_size": [3, 3], "strides": [1, 1], "padding": "valid", "data_format": "channels_last", "dilation_rate": [1, 1], "groups": 1, "activation": "linear", "use_bias": false, "kernel_initializer": {"class_name": "HeUniform", "config": {"seed": null}}, "bias_initializer": {"class_name": "Zeros", "config": {}}, "kernel_regularizer": null, "bias_regularizer": null, "activity_regularizer": null, "kernel_constraint": null, "bias_constraint": null}, "name": "stage3_unit35_conv2", "inbound_nodes": [[["zero_padding2d_1617", 0, 0, {}]]]}, {"class_name": "BatchNormalization", "config": {"name": "stage3_unit35_bn3", "trainable": true, "dtype": "float32", "axis": [3], "momentum": 0.99, "epsilon": 2e-05, "center": true, "scale": true, "beta_initializer": {"class_name": "Zeros", "config": {}}, "gamma_initializer": {"class_name": "Ones", "config": {}}, "moving_mean_initializer": {"class_name": "Zeros", "config": {}}, "moving_variance_initializer": {"class_name": "Ones", "config": {}}, "beta_regularizer": null, "gamma_regularizer": null, "beta_constraint": null, "gamma_constraint": null}, "name": "stage3_unit35_bn3", "inbound_nodes": [[["stage3_unit35_conv2", 0, 0, {}]]]}, {"class_name": "Activation", "config": {"name": "stage3_unit35_relu3", "trainable": true, "dtype": "float32", "activation": "relu"}, "name": "stage3_unit35_relu3", "inbound_nodes": [[["stage3_unit35_bn3", 0, 0, {}]]]}, {"class_name": "Conv2D", "config": {"name": "stage3_unit35_conv3", "trainable": true, "dtype": "float32", "filters": 1024, "kernel_size": [1, 1], "strides": [1, 1], "padding": "valid", "data_format": "channels_last", "dilation_rate": [1, 1], "groups": 1, "activation": "linear", "use_bias": false, "kernel_initializer": {"class_name": "HeUniform", "config": {"seed": null}}, "bias_initializer": {"class_name": "Zeros", "config": {}}, "kernel_regularizer": null, "bias_regularizer": null, "activity_regularizer": null, "kernel_constraint": null, "bias_constraint": null}, "name": "stage3_unit35_conv3", "inbound_nodes": [[["stage3_unit35_relu3", 0, 0, {}]]]}, {"class_name": "Add", "config": {"name": "add_1225", "trainable": true, "dtype": "float32"}, "name": "add_1225", "inbound_nodes": [[["stage3_unit35_conv3", 0, 0, {}], ["add_1224", 0, 0, {}]]]}, {"class_name": "BatchNormalization", "config": {"name": "stage3_unit36_bn1", "trainable": true, "dtype": "float32", "axis": [3], "momentum": 0.99, "epsilon": 2e-05, "center": true, "scale": true, "beta_initializer": {"class_name": "Zeros", "config": {}}, "gamma_initializer": {"class_name": "Ones", "config": {}}, "moving_mean_initializer": {"class_name": "Zeros", "config": {}}, "moving_variance_initializer": {"class_name": "Ones", "config": {}}, "beta_regularizer": null, "gamma_regularizer": null, "beta_constraint": null, "gamma_constraint": null}, "name": "stage3_unit36_bn1", "inbound_nodes": [[["add_1225", 0, 0, {}]]]}, {"class_name": "Activation", "config": {"name": "stage3_unit36_relu1", "trainable": true, "dtype": "float32", "activation": "relu"}, "name": "stage3_unit36_relu1", "inbound_nodes": [[["stage3_unit36_bn1", 0, 0, {}]]]}, {"class_name": "Conv2D", "config": {"name": "stage3_unit36_conv1", "trainable": true, "dtype": "float32", "filters": 256, "kernel_size": [1, 1], "strides": [1, 1], "padding": "valid", "data_format": "channels_last", "dilation_rate": [1, 1], "groups": 1, "activation": "linear", "use_bias": false, "kernel_initializer": {"class_name": "HeUniform", "config": {"seed": null}}, "bias_initializer": {"class_name": "Zeros", "config": {}}, "kernel_regularizer": null, "bias_regularizer": null, "activity_regularizer": null, "kernel_constraint": null, "bias_constraint": null}, "name": "stage3_unit36_conv1", "inbound_nodes": [[["stage3_unit36_relu1", 0, 0, {}]]]}, {"class_name": "BatchNormalization", "config": {"name": "stage3_unit36_bn2", "trainable": true, "dtype": "float32", "axis": [3], "momentum": 0.99, "epsilon": 2e-05, "center": true, "scale": true, "beta_initializer": {"class_name": "Zeros", "config": {}}, "gamma_initializer": {"class_name": "Ones", "config": {}}, "moving_mean_initializer": {"class_name": "Zeros", "config": {}}, "moving_variance_initializer": {"class_name": "Ones", "config": {}}, "beta_regularizer": null, "gamma_regularizer": null, "beta_constraint": null, "gamma_constraint": null}, "name": "stage3_unit36_bn2", "inbound_nodes": [[["stage3_unit36_conv1", 0, 0, {}]]]}, {"class_name": "Activation", "config": {"name": "stage3_unit36_relu2", "trainable": true, "dtype": "float32", "activation": "relu"}, "name": "stage3_unit36_relu2", "inbound_nodes": [[["stage3_unit36_bn2", 0, 0, {}]]]}, {"class_name": "ZeroPadding2D", "config": {"name": "zero_padding2d_1618", "trainable": true, "dtype": "float32", "padding": [[1, 1], [1, 1]], "data_format": "channels_last"}, "name": "zero_padding2d_1618", "inbound_nodes": [[["stage3_unit36_relu2", 0, 0, {}]]]}, {"class_name": "Conv2D", "config": {"name": "stage3_unit36_conv2", "trainable": true, "dtype": "float32", "filters": 256, "kernel_size": [3, 3], "strides": [1, 1], "padding": "valid", "data_format": "channels_last", "dilation_rate": [1, 1], "groups": 1, "activation": "linear", "use_bias": false, "kernel_initializer": {"class_name": "HeUniform", "config": {"seed": null}}, "bias_initializer": {"class_name": "Zeros", "config": {}}, "kernel_regularizer": null, "bias_regularizer": null, "activity_regularizer": null, "kernel_constraint": null, "bias_constraint": null}, "name": "stage3_unit36_conv2", "inbound_nodes": [[["zero_padding2d_1618", 0, 0, {}]]]}, {"class_name": "BatchNormalization", "config": {"name": "stage3_unit36_bn3", "trainable": true, "dtype": "float32", "axis": [3], "momentum": 0.99, "epsilon": 2e-05, "center": true, "scale": true, "beta_initializer": {"class_name": "Zeros", "config": {}}, "gamma_initializer": {"class_name": "Ones", "config": {}}, "moving_mean_initializer": {"class_name": "Zeros", "config": {}}, "moving_variance_initializer": {"class_name": "Ones", "config": {}}, "beta_regularizer": null, "gamma_regularizer": null, "beta_constraint": null, "gamma_constraint": null}, "name": "stage3_unit36_bn3", "inbound_nodes": [[["stage3_unit36_conv2", 0, 0, {}]]]}, {"class_name": "Activation", "config": {"name": "stage3_unit36_relu3", "trainable": true, "dtype": "float32", "activation": "relu"}, "name": "stage3_unit36_relu3", "inbound_nodes": [[["stage3_unit36_bn3", 0, 0, {}]]]}, {"class_name": "Conv2D", "config": {"name": "stage3_unit36_conv3", "trainable": true, "dtype": "float32", "filters": 1024, "kernel_size": [1, 1], "strides": [1, 1], "padding": "valid", "data_format": "channels_last", "dilation_rate": [1, 1], "groups": 1, "activation": "linear", "use_bias": false, "kernel_initializer": {"class_name": "HeUniform", "config": {"seed": null}}, "bias_initializer": {"class_name": "Zeros", "config": {}}, "kernel_regularizer": null, "bias_regularizer": null, "activity_regularizer": null, "kernel_constraint": null, "bias_constraint": null}, "name": "stage3_unit36_conv3", "inbound_nodes": [[["stage3_unit36_relu3", 0, 0, {}]]]}, {"class_name": "Add", "config": {"name": "add_1226", "trainable": true, "dtype": "float32"}, "name": "add_1226", "inbound_nodes": [[["stage3_unit36_conv3", 0, 0, {}], ["add_1225", 0, 0, {}]]]}, {"class_name": "BatchNormalization", "config": {"name": "stage4_unit1_bn1", "trainable": true, "dtype": "float32", "axis": [3], "momentum": 0.99, "epsilon": 2e-05, "center": true, "scale": true, "beta_initializer": {"class_name": "Zeros", "config": {}}, "gamma_initializer": {"class_name": "Ones", "config": {}}, "moving_mean_initializer": {"class_name": "Zeros", "config": {}}, "moving_variance_initializer": {"class_name": "Ones", "config": {}}, "beta_regularizer": null, "gamma_regularizer": null, "beta_constraint": null, "gamma_constraint": null}, "name": "stage4_unit1_bn1", "inbound_nodes": [[["add_1226", 0, 0, {}]]]}, {"class_name": "Activation", "config": {"name": "stage4_unit1_relu1", "trainable": true, "dtype": "float32", "activation": "relu"}, "name": "stage4_unit1_relu1", "inbound_nodes": [[["stage4_unit1_bn1", 0, 0, {}]]]}, {"class_name": "Conv2D", "config": {"name": "stage4_unit1_conv1", "trainable": true, "dtype": "float32", "filters": 512, "kernel_size": [1, 1], "strides": [1, 1], "padding": "valid", "data_format": "channels_last", "dilation_rate": [1, 1], "groups": 1, "activation": "linear", "use_bias": false, "kernel_initializer": {"class_name": "HeUniform", "config": {"seed": null}}, "bias_initializer": {"class_name": "Zeros", "config": {}}, "kernel_regularizer": null, "bias_regularizer": null, "activity_regularizer": null, "kernel_constraint": null, "bias_constraint": null}, "name": "stage4_unit1_conv1", "inbound_nodes": [[["stage4_unit1_relu1", 0, 0, {}]]]}, {"class_name": "BatchNormalization", "config": {"name": "stage4_unit1_bn2", "trainable": true, "dtype": "float32", "axis": [3], "momentum": 0.99, "epsilon": 2e-05, "center": true, "scale": true, "beta_initializer": {"class_name": "Zeros", "config": {}}, "gamma_initializer": {"class_name": "Ones", "config": {}}, "moving_mean_initializer": {"class_name": "Zeros", "config": {}}, "moving_variance_initializer": {"class_name": "Ones", "config": {}}, "beta_regularizer": null, "gamma_regularizer": null, "beta_constraint": null, "gamma_constraint": null}, "name": "stage4_unit1_bn2", "inbound_nodes": [[["stage4_unit1_conv1", 0, 0, {}]]]}, {"class_name": "Activation", "config": {"name": "stage4_unit1_relu2", "trainable": true, "dtype": "float32", "activation": "relu"}, "name": "stage4_unit1_relu2", "inbound_nodes": [[["stage4_unit1_bn2", 0, 0, {}]]]}, {"class_name": "ZeroPadding2D", "config": {"name": "zero_padding2d_1619", "trainable": true, "dtype": "float32", "padding": [[1, 1], [1, 1]], "data_format": "channels_last"}, "name": "zero_padding2d_1619", "inbound_nodes": [[["stage4_unit1_relu2", 0, 0, {}]]]}, {"class_name": "Conv2D", "config": {"name": "stage4_unit1_conv2", "trainable": true, "dtype": "float32", "filters": 512, "kernel_size": [3, 3], "strides": [2, 2], "padding": "valid", "data_format": "channels_last", "dilation_rate": [1, 1], "groups": 1, "activation": "linear", "use_bias": false, "kernel_initializer": {"class_name": "HeUniform", "config": {"seed": null}}, "bias_initializer": {"class_name": "Zeros", "config": {}}, "kernel_regularizer": null, "bias_regularizer": null, "activity_regularizer": null, "kernel_constraint": null, "bias_constraint": null}, "name": "stage4_unit1_conv2", "inbound_nodes": [[["zero_padding2d_1619", 0, 0, {}]]]}, {"class_name": "BatchNormalization", "config": {"name": "stage4_unit1_bn3", "trainable": true, "dtype": "float32", "axis": [3], "momentum": 0.99, "epsilon": 2e-05, "center": true, "scale": true, "beta_initializer": {"class_name": "Zeros", "config": {}}, "gamma_initializer": {"class_name": "Ones", "config": {}}, "moving_mean_initializer": {"class_name": "Zeros", "config": {}}, "moving_variance_initializer": {"class_name": "Ones", "config": {}}, "beta_regularizer": null, "gamma_regularizer": null, "beta_constraint": null, "gamma_constraint": null}, "name": "stage4_unit1_bn3", "inbound_nodes": [[["stage4_unit1_conv2", 0, 0, {}]]]}, {"class_name": "Activation", "config": {"name": "stage4_unit1_relu3", "trainable": true, "dtype": "float32", "activation": "relu"}, "name": "stage4_unit1_relu3", "inbound_nodes": [[["stage4_unit1_bn3", 0, 0, {}]]]}, {"class_name": "Conv2D", "config": {"name": "stage4_unit1_conv3", "trainable": true, "dtype": "float32", "filters": 2048, "kernel_size": [1, 1], "strides": [1, 1], "padding": "valid", "data_format": "channels_last", "dilation_rate": [1, 1], "groups": 1, "activation": "linear", "use_bias": false, "kernel_initializer": {"class_name": "HeUniform", "config": {"seed": null}}, "bias_initializer": {"class_name": "Zeros", "config": {}}, "kernel_regularizer": null, "bias_regularizer": null, "activity_regularizer": null, "kernel_constraint": null, "bias_constraint": null}, "name": "stage4_unit1_conv3", "inbound_nodes": [[["stage4_unit1_relu3", 0, 0, {}]]]}, {"class_name": "Conv2D", "config": {"name": "stage4_unit1_sc", "trainable": true, "dtype": "float32", "filters": 2048, "kernel_size": [1, 1], "strides": [2, 2], "padding": "valid", "data_format": "channels_last", "dilation_rate": [1, 1], "groups": 1, "activation": "linear", "use_bias": false, "kernel_initializer": {"class_name": "HeUniform", "config": {"seed": null}}, "bias_initializer": {"class_name": "Zeros", "config": {}}, "kernel_regularizer": null, "bias_regularizer": null, "activity_regularizer": null, "kernel_constraint": null, "bias_constraint": null}, "name": "stage4_unit1_sc", "inbound_nodes": [[["stage4_unit1_relu1", 0, 0, {}]]]}, {"class_name": "Add", "config": {"name": "add_1227", "trainable": true, "dtype": "float32"}, "name": "add_1227", "inbound_nodes": [[["stage4_unit1_conv3", 0, 0, {}], ["stage4_unit1_sc", 0, 0, {}]]]}, {"class_name": "BatchNormalization", "config": {"name": "stage4_unit2_bn1", "trainable": true, "dtype": "float32", "axis": [3], "momentum": 0.99, "epsilon": 2e-05, "center": true, "scale": true, "beta_initializer": {"class_name": "Zeros", "config": {}}, "gamma_initializer": {"class_name": "Ones", "config": {}}, "moving_mean_initializer": {"class_name": "Zeros", "config": {}}, "moving_variance_initializer": {"class_name": "Ones", "config": {}}, "beta_regularizer": null, "gamma_regularizer": null, "beta_constraint": null, "gamma_constraint": null}, "name": "stage4_unit2_bn1", "inbound_nodes": [[["add_1227", 0, 0, {}]]]}, {"class_name": "Activation", "config": {"name": "stage4_unit2_relu1", "trainable": true, "dtype": "float32", "activation": "relu"}, "name": "stage4_unit2_relu1", "inbound_nodes": [[["stage4_unit2_bn1", 0, 0, {}]]]}, {"class_name": "Conv2D", "config": {"name": "stage4_unit2_conv1", "trainable": true, "dtype": "float32", "filters": 512, "kernel_size": [1, 1], "strides": [1, 1], "padding": "valid", "data_format": "channels_last", "dilation_rate": [1, 1], "groups": 1, "activation": "linear", "use_bias": false, "kernel_initializer": {"class_name": "HeUniform", "config": {"seed": null}}, "bias_initializer": {"class_name": "Zeros", "config": {}}, "kernel_regularizer": null, "bias_regularizer": null, "activity_regularizer": null, "kernel_constraint": null, "bias_constraint": null}, "name": "stage4_unit2_conv1", "inbound_nodes": [[["stage4_unit2_relu1", 0, 0, {}]]]}, {"class_name": "BatchNormalization", "config": {"name": "stage4_unit2_bn2", "trainable": true, "dtype": "float32", "axis": [3], "momentum": 0.99, "epsilon": 2e-05, "center": true, "scale": true, "beta_initializer": {"class_name": "Zeros", "config": {}}, "gamma_initializer": {"class_name": "Ones", "config": {}}, "moving_mean_initializer": {"class_name": "Zeros", "config": {}}, "moving_variance_initializer": {"class_name": "Ones", "config": {}}, "beta_regularizer": null, "gamma_regularizer": null, "beta_constraint": null, "gamma_constraint": null}, "name": "stage4_unit2_bn2", "inbound_nodes": [[["stage4_unit2_conv1", 0, 0, {}]]]}, {"class_name": "Activation", "config": {"name": "stage4_unit2_relu2", "trainable": true, "dtype": "float32", "activation": "relu"}, "name": "stage4_unit2_relu2", "inbound_nodes": [[["stage4_unit2_bn2", 0, 0, {}]]]}, {"class_name": "ZeroPadding2D", "config": {"name": "zero_padding2d_1620", "trainable": true, "dtype": "float32", "padding": [[1, 1], [1, 1]], "data_format": "channels_last"}, "name": "zero_padding2d_1620", "inbound_nodes": [[["stage4_unit2_relu2", 0, 0, {}]]]}, {"class_name": "Conv2D", "config": {"name": "stage4_unit2_conv2", "trainable": true, "dtype": "float32", "filters": 512, "kernel_size": [3, 3], "strides": [1, 1], "padding": "valid", "data_format": "channels_last", "dilation_rate": [1, 1], "groups": 1, "activation": "linear", "use_bias": false, "kernel_initializer": {"class_name": "HeUniform", "config": {"seed": null}}, "bias_initializer": {"class_name": "Zeros", "config": {}}, "kernel_regularizer": null, "bias_regularizer": null, "activity_regularizer": null, "kernel_constraint": null, "bias_constraint": null}, "name": "stage4_unit2_conv2", "inbound_nodes": [[["zero_padding2d_1620", 0, 0, {}]]]}, {"class_name": "BatchNormalization", "config": {"name": "stage4_unit2_bn3", "trainable": true, "dtype": "float32", "axis": [3], "momentum": 0.99, "epsilon": 2e-05, "center": true, "scale": true, "beta_initializer": {"class_name": "Zeros", "config": {}}, "gamma_initializer": {"class_name": "Ones", "config": {}}, "moving_mean_initializer": {"class_name": "Zeros", "config": {}}, "moving_variance_initializer": {"class_name": "Ones", "config": {}}, "beta_regularizer": null, "gamma_regularizer": null, "beta_constraint": null, "gamma_constraint": null}, "name": "stage4_unit2_bn3", "inbound_nodes": [[["stage4_unit2_conv2", 0, 0, {}]]]}, {"class_name": "Activation", "config": {"name": "stage4_unit2_relu3", "trainable": true, "dtype": "float32", "activation": "relu"}, "name": "stage4_unit2_relu3", "inbound_nodes": [[["stage4_unit2_bn3", 0, 0, {}]]]}, {"class_name": "Conv2D", "config": {"name": "stage4_unit2_conv3", "trainable": true, "dtype": "float32", "filters": 2048, "kernel_size": [1, 1], "strides": [1, 1], "padding": "valid", "data_format": "channels_last", "dilation_rate": [1, 1], "groups": 1, "activation": "linear", "use_bias": false, "kernel_initializer": {"class_name": "HeUniform", "config": {"seed": null}}, "bias_initializer": {"class_name": "Zeros", "config": {}}, "kernel_regularizer": null, "bias_regularizer": null, "activity_regularizer": null, "kernel_constraint": null, "bias_constraint": null}, "name": "stage4_unit2_conv3", "inbound_nodes": [[["stage4_unit2_relu3", 0, 0, {}]]]}, {"class_name": "Add", "config": {"name": "add_1228", "trainable": true, "dtype": "float32"}, "name": "add_1228", "inbound_nodes": [[["stage4_unit2_conv3", 0, 0, {}], ["add_1227", 0, 0, {}]]]}, {"class_name": "BatchNormalization", "config": {"name": "stage4_unit3_bn1", "trainable": true, "dtype": "float32", "axis": [3], "momentum": 0.99, "epsilon": 2e-05, "center": true, "scale": true, "beta_initializer": {"class_name": "Zeros", "config": {}}, "gamma_initializer": {"class_name": "Ones", "config": {}}, "moving_mean_initializer": {"class_name": "Zeros", "config": {}}, "moving_variance_initializer": {"class_name": "Ones", "config": {}}, "beta_regularizer": null, "gamma_regularizer": null, "beta_constraint": null, "gamma_constraint": null}, "name": "stage4_unit3_bn1", "inbound_nodes": [[["add_1228", 0, 0, {}]]]}, {"class_name": "Activation", "config": {"name": "stage4_unit3_relu1", "trainable": true, "dtype": "float32", "activation": "relu"}, "name": "stage4_unit3_relu1", "inbound_nodes": [[["stage4_unit3_bn1", 0, 0, {}]]]}, {"class_name": "Conv2D", "config": {"name": "stage4_unit3_conv1", "trainable": true, "dtype": "float32", "filters": 512, "kernel_size": [1, 1], "strides": [1, 1], "padding": "valid", "data_format": "channels_last", "dilation_rate": [1, 1], "groups": 1, "activation": "linear", "use_bias": false, "kernel_initializer": {"class_name": "HeUniform", "config": {"seed": null}}, "bias_initializer": {"class_name": "Zeros", "config": {}}, "kernel_regularizer": null, "bias_regularizer": null, "activity_regularizer": null, "kernel_constraint": null, "bias_constraint": null}, "name": "stage4_unit3_conv1", "inbound_nodes": [[["stage4_unit3_relu1", 0, 0, {}]]]}, {"class_name": "BatchNormalization", "config": {"name": "stage4_unit3_bn2", "trainable": true, "dtype": "float32", "axis": [3], "momentum": 0.99, "epsilon": 2e-05, "center": true, "scale": true, "beta_initializer": {"class_name": "Zeros", "config": {}}, "gamma_initializer": {"class_name": "Ones", "config": {}}, "moving_mean_initializer": {"class_name": "Zeros", "config": {}}, "moving_variance_initializer": {"class_name": "Ones", "config": {}}, "beta_regularizer": null, "gamma_regularizer": null, "beta_constraint": null, "gamma_constraint": null}, "name": "stage4_unit3_bn2", "inbound_nodes": [[["stage4_unit3_conv1", 0, 0, {}]]]}, {"class_name": "Activation", "config": {"name": "stage4_unit3_relu2", "trainable": true, "dtype": "float32", "activation": "relu"}, "name": "stage4_unit3_relu2", "inbound_nodes": [[["stage4_unit3_bn2", 0, 0, {}]]]}, {"class_name": "ZeroPadding2D", "config": {"name": "zero_padding2d_1621", "trainable": true, "dtype": "float32", "padding": [[1, 1], [1, 1]], "data_format": "channels_last"}, "name": "zero_padding2d_1621", "inbound_nodes": [[["stage4_unit3_relu2", 0, 0, {}]]]}, {"class_name": "Conv2D", "config": {"name": "stage4_unit3_conv2", "trainable": true, "dtype": "float32", "filters": 512, "kernel_size": [3, 3], "strides": [1, 1], "padding": "valid", "data_format": "channels_last", "dilation_rate": [1, 1], "groups": 1, "activation": "linear", "use_bias": false, "kernel_initializer": {"class_name": "HeUniform", "config": {"seed": null}}, "bias_initializer": {"class_name": "Zeros", "config": {}}, "kernel_regularizer": null, "bias_regularizer": null, "activity_regularizer": null, "kernel_constraint": null, "bias_constraint": null}, "name": "stage4_unit3_conv2", "inbound_nodes": [[["zero_padding2d_1621", 0, 0, {}]]]}, {"class_name": "BatchNormalization", "config": {"name": "stage4_unit3_bn3", "trainable": true, "dtype": "float32", "axis": [3], "momentum": 0.99, "epsilon": 2e-05, "center": true, "scale": true, "beta_initializer": {"class_name": "Zeros", "config": {}}, "gamma_initializer": {"class_name": "Ones", "config": {}}, "moving_mean_initializer": {"class_name": "Zeros", "config": {}}, "moving_variance_initializer": {"class_name": "Ones", "config": {}}, "beta_regularizer": null, "gamma_regularizer": null, "beta_constraint": null, "gamma_constraint": null}, "name": "stage4_unit3_bn3", "inbound_nodes": [[["stage4_unit3_conv2", 0, 0, {}]]]}, {"class_name": "Activation", "config": {"name": "stage4_unit3_relu3", "trainable": true, "dtype": "float32", "activation": "relu"}, "name": "stage4_unit3_relu3", "inbound_nodes": [[["stage4_unit3_bn3", 0, 0, {}]]]}, {"class_name": "Conv2D", "config": {"name": "stage4_unit3_conv3", "trainable": true, "dtype": "float32", "filters": 2048, "kernel_size": [1, 1], "strides": [1, 1], "padding": "valid", "data_format": "channels_last", "dilation_rate": [1, 1], "groups": 1, "activation": "linear", "use_bias": false, "kernel_initializer": {"class_name": "HeUniform", "config": {"seed": null}}, "bias_initializer": {"class_name": "Zeros", "config": {}}, "kernel_regularizer": null, "bias_regularizer": null, "activity_regularizer": null, "kernel_constraint": null, "bias_constraint": null}, "name": "stage4_unit3_conv3", "inbound_nodes": [[["stage4_unit3_relu3", 0, 0, {}]]]}, {"class_name": "Add", "config": {"name": "add_1229", "trainable": true, "dtype": "float32"}, "name": "add_1229", "inbound_nodes": [[["stage4_unit3_conv3", 0, 0, {}], ["add_1228", 0, 0, {}]]]}, {"class_name": "BatchNormalization", "config": {"name": "bn1", "trainable": true, "dtype": "float32", "axis": [3], "momentum": 0.99, "epsilon": 2e-05, "center": true, "scale": true, "beta_initializer": {"class_name": "Zeros", "config": {}}, "gamma_initializer": {"class_name": "Ones", "config": {}}, "moving_mean_initializer": {"class_name": "Zeros", "config": {}}, "moving_variance_initializer": {"class_name": "Ones", "config": {}}, "beta_regularizer": null, "gamma_regularizer": null, "beta_constraint": null, "gamma_constraint": null}, "name": "bn1", "inbound_nodes": [[["add_1229", 0, 0, {}]]]}, {"class_name": "Activation", "config": {"name": "relu1", "trainable": true, "dtype": "float32", "activation": "relu"}, "name": "relu1", "inbound_nodes": [[["bn1", 0, 0, {}]]]}, {"class_name": "UpSampling2D", "config": {"name": "decoder_stage0_upsampling", "trainable": true, "dtype": "float32", "size": [2, 2], "data_format": "channels_last", "interpolation": "nearest"}, "name": "decoder_stage0_upsampling", "inbound_nodes": [[["relu1", 0, 0, {}]]]}, {"class_name": "Concatenate", "config": {"name": "decoder_stage0_concat", "trainable": true, "dtype": "float32", "axis": 3}, "name": "decoder_stage0_concat", "inbound_nodes": [[["decoder_stage0_upsampling", 0, 0, {}], ["stage4_unit1_relu1", 0, 0, {}]]]}, {"class_name": "Conv2D", "config": {"name": "decoder_stage0a_conv", "trainable": true, "dtype": "float32", "filters": 256, "kernel_size": [3, 3], "strides": [1, 1], "padding": "same", "data_format": "channels_last", "dilation_rate": [1, 1], "groups": 1, "activation": "linear", "use_bias": false, "kernel_initializer": {"class_name": "HeUniform", "config": {"seed": null}}, "bias_initializer": {"class_name": "Zeros", "config": {}}, "kernel_regularizer": null, "bias_regularizer": null, "activity_regularizer": null, "kernel_constraint": null, "bias_constraint": null}, "name": "decoder_stage0a_conv", "inbound_nodes": [[["decoder_stage0_concat", 0, 0, {}]]]}, {"class_name": "BatchNormalization", "config": {"name": "decoder_stage0a_bn", "trainable": true, "dtype": "float32", "axis": [3], "momentum": 0.99, "epsilon": 0.001, "center": true, "scale": true, "beta_initializer": {"class_name": "Zeros", "config": {}}, "gamma_initializer": {"class_name": "Ones", "config": {}}, "moving_mean_initializer": {"class_name": "Zeros", "config": {}}, "moving_variance_initializer": {"class_name": "Ones", "config": {}}, "beta_regularizer": null, "gamma_regularizer": null, "beta_constraint": null, "gamma_constraint": null}, "name": "decoder_stage0a_bn", "inbound_nodes": [[["decoder_stage0a_conv", 0, 0, {}]]]}, {"class_name": "Activation", "config": {"name": "decoder_stage0a_relu", "trainable": true, "dtype": "float32", "activation": "relu"}, "name": "decoder_stage0a_relu", "inbound_nodes": [[["decoder_stage0a_bn", 0, 0, {}]]]}, {"class_name": "Conv2D", "config": {"name": "decoder_stage0b_conv", "trainable": true, "dtype": "float32", "filters": 256, "kernel_size": [3, 3], "strides": [1, 1], "padding": "same", "data_format": "channels_last", "dilation_rate": [1, 1], "groups": 1, "activation": "linear", "use_bias": false, "kernel_initializer": {"class_name": "HeUniform", "config": {"seed": null}}, "bias_initializer": {"class_name": "Zeros", "config": {}}, "kernel_regularizer": null, "bias_regularizer": null, "activity_regularizer": null, "kernel_constraint": null, "bias_constraint": null}, "name": "decoder_stage0b_conv", "inbound_nodes": [[["decoder_stage0a_relu", 0, 0, {}]]]}, {"class_name": "BatchNormalization", "config": {"name": "decoder_stage0b_bn", "trainable": true, "dtype": "float32", "axis": [3], "momentum": 0.99, "epsilon": 0.001, "center": true, "scale": true, "beta_initializer": {"class_name": "Zeros", "config": {}}, "gamma_initializer": {"class_name": "Ones", "config": {}}, "moving_mean_initializer": {"class_name": "Zeros", "config": {}}, "moving_variance_initializer": {"class_name": "Ones", "config": {}}, "beta_regularizer": null, "gamma_regularizer": null, "beta_constraint": null, "gamma_constraint": null}, "name": "decoder_stage0b_bn", "inbound_nodes": [[["decoder_stage0b_conv", 0, 0, {}]]]}, {"class_name": "Activation", "config": {"name": "decoder_stage0b_relu", "trainable": true, "dtype": "float32", "activation": "relu"}, "name": "decoder_stage0b_relu", "inbound_nodes": [[["decoder_stage0b_bn", 0, 0, {}]]]}, {"class_name": "UpSampling2D", "config": {"name": "decoder_stage1_upsampling", "trainable": true, "dtype": "float32", "size": [2, 2], "data_format": "channels_last", "interpolation": "nearest"}, "name": "decoder_stage1_upsampling", "inbound_nodes": [[["decoder_stage0b_relu", 0, 0, {}]]]}, {"class_name": "Concatenate", "config": {"name": "decoder_stage1_concat", "trainable": true, "dtype": "float32", "axis": 3}, "name": "decoder_stage1_concat", "inbound_nodes": [[["decoder_stage1_upsampling", 0, 0, {}], ["stage3_unit1_relu1", 0, 0, {}]]]}, {"class_name": "Conv2D", "config": {"name": "decoder_stage1a_conv", "trainable": true, "dtype": "float32", "filters": 128, "kernel_size": [3, 3], "strides": [1, 1], "padding": "same", "data_format": "channels_last", "dilation_rate": [1, 1], "groups": 1, "activation": "linear", "use_bias": false, "kernel_initializer": {"class_name": "HeUniform", "config": {"seed": null}}, "bias_initializer": {"class_name": "Zeros", "config": {}}, "kernel_regularizer": null, "bias_regularizer": null, "activity_regularizer": null, "kernel_constraint": null, "bias_constraint": null}, "name": "decoder_stage1a_conv", "inbound_nodes": [[["decoder_stage1_concat", 0, 0, {}]]]}, {"class_name": "BatchNormalization", "config": {"name": "decoder_stage1a_bn", "trainable": true, "dtype": "float32", "axis": [3], "momentum": 0.99, "epsilon": 0.001, "center": true, "scale": true, "beta_initializer": {"class_name": "Zeros", "config": {}}, "gamma_initializer": {"class_name": "Ones", "config": {}}, "moving_mean_initializer": {"class_name": "Zeros", "config": {}}, "moving_variance_initializer": {"class_name": "Ones", "config": {}}, "beta_regularizer": null, "gamma_regularizer": null, "beta_constraint": null, "gamma_constraint": null}, "name": "decoder_stage1a_bn", "inbound_nodes": [[["decoder_stage1a_conv", 0, 0, {}]]]}, {"class_name": "Activation", "config": {"name": "decoder_stage1a_relu", "trainable": true, "dtype": "float32", "activation": "relu"}, "name": "decoder_stage1a_relu", "inbound_nodes": [[["decoder_stage1a_bn", 0, 0, {}]]]}, {"class_name": "Conv2D", "config": {"name": "decoder_stage1b_conv", "trainable": true, "dtype": "float32", "filters": 128, "kernel_size": [3, 3], "strides": [1, 1], "padding": "same", "data_format": "channels_last", "dilation_rate": [1, 1], "groups": 1, "activation": "linear", "use_bias": false, "kernel_initializer": {"class_name": "HeUniform", "config": {"seed": null}}, "bias_initializer": {"class_name": "Zeros", "config": {}}, "kernel_regularizer": null, "bias_regularizer": null, "activity_regularizer": null, "kernel_constraint": null, "bias_constraint": null}, "name": "decoder_stage1b_conv", "inbound_nodes": [[["decoder_stage1a_relu", 0, 0, {}]]]}, {"class_name": "BatchNormalization", "config": {"name": "decoder_stage1b_bn", "trainable": true, "dtype": "float32", "axis": [3], "momentum": 0.99, "epsilon": 0.001, "center": true, "scale": true, "beta_initializer": {"class_name": "Zeros", "config": {}}, "gamma_initializer": {"class_name": "Ones", "config": {}}, "moving_mean_initializer": {"class_name": "Zeros", "config": {}}, "moving_variance_initializer": {"class_name": "Ones", "config": {}}, "beta_regularizer": null, "gamma_regularizer": null, "beta_constraint": null, "gamma_constraint": null}, "name": "decoder_stage1b_bn", "inbound_nodes": [[["decoder_stage1b_conv", 0, 0, {}]]]}, {"class_name": "Activation", "config": {"name": "decoder_stage1b_relu", "trainable": true, "dtype": "float32", "activation": "relu"}, "name": "decoder_stage1b_relu", "inbound_nodes": [[["decoder_stage1b_bn", 0, 0, {}]]]}, {"class_name": "UpSampling2D", "config": {"name": "decoder_stage2_upsampling", "trainable": true, "dtype": "float32", "size": [2, 2], "data_format": "channels_last", "interpolation": "nearest"}, "name": "decoder_stage2_upsampling", "inbound_nodes": [[["decoder_stage1b_relu", 0, 0, {}]]]}, {"class_name": "Concatenate", "config": {"name": "decoder_stage2_concat", "trainable": true, "dtype": "float32", "axis": 3}, "name": "decoder_stage2_concat", "inbound_nodes": [[["decoder_stage2_upsampling", 0, 0, {}], ["stage2_unit1_relu1", 0, 0, {}]]]}, {"class_name": "Conv2D", "config": {"name": "decoder_stage2a_conv", "trainable": true, "dtype": "float32", "filters": 64, "kernel_size": [3, 3], "strides": [1, 1], "padding": "same", "data_format": "channels_last", "dilation_rate": [1, 1], "groups": 1, "activation": "linear", "use_bias": false, "kernel_initializer": {"class_name": "HeUniform", "config": {"seed": null}}, "bias_initializer": {"class_name": "Zeros", "config": {}}, "kernel_regularizer": null, "bias_regularizer": null, "activity_regularizer": null, "kernel_constraint": null, "bias_constraint": null}, "name": "decoder_stage2a_conv", "inbound_nodes": [[["decoder_stage2_concat", 0, 0, {}]]]}, {"class_name": "BatchNormalization", "config": {"name": "decoder_stage2a_bn", "trainable": true, "dtype": "float32", "axis": [3], "momentum": 0.99, "epsilon": 0.001, "center": true, "scale": true, "beta_initializer": {"class_name": "Zeros", "config": {}}, "gamma_initializer": {"class_name": "Ones", "config": {}}, "moving_mean_initializer": {"class_name": "Zeros", "config": {}}, "moving_variance_initializer": {"class_name": "Ones", "config": {}}, "beta_regularizer": null, "gamma_regularizer": null, "beta_constraint": null, "gamma_constraint": null}, "name": "decoder_stage2a_bn", "inbound_nodes": [[["decoder_stage2a_conv", 0, 0, {}]]]}, {"class_name": "Activation", "config": {"name": "decoder_stage2a_relu", "trainable": true, "dtype": "float32", "activation": "relu"}, "name": "decoder_stage2a_relu", "inbound_nodes": [[["decoder_stage2a_bn", 0, 0, {}]]]}, {"class_name": "Conv2D", "config": {"name": "decoder_stage2b_conv", "trainable": true, "dtype": "float32", "filters": 64, "kernel_size": [3, 3], "strides": [1, 1], "padding": "same", "data_format": "channels_last", "dilation_rate": [1, 1], "groups": 1, "activation": "linear", "use_bias": false, "kernel_initializer": {"class_name": "HeUniform", "config": {"seed": null}}, "bias_initializer": {"class_name": "Zeros", "config": {}}, "kernel_regularizer": null, "bias_regularizer": null, "activity_regularizer": null, "kernel_constraint": null, "bias_constraint": null}, "name": "decoder_stage2b_conv", "inbound_nodes": [[["decoder_stage2a_relu", 0, 0, {}]]]}, {"class_name": "BatchNormalization", "config": {"name": "decoder_stage2b_bn", "trainable": true, "dtype": "float32", "axis": [3], "momentum": 0.99, "epsilon": 0.001, "center": true, "scale": true, "beta_initializer": {"class_name": "Zeros", "config": {}}, "gamma_initializer": {"class_name": "Ones", "config": {}}, "moving_mean_initializer": {"class_name": "Zeros", "config": {}}, "moving_variance_initializer": {"class_name": "Ones", "config": {}}, "beta_regularizer": null, "gamma_regularizer": null, "beta_constraint": null, "gamma_constraint": null}, "name": "decoder_stage2b_bn", "inbound_nodes": [[["decoder_stage2b_conv", 0, 0, {}]]]}, {"class_name": "Activation", "config": {"name": "decoder_stage2b_relu", "trainable": true, "dtype": "float32", "activation": "relu"}, "name": "decoder_stage2b_relu", "inbound_nodes": [[["decoder_stage2b_bn", 0, 0, {}]]]}, {"class_name": "UpSampling2D", "config": {"name": "decoder_stage3_upsampling", "trainable": true, "dtype": "float32", "size": [2, 2], "data_format": "channels_last", "interpolation": "nearest"}, "name": "decoder_stage3_upsampling", "inbound_nodes": [[["decoder_stage2b_relu", 0, 0, {}]]]}, {"class_name": "Concatenate", "config": {"name": "decoder_stage3_concat", "trainable": true, "dtype": "float32", "axis": 3}, "name": "decoder_stage3_concat", "inbound_nodes": [[["decoder_stage3_upsampling", 0, 0, {}], ["relu0", 0, 0, {}]]]}, {"class_name": "Conv2D", "config": {"name": "decoder_stage3a_conv", "trainable": true, "dtype": "float32", "filters": 32, "kernel_size": [3, 3], "strides": [1, 1], "padding": "same", "data_format": "channels_last", "dilation_rate": [1, 1], "groups": 1, "activation": "linear", "use_bias": false, "kernel_initializer": {"class_name": "HeUniform", "config": {"seed": null}}, "bias_initializer": {"class_name": "Zeros", "config": {}}, "kernel_regularizer": null, "bias_regularizer": null, "activity_regularizer": null, "kernel_constraint": null, "bias_constraint": null}, "name": "decoder_stage3a_conv", "inbound_nodes": [[["decoder_stage3_concat", 0, 0, {}]]]}, {"class_name": "BatchNormalization", "config": {"name": "decoder_stage3a_bn", "trainable": true, "dtype": "float32", "axis": [3], "momentum": 0.99, "epsilon": 0.001, "center": true, "scale": true, "beta_initializer": {"class_name": "Zeros", "config": {}}, "gamma_initializer": {"class_name": "Ones", "config": {}}, "moving_mean_initializer": {"class_name": "Zeros", "config": {}}, "moving_variance_initializer": {"class_name": "Ones", "config": {}}, "beta_regularizer": null, "gamma_regularizer": null, "beta_constraint": null, "gamma_constraint": null}, "name": "decoder_stage3a_bn", "inbound_nodes": [[["decoder_stage3a_conv", 0, 0, {}]]]}, {"class_name": "Activation", "config": {"name": "decoder_stage3a_relu", "trainable": true, "dtype": "float32", "activation": "relu"}, "name": "decoder_stage3a_relu", "inbound_nodes": [[["decoder_stage3a_bn", 0, 0, {}]]]}, {"class_name": "Conv2D", "config": {"name": "decoder_stage3b_conv", "trainable": true, "dtype": "float32", "filters": 32, "kernel_size": [3, 3], "strides": [1, 1], "padding": "same", "data_format": "channels_last", "dilation_rate": [1, 1], "groups": 1, "activation": "linear", "use_bias": false, "kernel_initializer": {"class_name": "HeUniform", "config": {"seed": null}}, "bias_initializer": {"class_name": "Zeros", "config": {}}, "kernel_regularizer": null, "bias_regularizer": null, "activity_regularizer": null, "kernel_constraint": null, "bias_constraint": null}, "name": "decoder_stage3b_conv", "inbound_nodes": [[["decoder_stage3a_relu", 0, 0, {}]]]}, {"class_name": "BatchNormalization", "config": {"name": "decoder_stage3b_bn", "trainable": true, "dtype": "float32", "axis": [3], "momentum": 0.99, "epsilon": 0.001, "center": true, "scale": true, "beta_initializer": {"class_name": "Zeros", "config": {}}, "gamma_initializer": {"class_name": "Ones", "config": {}}, "moving_mean_initializer": {"class_name": "Zeros", "config": {}}, "moving_variance_initializer": {"class_name": "Ones", "config": {}}, "beta_regularizer": null, "gamma_regularizer": null, "beta_constraint": null, "gamma_constraint": null}, "name": "decoder_stage3b_bn", "inbound_nodes": [[["decoder_stage3b_conv", 0, 0, {}]]]}, {"class_name": "Activation", "config": {"name": "decoder_stage3b_relu", "trainable": true, "dtype": "float32", "activation": "relu"}, "name": "decoder_stage3b_relu", "inbound_nodes": [[["decoder_stage3b_bn", 0, 0, {}]]]}, {"class_name": "UpSampling2D", "config": {"name": "decoder_stage4_upsampling", "trainable": true, "dtype": "float32", "size": [2, 2], "data_format": "channels_last", "interpolation": "nearest"}, "name": "decoder_stage4_upsampling", "inbound_nodes": [[["decoder_stage3b_relu", 0, 0, {}]]]}, {"class_name": "Conv2D", "config": {"name": "decoder_stage4a_conv", "trainable": true, "dtype": "float32", "filters": 16, "kernel_size": [3, 3], "strides": [1, 1], "padding": "same", "data_format": "channels_last", "dilation_rate": [1, 1], "groups": 1, "activation": "linear", "use_bias": false, "kernel_initializer": {"class_name": "HeUniform", "config": {"seed": null}}, "bias_initializer": {"class_name": "Zeros", "config": {}}, "kernel_regularizer": null, "bias_regularizer": null, "activity_regularizer": null, "kernel_constraint": null, "bias_constraint": null}, "name": "decoder_stage4a_conv", "inbound_nodes": [[["decoder_stage4_upsampling", 0, 0, {}]]]}, {"class_name": "BatchNormalization", "config": {"name": "decoder_stage4a_bn", "trainable": true, "dtype": "float32", "axis": [3], "momentum": 0.99, "epsilon": 0.001, "center": true, "scale": true, "beta_initializer": {"class_name": "Zeros", "config": {}}, "gamma_initializer": {"class_name": "Ones", "config": {}}, "moving_mean_initializer": {"class_name": "Zeros", "config": {}}, "moving_variance_initializer": {"class_name": "Ones", "config": {}}, "beta_regularizer": null, "gamma_regularizer": null, "beta_constraint": null, "gamma_constraint": null}, "name": "decoder_stage4a_bn", "inbound_nodes": [[["decoder_stage4a_conv", 0, 0, {}]]]}, {"class_name": "Activation", "config": {"name": "decoder_stage4a_relu", "trainable": true, "dtype": "float32", "activation": "relu"}, "name": "decoder_stage4a_relu", "inbound_nodes": [[["decoder_stage4a_bn", 0, 0, {}]]]}, {"class_name": "Conv2D", "config": {"name": "decoder_stage4b_conv", "trainable": true, "dtype": "float32", "filters": 16, "kernel_size": [3, 3], "strides": [1, 1], "padding": "same", "data_format": "channels_last", "dilation_rate": [1, 1], "groups": 1, "activation": "linear", "use_bias": false, "kernel_initializer": {"class_name": "HeUniform", "config": {"seed": null}}, "bias_initializer": {"class_name": "Zeros", "config": {}}, "kernel_regularizer": null, "bias_regularizer": null, "activity_regularizer": null, "kernel_constraint": null, "bias_constraint": null}, "name": "decoder_stage4b_conv", "inbound_nodes": [[["decoder_stage4a_relu", 0, 0, {}]]]}, {"class_name": "BatchNormalization", "config": {"name": "decoder_stage4b_bn", "trainable": true, "dtype": "float32", "axis": [3], "momentum": 0.99, "epsilon": 0.001, "center": true, "scale": true, "beta_initializer": {"class_name": "Zeros", "config": {}}, "gamma_initializer": {"class_name": "Ones", "config": {}}, "moving_mean_initializer": {"class_name": "Zeros", "config": {}}, "moving_variance_initializer": {"class_name": "Ones", "config": {}}, "beta_regularizer": null, "gamma_regularizer": null, "beta_constraint": null, "gamma_constraint": null}, "name": "decoder_stage4b_bn", "inbound_nodes": [[["decoder_stage4b_conv", 0, 0, {}]]]}, {"class_name": "Activation", "config": {"name": "decoder_stage4b_relu", "trainable": true, "dtype": "float32", "activation": "relu"}, "name": "decoder_stage4b_relu", "inbound_nodes": [[["decoder_stage4b_bn", 0, 0, {}]]]}, {"class_name": "Conv2D", "config": {"name": "final_conv", "trainable": true, "dtype": "float32", "filters": 3, "kernel_size": [3, 3], "strides": [1, 1], "padding": "same", "data_format": "channels_last", "dilation_rate": [1, 1], "groups": 1, "activation": "linear", "use_bias": true, "kernel_initializer": {"class_name": "GlorotUniform", "config": {"seed": null}}, "bias_initializer": {"class_name": "Zeros", "config": {}}, "kernel_regularizer": null, "bias_regularizer": null, "activity_regularizer": null, "kernel_constraint": null, "bias_constraint": null}, "name": "final_conv", "inbound_nodes": [[["decoder_stage4b_relu", 0, 0, {}]]]}, {"class_name": "Activation", "config": {"name": "sigmoid", "trainable": true, "dtype": "float32", "activation": "sigmoid"}, "name": "sigmoid", "inbound_nodes": [[["final_conv", 0, 0, {}]]]}], "input_layers": [["data", 0, 0]], "output_layers": [["sigmoid", 0, 0]]}, "keras_version": "2.8.0", "backend": "tensorflow"}